results/Log_11011055/kernel_points/epoch53/layer_1_resnetb_0_shortcut.npy (npy, 131200 bytes, 1 tensors)

array f4 [128, 256]
0	0x3e900eae	0.281362
1	0x3e1c7137	0.15277563
2	0x3e8f389e	0.27972883
3	0x3e7132ff	0.2355461
4	0x3e12e037	0.14343344
5	0x3d33efb2	0.043929763
6	0x3c84acaa	0.016195614
7	0xbdbf0e48	-0.09328896
8	0xbe38504f	-0.17999385
9	0x3d46e46f	0.048557695
10	0xbdc6a045	-0.09698538
11	0xbdc0441b	-0.0938799
12	0xbe599098	-0.21246564
13	0x3c6a1601	0.014287473
14	0x3e61b35e	0.2204108
15	0xbe5b7fb0	-0.21435428
16	0xbe7c78bc	-0.24655432
17	0xbdcbf435	-0.09958688
18	0x3e606764	0.2191444
19	0xbd8443ed	-0.06458268
20	0x3d83fa19	0.06444187
21	0xbd931825	-0.071823396
22	0x3e9ec353	0.31008396
23	0xbc3d75fd	-0.011563775
24	0xbe057cf2	-0.13035944
25	0xbd813964	-0.063097745
26	0xbe8612aa	-0.26186115
27	0x3dee0c2f	0.116234176
28	0x3e2a838b	0.16651742
29	0xbe9b1fd2	-0.30297714
30	0x3d89b708	0.067243636
31	0xbcaf594a	-0.021404881
32	0x3cf811d8	0.030281946
33	0xbeb79ec2	-0.3586331
34	0x3d2270ba	0.039658286
35	0x3dd9e5f1	0.10639561
36	0xbd46b81f	-0.048515435
37	0x3d578c68	0.052624136
38	0xbd37e72b	-0.044898193
39	0xbdd28d5b	-0.10280868
40	0x3ca2729d	0.019830042
41	0x3eb111e4	0.34583962
42	0x3d220825	0.03955855
43	0x3db5152c	0.08841929
44	0x3ab2f3de	0.0013653
45	0x3c942254	0.018082775
46	0x3e0f3ae2	0.13987306
47	0xbde5cf2a	-0.11221154
48	0x3f023002	0.50854504
49	0x3ded39f7	0.115833215
50	0xbe9ca377	-0.30593464
51	0xbda107bb	-0.078628026
52	0x3e7fd630	0.2498405
53	0x3c1dff50	0.009643391
54	0x3ef13ff2	0.471191
55	0xbe3f43a2	-0.18678144
56	0xbcce7ae2	-0.02520508
57	0x3dbd137a	0.092322305
58	0x3dedef15	0.11617867
59	0x3e810cb2	0.25204998
60	0xbda13609	-0.078716345
61	0xbe02aa37	-0.12760244
62	0xbd2f2683	-0.042761337
63	0xbd185073	-0.037186097
64	0xbe986560	-0.29764843
65	0xbd1509b2	-0.0363862
66	0xbe68ffcc	-0.22753829
67	0xbed7f46d	-0.4217867
68	0xbd5cb41f	-0.053882714
69	0xbdece48c	-0.11567029
70	0x3d884ac9	0.06654889
71	0xbd9fa700	-0.077955246
72	0x3f6360c0	0.88819504
73	0xbe32dbd5	-0.17466672
74	0x3f7fb12d	0.99879724
75	0x3dd6c034	0.104858786
76	0x3da40177	0.08008092
77	0x3b958146	0.0045625297
78	0x3e8c3fc5	0.27392402
79	0x3e580d5b	0.21098845
80	0xbd0fa882	-0.03507281
81	0xbe0fbee1	-0.14037658
82	0xbd3e642a	-0.046482243
83	0x3df9af27	0.12191611
84	0xbce3a7ba	-0.02778994
85	0xbd4f8e88	-0.050673038
86	0xbec3a3e1	-0.38210967
87	0x3d2fc8b3	0.04291601
88	0xbcd26b00	-0.025685787
89	0x3d29ee97	0.041487303
90	0x3dda3f52	0.10656609
91	0xbe3f2778	-0.186674
92	0x3ec7b418	0.39004588
93	0xbb908feb	-0.0044116876
94	0xbe09c575	-0.1345423
95	0x3d85a6ea	0.06525977
96	0x3bad64f5	0.005291576
97	0xbd37e652	-0.044897385
98	0xbdb00d36	-0.0859627
99	0xbe4cd158	-0.20001733
100	0x3e57eb72	0.21085909
101	0x3f45d0a8	0.7727151
102	0x3d1fc52d	0.0390064
103	0xbe942831	-0.28936914
104	0xbd9cc231	-0.076542266
105	0xbe4e39d5	-0.20139249
106	0x3d53bb74	0.05169244
107	0x3d061053	0.03273041
108	0x3d46c706	0.048529647
109	0xbebedb9b	-0.3727692
110	0x3dcc353e	0.09971093
111	0xbe6c1f9e	-0.23058936
112	0xbd540505	-0.0517626
113	0x3e95db6c	0.29268968
114	0x3cce9871	0.025219174
115	0xbddd6e5d	-0.10812066
116	0xbcb4ba11	-0.02206138
117	0xbd6afa83	-0.057367813
118	0xbcd61b46	-0.026136052
119	0xbd10335a	-0.035205223
120	0x3e4cd3f7	0.20002733
121	0xbd92b1e5	-0.07162837
122	0x3d8bf074	0.06832972
123	0x3d1439db	0.036187988
124	0xbd237514	-0.039906576
125	0xbcf0aed1	-0.029380234
126	0xbe04a3c0	-0.1295309
127	0x3ce2d836	0.027690988
128	0x3ef2d02e	0.47424453
129	0x3b317295	0.0027076353
130	0x3f5248d5	0.8214238
131	0xbe916479	-0.28396967
132	0x3e5e576c	0.21713036
133	0xbe0ab2a4	-0.13544708
134	0x3d2719db	0.040796142
135	0xbd131292	-0.035906382
136	0xbd977fb4	-0.07397404
137	0xbea0b975	-0.31391492
138	0xbe2289ed	-0.15872927
139	0xbe05d9ee	-0.13071415
140	0x3e0d0bd4	0.13774043
141	0x3e909daf	0.28245303
142	0xbe613562	-0.2199302
143	0x3f306038	0.6889682
144	0x39cbf2a6	0.00038899964
145	0x3dec0514	0.11524406
146	0xbec25c40	-0.37961006
147	0xbc1dbb00	-0.009627104
148	0x3d7d42d8	0.061831325
149	0x3e77bb6f	0.24192594
150	0x3f47c65d	0.78037053
151	0xbdf1f028	-0.11813384
152	0xbd113089	-0.035446677
153	0xbc5a8ca9	-0.0133392
154	0x3eda17ed	0.4259638
155	0xbc95344f	-0.01821342
156	0xbe16e71a	-0.14736596
157	0xbe9f4b87	-0.3111231
158	0x3dd095e1	0.10184837
159	0xbe2b8f99	-0.16753997
160	0xbdb39140	-0.087679386
161	0xbcff87de	-0.031192716
162	0xbd767c31	-0.060177032
163	0xbdabef59	-0.08395261
164	0x3d76ec81	0.06028414
165	0xbd018bb2	-0.031627364
166	0xbeef5fe6	-0.46752852
167	0x3ef187eb	0.4717401
168	0xbe1a9d27	-0.15099011
169	0x3d3feb64	0.046855345
170	0x3e2a91a6	0.16657123
171	0xbe3a13af	-0.18171571
172	0x3e8de275	0.27711836
173	0x3d808fe9	0.06277449
174	0x3db2ad24	0.0872443
175	0xbc47eaa2	-0.012201937
176	0xbe103ab5	-0.14084895
177	0xbd0e7009	-0.034774814
178	0xbd177059	-0.036972377
179	0xbe52e782	-0.20596126
180	0xbf8a02fe	-1.0782163
181	0xbe564d83	-0.20928006
182	0xbe1a32ea	-0.15058485
183	0x3d394cc7	0.045239236
184	0xbe1aa425	-0.15101679
185	0xbdf164e9	-0.11786825
186	0x3d19260e	0.037389807
187	0xbe5e5e0c	-0.21715564
188	0xbb7d6ec9	-0.003867077
189	0x3f1dca09	0.61636406
190	0x3d8e475f	0.06947207
191	0xbefba4d5	-0.49149194
192	0xba847dc8	-0.0010108287
193	0xbdea3e17	-0.11437624
194	0xbba05d56	-0.004893939
195	0xbf338601	-0.7012635
196	0xbd9fdff0	-0.078063846
197	0x3e2aeefe	0.16692731
198	0x3e1d0bba	0.15336505
199	0x3d8a59ac	0.06755385
200	0xbdc754cb	-0.0973297
201	0xbe151054	-0.1455701
202	0x3e0cfa04	0.13767248
203	0x3e6865f6	0.22695145
204	0x3dbad618	0.091228664
205	0xbe4218f3	-0.1895483
206	0x3f2271f1	0.6345511
207	0xbded9cad	-0.11602149
208	0xbe4d8370	-0.2006967
209	0xbe1c90f5	-0.15289672
210	0x3ec9c33c	0.39406765
211	0xbe326d5c	-0.1742453
212	0x3b54ac44	0.003245131
213	0xbe1f7474	-0.15571767
214	0xbe4afd43	-0.19823174
215	0x3be99645	0.007128509
216	0xbe21f135	-0.1581467
217	0xbd5eac40	-0.05436349
218	0xbdedd328	-0.116125405
219	0x3e593fee	0.21215793
220	0xbe7c288f	-0.24624847
221	0xbd97af11	-0.07406438
222	0xbcf0affc	-0.02938079
223	0xbebf7dcc	-0.37400663
224	0xbe46dc9f	-0.19420098
225	0xbd91116e	-0.070834026
226	0x3d58d94c	0.052941605
227	0x3db405a3	0.087901376
228	0xbd2f6d62	-0.042828925
229	0x3e671159	0.22565211
230	0x3dce6de3	0.10079553
231	0x3e7dfa19	0.24802436
232	0x3f442c66	0.76630247
233	0x3c3a359c	0.0113653205
234	0x3d797207	0.06089976
235	0xbba2a0d8	-0.0049630217
236	0xbe5d2fa4	-0.21600205
237	0x3e88423b	0.2661303
238	0xbe78de86	-0.24303636
239	0x3abd6078	0.0014448306
240	0xbdaf60d2	-0.08563389
241	0xbe330107	-0.1748086
242	0xbdfe7fe6	-0.124267384
243	0x3d8f237d	0.06989191
244	0xbe24153f	-0.1602373
245	0x3e350e00	0.17681122
246	0xbdc9cc7c	-0.098534554
247	0x3f7858ae	0.97010314
248	0x3dc90174	0.0981473
249	0xbd46ef25	-0.04856791
250	0xbafc92e7	-0.0019269855
251	0x3fab67c2	1.3391039
252	0xbdcd60a1	-0.10028196
253	0xbe423635	-0.18965991
254	0xbdb302bf	-0.08740758
255	0x3c4b2a86	0.012400275
