results/Log_11011055/kernel_points/epoch53/layer_0_resnetb_strided_2_conv1.npy (npy, 16512 bytes, 1 tensors)

array f4 [128, 32]
00000000: 86e1 83be d042 1a3f ac32 4abe 8f97 e2be
00000010: dfdc 11bf dd4f 043f a021 0fbd e5d1 723f
00000020: 4a43 94be 9ab6 abbd a213 303e d597 d33b
00000030: d7df ca3d 6849 5c3d 4666 95bd 382c 553e
00000040: 144d a9be 1d24 003e 8244 e53e 8665 03bf
00000050: 0a4a 643d ca23 9c3e d1e9 783e 4f97 77be
00000060: 9508 2abe 698a b23e bb7e 58bd 1f35 5dbe
00000070: 758e e2be 2236 aebe 8cdf cebd a752 a5be
00000080: c2d3 d7be e940 72bd f60c 073e a297 eb3d
00000090: bfec 853d 7bf2 1f3f 8e42 fcbe 375a 583f
000000a0: 70a9 23bf 8e63 b13f 9891 9dbe 3343 0fbf
000000b0: 3e14 8dbd a343 763f 79b2 a83e e615 9fbd
000000c0: c873 33bd 62f8 993e cedb 373f 6b96 cdbe
000000d0: b006 d23d 0283 51be 5b20 5cbe 864d 873d
000000e0: ac0a ea3c 0d68 ee3d 3c80 43be 6286 adbe
000000f0: ed71 353f 49c7 033f 739c c8be ef4e 373f
00000100: 6d9d 34bd 6b32 2e3f 3283 2dbd a482 65be
00000110: b0db e2bd fd4f 483f 7ddf 9ebe eab6 693f
00000120: db36 1cbe 232d 5fbe 682f 853d af20 06be
00000130: 8cb4 cb3d 4689 14be f0ff 983e 2861 db3e
00000140: bff8 a6be 136b 1d3c a51d 103f faa0 36bf
00000150: cf73 f8bd 8f6a e3be db87 c43d 6fff 75bd
00000160: 7b37 7abe 4d18 2c3f e076 a1be 4234 3fbd
00000170: 14b7 a4be ef31 cbbd 178b b83e 1b55 713d
00000180: e078 ccbb 4095 703e dcbc cbbe c492 babe
00000190: 5d5c 92be f0c9 043f 18d7 753e 0a15 5b3f
000001a0: 3583 15bd d1ae 0bbe 4087 823e 0053 1d3e
000001b0: c76b afbd c0d0 033d e601 313c 36c3 813e
000001c0: 2145 90be 91a9 1c3e 2b62 973e 2f0a 17be
000001d0: 9f04 793e 457b 483d 02a9 993d c34a 0d3d
000001e0: 4d78 bcbe 93ff ab3e d471 47be c7e6 e43d
000001f0: 9d0a 15bd a90c b5be 1f2a dcbc b582 013d
00000200: f98e bebe e10c 343e ba72 ab3a 114b 3fbe
00000210: f53e 4e3f ac7e dc3e ee66 9e3d 35a8 53bd
00000220: 8960 0abf dc4f 18be 2c8d b23e f6b4 b03c
00000230: bacc d93e a754 193f cc3d 07bf 7ba4 12bc
00000240: e323 04bf 3c38 e63d 89d5 553f 9cd5 4d3f
00000250: c7c1 a9bd 772f 5fbd 37fb 15be 89c7 19be
00000260: 8034 1ebe c203 c8be 008c 1cbe 24f6 163e
00000270: 282d a53e 2b90 c43e 4c87 15bf 737c 783f
00000280: 6f91 a83e 8ba2 f63e f92a 31bf 7671 35be
00000290: b992 3bbf 9f79 6b3f fba5 4cbe 75ee 1dbe
000002a0: 5cfe 19be 7b0e 1abf eee9 173e 2839 f1be
000002b0: f264 91bf 122a dfbf 790a 8abf 0b7f d1be
000002c0: 7e6d 093c 92d1 a13d 9ce0 3a3f 3ea6 21c0
000002d0: 2274 303e 7e0c fdbe 78ed 493c 6512 86be
000002e0: 9760 dd3e c686 8bbf 556d 3abe d7b7 b0be
000002f0: 31ba 22bf 1cbc 2bbf a159 c9be 93fb e63d
00000300: 02b3 663e ad36 cb3e f9aa e1be 2b15 9c3c
00000310: 9788 a5be 306f 163f 6d80 6abe 18a3 813f
00000320: dea3 b3bc 61c8 98be 7bcb 7dbe f4fa 0bbf
00000330: 97fe 723c 052f 103f 163e 633e 9c64 e33e
00000340: a424 773d aeeb 44bc c93f b53e 2648 79bf
00000350: 5521 adbd ffe5 72be dbc0 a9bb b0da cdbd
00000360: 1fc0 8d3d af8b 0c3f 1f6c 653e 1b3a a13e
00000370: cbec d8be 058f 6cbe a3dd 9c3e 9ed3 88be
00000380: 2942 c23e 7137 493c 4f0d ecbd cb0f 6e3e
00000390: 67e6 56bd f6dc 163e f400 8abe b3c1 26bb
000003a0: 38d7 a5bb ea08 ebbc f092 d73d c149 a83e
000003b0: 2e2f 953c 7f38 ad3e 6bd1 4cbe 1fc3 343e
000003c0: de65 a13e c589 123e 6b29 3d3e 4d63 18bf
000003d0: f87a 12be be19 bd3d ff02 083e 85fd 433c
000003e0: 64fc 9a3e dafe ef3d 3177 5f3e aba3 19be
000003f0: 30fb 7bbe 84c9 7dbe fbc6 953e 3b91 f43c
-0.25757998 0.602582 -0.19745892 -0.44256255 -0.5697765 0.5168436 -0.034944177 0.94851524
-0.28957587 -0.08384438 0.1719499 0.006457309 0.09905975 0.053780943 -0.07294898 0.2081765
-0.33066618 0.12513776 0.4477883 -0.5132679 0.05573467 0.30496055 0.24307944 -0.24178813
-0.16604836 0.34871224 -0.052855235 -0.21602295 -0.4424931 -0.34025675 -0.10101232 -0.3228962
-0.42153746 -0.059143934 0.13188538 0.11503531 0.06539296 0.6247937 -0.49269527 0.84512657
-0.63930416 1.3858507 -0.30775142 -0.5596191 -0.068886265 0.96196955 0.32948664 -0.07767849
-0.04381159 0.30072314 0.7181977 -0.40153822 0.10255182 -0.20460132 -0.21496718 0.06606583
0.028569542 0.1164094 -0.19091886 -0.33891588 0.7087696 0.5147596 -0.3918186 0.7160482
-0.044095445 0.6804568 -0.042361446 -0.22413117 -0.11077058 0.7824705 -0.31029883 0.9129473
-0.152553 -0.21794562 0.06503183 -0.13098405 0.09946546 -0.1450549 0.29882765 0.42847562
-0.32611653 0.009608048 0.56295234 -0.7133938 -0.12131464 -0.44417235 0.09596225 -0.060058054
-0.24435227 0.6722458 -0.31536007 -0.046680696 -0.32170928 -0.099216335 0.36043617 0.058919054
-0.0062399954 0.23494434 -0.39792526 -0.36440098 -0.28586093 0.5187063 0.24007833 0.8557898
-0.036502082 -0.13640906 0.25493813 0.15363693 -0.08565479 0.0321815 0.010803675 0.25344247
-0.2817774 0.1529906 0.29567084 -0.14749978 0.24318169 0.048945684 0.07502939 0.034495126
-0.36810532 0.33593425 -0.19477016 0.1117683 -0.036387075 -0.3536122 -0.026875554 0.031618793
-0.37218454 0.17583038 0.0013080456 -0.1868098 0.80564815 0.43065393 0.07734476 -0.051674087
-0.5405355 -0.14874214 0.3487333 0.021570664 0.42539006 0.59894794 -0.5282867 -0.008950348
-0.5161726 0.112411946 0.83528954 0.8040407 -0.08288913 -0.054488625 -0.14646612 -0.15017523
-0.15449715 -0.39065367 -0.15287781 0.14742333 0.32261014 0.3839124 -0.5840957 0.97064894
0.32923457 0.48170885 -0.69206196 -0.17719063 -0.73270756 0.91982454 -0.19985192 -0.15422995
-0.15038437 -0.60178345 0.14835331 -0.4711392 -1.1358931 -1.7434714 -1.0784446 -0.4091724
0.008387921 0.079013005 0.72998977 -2.5257716 0.17231801 -0.49423593 0.012324683 -0.2618591
0.43237755 -1.0900505 -0.1820577 -0.3451526 -0.63565356 -0.6708391 -0.39326194 0.11278453
0.22529224 0.39690152 -0.44075754 0.019053062 -0.32330772 0.5876341 -0.22900553 1.0127897
-0.021928724 -0.29840377 -0.24784653 -0.546798 0.014831207 0.56321746 0.22191653 0.44412696
0.060337678 -0.012019081 0.35400227 -0.97375715 -0.08453623 -0.23720549 -0.005180461 -0.10051477
0.0692141 0.5490064 0.22404526 0.31489643 -0.4236816 -0.23101433 0.30637845 -0.2672395
0.379411 0.012281285 -0.11525976 0.23248212 -0.052465823 0.14732727 -0.26953852 -0.0025445044
-0.0050610565 -0.028690774 0.10526073 0.3286877 0.018210974 0.33832166 -0.20001762 0.17652558
0.3152303 0.14310367 0.18472831 -0.5952652 -0.14304721 0.092334256 0.13282393 0.011962299
0.30270684 0.11718531 0.21822812 -0.1500384 -0.24607539 -0.24783903 0.29253373 0.029854408
