results/Log_11011055/kernel_points/epoch53/layer_2_resnetb_strided_1_conv3.npy (npy, 262272 bytes, 1 tensors)

array f4 [128, 512]
000000 de fa 51 bc b1 64 fc bd 3e 51 43 3c a7 15 15 bd
       -0.012816159 -0.12323893 0.011921225 -0.036397602
000010 f2 0f 6f bd fd 4f b0 bb 4d 0d c2 bc e1 ff da bc
       -0.058364816 -0.005380629 -0.023687983 -0.02673334
000020 67 5f fc bc 00 4d d1 3d 93 64 07 bd be 3b ef 3c
       -0.03080721 0.10219765 -0.0330549 0.029203292
000030 6b c8 c8 bd 09 05 b4 bd 53 98 75 bc bc 0c c7 3c
       -0.09803852 -0.08790023 -0.01498993 0.024298064
000040 fb 1f 67 3d 75 8c 00 bd c0 5e c5 bd 2e 43 2a bd
       0.056426983 -0.03138395 -0.09637213 -0.041567974
000050 15 91 93 38 d0 cf 67 bd 55 0a 8b 3c 20 85 4e bd
       7.03653e-05 -0.05659467 0.0169727 -0.050419927
000060 af 0d e4 bd 7e 90 e3 bc dd 82 78 bc 3e 7c 46 bd
       -0.111354224 -0.02777886 -0.015167919 -0.04845833
000070 fe 7b 39 bc 97 4d d6 3d 7c 03 e1 bd 8e 5b d7 bd
       -0.011321066 0.10464018 -0.10986993 -0.105155095
000080 e5 f3 32 3d 69 15 11 bc e0 d3 47 bd 70 62 c0 bc
       0.043689627 -0.008855202 -0.048786044 -0.023484439
000090 38 14 52 3d 7f 12 94 bd 4b e7 d6 bc 38 f6 90 bd
       0.051288813 -0.0723009 -0.026233336 -0.070782125
0000a0 ae f3 7c bd 2a 4e 5c 3c 75 dd 89 bd ba b9 23 be
       -0.06175583 0.01344637 -0.06731693 -0.15988818
0000b0 bf c1 61 3d ad c2 f4 bb ff 3e 84 bd 40 0d e2 bd
       0.05511641 -0.007469496 -0.06457328 -0.110376835
0000c0 a8 d7 85 bb f1 39 ae 3d 08 f0 80 bb f7 4a 3b bd
       -0.004084546 0.08507145 -0.003934864 -0.04572579
0000d0 31 6d b2 bd 26 51 91 bd 16 de ec 3b ff 63 6d 3c
       -0.08712233 -0.07095556 0.007228623 0.014489173
0000e0 78 90 39 bd 8f 75 92 bd 77 18 26 3d e8 9f 14 3d
       -0.04530379 -0.07151329 0.040550675 0.03628531
0000f0 58 bd 4e bc 23 f2 b2 bd b4 a9 f2 bc 1a 8c 77 3d
       -0.012618385 -0.0873759 -0.029621936 0.060436346
000100 d9 fa 8b bc a6 51 74 bd f2 91 e1 bc c9 61 89 bd
       -0.017087387 -0.05964818 -0.027535412 -0.06708104
000110 94 ea 84 bd dc 93 a8 bd 7f 3a a8 bc 61 3d 2b bd
       -0.06490055 -0.08231327 -0.020535706 -0.041806582
000120 b6 44 0f bd 6b 27 4a 3d a6 fe 7f bd 07 41 e8 3c
       -0.034977637 0.049354 -0.06249871 0.02835132
000130 53 6a fd b8 9b 7c 2c 3d 5c ea 5d 3c 3c 3f 04 3d
       -0.000120837845 0.04211102 0.013544645 0.032286867
000140 5f a4 c9 bc a3 46 aa 3d a6 41 96 3c e0 44 10 be
       -0.024614511 0.08314254 0.01834185 -0.14088774
000150 d1 bd 38 bd 02 32 ce bc b3 1a 3a bd 80 e8 c4 bd
       -0.045102898 -0.02517033 -0.04543562 -0.09614658
000160 13 49 6b 3d 40 60 82 bc 7c 88 97 bc db 41 95 bd
       0.057442736 -0.015915036 -0.018497698 -0.072879516
000170 d2 68 b8 3c f0 5a b9 bc 83 ad f1 bd 4d 1e ae 3d
       0.02251092 -0.02262637 -0.11800673 0.08501873
000180 e9 89 51 bd 93 6c 90 3c 0d 06 74 bd 30 43 d1 bc
       -0.051156912 0.017629897 -0.059576083 -0.025544733
000190 0a 3b c2 3d d1 4d a3 bd 36 fb 06 bd 1f d3 a7 bc
       0.09483917 -0.07973827 -0.032954417 -0.020486413
0001a0 24 a0 23 3c 16 1c c4 3c f9 46 95 3d 25 a1 67 bd
       0.009986911 0.023939174 0.072889276 -0.056550164
0001b0 1c 64 56 bd a8 0e 63 3d 08 0a 13 bd d1 1d d6 bc
       -0.052341565 0.0554339 -0.03589824 -0.026137264
0001c0 2c c9 16 bd b4 45 d6 3c 08 5c e5 bd a2 38 65 3b
       -0.036812946 0.026156284 -0.11199194 0.0034976383
0001d0 50 6a 7a bc b7 11 21 bd 7f d7 c4 3c f4 82 80 bc
       -0.015284136 -0.039323535 0.024028538 -0.015687443
0001e0 8d 95 2e 3d ef d6 a0 bd e7 4e 14 3d 7e 72 9b bc
       0.04262309 -0.07853495 0.03620806 -0.018975493
0001f0 54 fd e1 bd 2b d2 cc 3c 36 d5 19 3d f1 d3 ca 3b
       -0.11034647 0.02500256 0.03755685 0.006189816
000200 9c 87 3f bd a8 51 1c 3c 4c f0 74 3d 0f b4 16 be
       -0.046760187 0.009540953 0.059799477 -0.14717124
000210 40 a5 e8 ba 4f 4a 20 3d 28 59 fa 3d 63 d6 cb bd
       -0.0017749444 0.039133366 0.122240365 -0.099530004
000220 85 57 99 bc 45 e4 4e bd 4e b4 8b bd f2 34 a3 3d
       -0.01871849 -0.050510664 -0.068215 0.07969083
000230 71 20 53 3d e5 fc f3 3c 23 8d d5 bd 04 51 2b 3d
       0.05154461 0.029783675 -0.1042731 0.04182531
000240 4e 86 7a bd 4d 64 81 bd a1 9a cb bc c7 3a 0c bd
       -0.06116324 -0.06317959 -0.024854006 -0.034235742
000250 3b 09 b6 3d 13 bd 25 3d a8 fe 04 3c 98 87 8c 3c
       0.08888479 0.04046352 0.008117355 0.0171545
000260 c3 8f 96 bd fd f7 1b 3d c7 a0 6c 3d 14 1f f3 3c
       -0.07351639 0.038078297 0.057770517 0.029677905
000270 cf 14 cf bd 11 e6 85 3d a7 22 77 3c d6 a4 21 3d
       -0.10111391 0.06538022 0.015083945 0.03946384
000280 7b 06 90 3c 60 89 ed bb 96 36 11 bd 02 db 66 3c
       0.017581215 -0.0072490424 -0.035452448 0.0140903015
000290 ee 0f 0c be 0c 04 93 bd 37 a8 87 3d 69 ef aa 3d
       -0.13677952 -0.07178506 0.06623881 0.08346445
0002a0 53 d9 3a bc 6f c1 9d 3d 79 48 95 bc 71 d1 bc 3d
       -0.011404353 0.0770291 -0.018223034 0.09219635
0002b0 41 9b 8e bd 93 10 13 bd 92 ab 5d 3b c1 f4 8e bd
       -0.06963206 -0.03590448 0.0033824188 -0.06980277
0002c0 11 20 49 3b c2 c4 8b 3c 1a 65 89 bd 42 18 7f 3c
       0.003068928 0.017061595 -0.06708737 0.015569748
0002d0 d9 57 4b be 48 d0 0c 3d d3 d7 53 3d 58 9e fe 3c
       -0.1985773 0.03437832 0.051719498 0.031081364
0002e0 b5 02 a8 bd 63 87 68 3d 74 38 3b bd b0 f7 17 3d
       -0.08203641 0.05676974 -0.045708135 0.037101448
0002f0 9b 2b 6c bc 0f 9b 55 bd 6a ec 39 3d 67 74 06 bc
       -0.014414693 -0.05214983 0.045391478 -0.008206463
000300 fb 16 1c bd 3d 01 83 3c f2 f5 6b bd b7 ea 0e bc
       -0.038107853 0.015991801 -0.0576076 -0.008722953
000310 cc ba 2e bd 77 bf b7 3b 09 f0 34 3c b7 43 82 bd
       -0.042658612 0.005607541 0.011043557 -0.06360572
000320 bc 77 13 bd e0 73 2f bd 95 bd b1 bc 6f 7f 66 3c
       -0.03600286 -0.042835116 -0.021696845 0.0140684685
000330 bb 6d 3d 3e 09 71 80 bd e5 48 3c 3d 25 f0 89 bc
       0.1849889 -0.0627156 0.045967955 -0.016838143
000340 07 40 7d bd b3 eb 5d bc 23 b6 af bc 69 c2 c0 3d
       -0.06182864 -0.013544965 -0.021449154 0.09412081
000350 c5 4c 64 bd d2 3e 1b 3c 19 c4 b6 3c f5 01 19 be
       -0.055737276 0.009475427 0.022310304 -0.14942153
000360 b2 d5 b8 bd c6 33 30 3c e1 60 ff bd 29 c7 18 3d
       -0.09025134 0.010754531 -0.1246965 0.03729931
000370 d1 0f e4 bc c6 c3 dd 3c 18 7d 1a bc f1 2b ae bd
       -0.027839573 0.027070891 -0.009429239 -0.08504475
000380 92 7a 4a bd 99 b7 a3 bd fb 3d 89 bd 48 1b b5 bd
       -0.0494333 -0.07994003 -0.06701275 -0.08843094
000390 f6 e0 af bd 0d 88 5e 3d 08 af 74 3d 5e a6 c4 bd
       -0.0858783 0.054328967 0.059737235 -0.096020445
0003a0 2b c4 5b 3d ae 5b 80 bb 1a 4e b7 bb 7b 2b 82 bc
       0.053653877 -0.003917179 -0.005594027 -0.015889874
0003b0 57 2e 61 bd a3 ac 03 3c 40 18 c4 3d 42 6f 7f bd
       -0.054975834 0.008036765 0.09574938 -0.062361963
0003c0 07 b1 27 3d 97 04 d1 3c af 22 21 3c a7 7e 16 3d
       0.04094031 0.025514884 0.009834929 0.03674188
0003d0 ea 32 99 bd 42 ca f8 bd 3b 12 2a 3b 8e cc 72 3c
       -0.07480414 -0.121479526 0.0025950808 0.014819277
0003e0 07 4d 40 bd 7c 9d 60 bd e7 32 4e bd 5b 46 a4 3d
       -0.04694846 -0.05483769 -0.050341513 0.08021232
0003f0 0f b1 3b bd 1d 55 01 3d 3d 6e b2 3d 47 39 7c 3d
       -0.045823153 0.03157531 0.087124325 0.06157806
