results/Log_11011055/kernel_points/epoch53/layer_1_resnetb_strided_1_conv2.npy (npy, 245888 bytes, 1 tensors)

array f4 [15, 64, 64]
000000 1d 34 e5 3e 76 0e a2 3e 67 bd 40 be 71 e6 ef be
       0.44766322 0.31651658 -0.18822251 -0.468555
000010 61 c9 78 be 87 20 ee bd ce d7 85 be 2b 2a c2 bd
       -0.2429557 -0.11627298 -0.26141208 -0.09480699
000020 d1 ca b8 3e 3d 16 4a be a4 b0 87 bd 5f f2 da 3d
       0.36092237 -0.19735046 -0.066254884 0.1069076
000030 8b 75 eb 3e 10 8e 2d 3c c1 d9 1f 3e 79 4d d6 bc
       0.45988116 0.010592952 0.1561041 -0.026159989
000040 09 a9 a2 3d 0c 91 1c be 14 c4 98 bd 4d b3 35 be
       0.07942397 -0.15289706 -0.07459274 -0.17744179
000050 24 0d 3c be 03 bc 1e be 12 d9 30 be a6 e7 c8 be
       -0.18364388 -0.15501408 -0.17270306 -0.39239234
000060 bc 63 17 be 7f 60 bb be 9d a3 ce 3d ec 43 f4 bd
       -0.1478414 -0.36597058 0.100898005 -0.119270176
000070 13 20 a1 3d 55 8b 83 3e 69 96 95 be 8c ae 3e 3d
       0.07867446 0.2569224 -0.29216316 0.04655318
000080 28 f8 05 be 99 28 70 3d c6 99 2d 3e 11 4e 35 be
       -0.13082945 0.058632467 0.16953191 -0.17705561
000090 bf 3e 00 bd 70 da 85 be 11 51 1b 3c 61 52 98 3e
       -0.03130984 -0.26143217 0.009479777 0.2975035
0000a0 df 37 5f 3e f7 13 89 bd d1 3f c4 bc 57 2c 38 be
       0.21798657 -0.06693261 -0.023956211 -0.17985664
0000b0 2b 2a 89 be 1f 5f b2 3e 8c ee f5 bc 16 29 2a 3e
       -0.26789984 0.34838197 -0.030020975 0.16617236
0000c0 29 5e 0c 3e 2a 82 5a be e9 70 80 3e 5d bb 02 be
       0.13707794 -0.21338716 0.25086144 -0.12766786
0000d0 5e d8 b0 3c 92 c5 80 be 71 e1 a4 3e 9d 67 80 be
       0.021587547 -0.25150734 0.32203248 -0.2507905
0000e0 18 f6 dc 3d e6 8b 9b be 00 81 af bd 6b 13 8d 3c
       0.10789126 -0.30380172 -0.08569527 0.017221173
0000f0 7a a6 a8 bd d0 83 45 bf 45 06 cd bd 30 1a 84 3e
       -0.08234878 -0.77154255 -0.100109614 0.2580123
000100 b1 90 15 3e 2a ed e6 bd b5 b6 46 3e 11 f2 f5 be
       0.14605977 -0.11275704 0.19405635 -0.48036245
000110 cb 08 f3 be a3 c1 28 be 84 3e 13 be 33 c4 d0 bd
       -0.47467646 -0.16480117 -0.14379317 -0.10193672
000120 d2 e1 1f 3b 47 49 82 be 92 77 6b be 62 06 8d 3e
       0.0024396074 -0.2544653 -0.22994831 0.27543932
000130 30 e3 35 3b 78 07 51 3e 48 ff 8d be 72 aa 8f 3e
       0.0027753823 0.20413005 -0.27733827 0.28059727
000140 30 35 98 be 7d 1a 07 3d 44 52 78 3d ce 72 3f bc
       -0.2972808 0.032984246 0.06062533 -0.011685086
000150 44 76 b1 3e c6 ab 77 be 60 a2 42 bd 1b b2 f1 be
       0.34660542 -0.2418662 -0.047518134 -0.47206196
000160 7c df bf bd 44 db b4 bd 12 00 88 be 86 60 60 3e
       -0.09368798 -0.08830884 -0.26562554 0.21911821
000170 ce e1 06 be 2f 4d 9a bd e7 94 05 be 2b f2 fc 3e
       -0.13172075 -0.07534253 -0.13045083 0.4940351
000180 03 91 68 be b7 7c 5b 3d de ff 54 3d b3 e3 87 3d
       -0.22711568 0.053585734 0.052001826 0.06635227
000190 b4 1c 29 3e 20 53 aa bd 7f a2 ea bc 7e 70 7a 3e
       0.16514856 -0.08316636 -0.028641937 0.24456975
0001a0 a2 b1 bd 3e 7f ee 23 be 09 a3 38 3e 99 98 87 be
       0.37049586 -0.16008948 0.18030943 -0.2648361
0001b0 6e 59 3c 3e 8d 31 73 3e 21 fa 16 3a 24 34 49 be
       0.1839349 0.23749371 0.0005759318 -0.19648796
0001c0 18 15 13 be de 3d 52 3b 8b 37 4b be 24 1f a8 bd
       -0.14363515 0.0032080333 -0.19845407 -0.082090646
0001d0 ee 56 b0 bd 36 a5 15 be eb d1 5f bd 3e dc 32 bd
       -0.086103305 -0.14613804 -0.054643553 -0.04366707
0001e0 28 e6 84 3d 82 e5 0a 3f 5d 87 24 3e ee 08 85 bc
       0.06489211 0.5425645 0.16067262 -0.01623961
0001f0 94 20 37 bd 2c f1 08 bf a5 ba 9b 3d bd 45 b3 bd
       -0.044708803 -0.53493 0.07603959 -0.08753536
000200 1a 3a 7d be 7d f2 b6 be 11 45 28 be 95 db 1f 3e
       -0.24729195 -0.3573188 -0.16432597 0.15611108
000210 60 81 29 3e e0 ba 61 3d 06 79 41 bd 56 92 1e 3e
       0.16553259 0.05510986 -0.047234558 0.1548551
000220 21 25 86 bd 19 cb 0c 3e 2f 0d c1 bd de 26 a2 be
       -0.065500505 0.1374935 -0.09426343 -0.31670278
000230 a9 48 48 3e 4c ac ca be d7 ef 94 bd b3 d3 16 3e
       0.19558968 -0.39584577 -0.07272308 0.14729194
000240 82 09 10 bc 66 db 3d be 84 59 43 3d 26 00 83 3e
       -0.008791329 -0.18540725 0.04769279 0.2558605
000250 1a 4b 36 be f1 9f ae bd cc 6e 82 3d a5 ad da bd
       -0.17802086 -0.085266 0.06368789 -0.10677651
000260 5d d1 1c be 09 c7 93 be 60 29 19 be d6 5a 40 3d
       -0.15314241 -0.2886279 -0.1495719 0.046961628
000270 c7 94 3a 3e b0 fb b0 be a7 cb c9 be 1a 3b 53 be
       0.18220817 -0.34567022 -0.39413187 -0.20628014
000280 d4 0a 80 3e c2 d9 03 be 0d 61 78 3e 27 24 a8 be
       0.2500826 -0.12876037 0.24255772 -0.32840082
000290 d6 b7 b8 bc 0e 60 a6 3d 17 1e 30 bd c4 11 a7 be
       -0.022548597 0.0812379 -0.042997446 -0.32630742
0002a0 a1 4e d7 bd 60 d2 ba bd 43 b8 47 3a 1c a1 50 be
       -0.10513044 -0.09122157 0.00076187047 -0.20373958
0002b0 82 43 d1 3b 2d 83 ca bd 93 3e 49 3e 4c dd 33 be
       0.0063862214 -0.09888301 0.19652776 -0.17564887
0002c0 88 e0 d2 3d 4d 4c 96 3d 93 03 34 3e 78 e3 42 3e
       0.10296732 0.07338772 0.17579488 0.19032085
0002d0 ca 2b 72 3e 9c 8c 67 3e 2a 50 2a 3e 31 61 c5 3d
       0.23649517 0.22612232 0.16632143 0.096376784
0002e0 d1 59 9a be 85 d0 c9 be f0 f8 4c 3e f6 14 4d be
       -0.3014665 -0.394169 0.20016837 -0.20027527
0002f0 68 1d 9b be c8 85 c1 3c 32 d1 95 be c2 29 00 3e
       -0.30295873 0.023623362 -0.29261166 0.1251593
000300 4a 96 13 bd 92 f6 b5 bd d6 0a f3 bd aa 8f 7b 3d
       -0.036032 -0.0888492 -0.11867301 0.061416306
000310 dc 23 27 bf db ee 08 be c1 79 bb bd 58 84 cb be
       -0.6528909 -0.13372366 -0.09154082 -0.39749408
000320 3e a4 4a bf 11 e1 76 bd f6 e2 72 bd 5a 59 21 3e
       -0.79156864 -0.060273234 -0.059298478 0.15756741
000330 b3 08 1c be e1 b3 90 3e 65 8e 09 be d4 d0 6d bf
       -0.15237693 0.28262237 -0.13433225 -0.9289677
000340 1b 56 69 bc 5b a8 e9 be 00 e9 3b 3d c0 58 3a 3e
       -0.014241721 -0.45636258 0.045876503 0.18197918
000350 14 2a 90 3d 73 1f fb 3d 7d 78 18 3e f0 5d c9 be
       0.07039276 0.12261858 0.14889713 -0.3932948
000360 41 4a ea 3e 14 31 29 be e8 40 bd bd 4b f8 6e 3e
       0.45759776 -0.16522628 -0.092408955 0.23336904
000370 e9 05 a0 be 94 27 fc bc ab d4 99 bd 22 49 a1 bd
       -0.3125451 -0.030780591 -0.07511266 -0.07875277
000380 d4 58 17 bf 3b 00 41 bd 7d 35 bc 3c 90 15 e5 bd
       -0.59119916 -0.04711936 0.022974724 -0.11185753
000390 f2 14 04 3f 5c 8a 8a 3e 03 d0 fc 3d 53 7e 97 be
       0.5159446 0.27058685 0.123443626 -0.29588565
0003a0 42 f4 0c 3e 9f 59 ad 3e 17 bb c9 3d 15 76 47 3e
       0.13765052 0.33857438 0.09850138 0.19478638
0003b0 b2 8c 50 3e 57 96 a4 3e 20 53 2b be bf 95 af be
       0.20366171 0.3214595 -0.16730928 -0.34293935
0003c0 b5 8f 96 bc 7b 2f 87 3d 47 e2 fd 3c 0a 44 6d 3d
       -0.018379072 0.06600853 0.030991687 0.057926215
0003d0 b5 d4 dd be c4 03 5e bf cd be 88 bc db cf 0a 3e
       -0.43326345 -0.86724496 -0.016692543 0.13555853
0003e0 b1 6f 37 be 50 0f 01 3f 19 0b 53 bc 6d 72 d8 be
       -0.179137 0.5041399 -0.012881064 -0.422748
0003f0 9d ea ea 3b f5 91 1c be 60 80 2b be 66 80 3f bf
       0.0071690814 -0.15290053 -0.1674819 -0.74805295
