results/Log_11011055/kernel_points/epoch53/layer_1_resnetb_0_conv3.npy (npy, 65664 bytes, 1 tensors)

array f4 [64, 256]
0	0x3dbf689f	0.09346127
1	0x3de2cd90	0.11074364
2	0x3e540719	0.20705833
3	0x3e46c8ae	0.1941249
4	0x3d56e8e3	0.05246819
5	0xbd9f2b06	-0.07771878
6	0xbe1e0ccb	-0.15434568
7	0xbd343a87	-0.04400113
8	0xbd13102c	-0.035904095
9	0xbe3c336e	-0.18378994
10	0xbd995579	-0.07487006
11	0xbd2425c1	-0.040075067
12	0xbe2edce7	-0.17076455
13	0x3f2c288f	0.6724939
14	0xbe85e5c5	-0.26151863
15	0x3d3066ee	0.04306691
16	0xbdb09e28	-0.08623916
17	0x3d9eabf8	0.07747644
18	0x3cedc1f2	0.029023144
19	0xbae2a434	-0.0017291368
20	0x3e10dcc5	0.14146717
21	0x3e27493d	0.16336532
22	0x3d5b330f	0.05351549
23	0x3d7d15cd	0.06178837
24	0x3eb33f66	0.35009307
25	0xbe78fc83	-0.24315076
26	0x3ecb5fda	0.39721566
27	0xbf37b1fc	-0.7175596
28	0xbe872732	-0.2639709
29	0x3d6114cd	0.054951478
30	0xbe5c5feb	-0.21520965
31	0x3dd2ff63	0.103026174
32	0x3e5ec67b	0.21755402
33	0xbe3468ba	-0.17618075
34	0x3df0f2b4	0.11765042
35	0xbe6ff858	-0.2343458
36	0x3f29b1d2	0.6628696
37	0x3da2c5a5	0.07947854
38	0x3e37f45a	0.17964306
39	0xbe4a53de	-0.19758555
40	0x3ce27018	0.027641341
41	0x3dd58ac0	0.10426855
42	0x3e6485b2	0.22316626
43	0x3d8f2e1c	0.069912165
44	0xbe1ecc65	-0.15507658
45	0x3db91658	0.09037465
46	0xbd4d0bd7	-0.05006012
47	0x3d08e06d	0.033417154
48	0xbe584962	-0.21121743
49	0x3c58cd2b	0.01323251
50	0xbeaf1027	-0.3419201
51	0xbe3f65b8	-0.18691146
52	0x3dceb778	0.10093588
53	0xbd6b3ca6	-0.057430886
54	0xbd90945e	-0.07059549
55	0xbe0947d8	-0.13406312
56	0xbdf3c234	-0.11902276
57	0x3e38bfbf	0.18041895
58	0x3e0513ad	0.12995787
59	0xbe922375	-0.28542677
60	0x3df41fb1	0.11920107
61	0xbe115441	-0.14192297
62	0xbd63a0e7	-0.05557337
63	0xbd7d0c82	-0.061779507
64	0xbd5dda74	-0.05416341
65	0x3e85d6ce	0.26140445
66	0x3e7cbd79	0.24681653
67	0xbf28d19b	-0.6594483
68	0x3d5cf6ed	0.053946424
69	0x3d3cd8ef	0.04610532
70	0x3e1195da	0.1421732
71	0x3df809f2	0.12111272
72	0xbf4b3ab6	-0.7938646
73	0x3d6f3867	0.0584034
74	0xbe172c7c	-0.14763063
75	0xbe835686	-0.2565195
76	0x3e48f5c5	0.19625004
77	0xbe3babca	-0.18327251
78	0xbe5f15de	-0.21785685
79	0x3d8d790a	0.06907852
80	0xbd967edb	-0.073484145
81	0xbe184593	-0.1487029
82	0xbeb6c6c8	-0.35698533
83	0xbe75c1a0	-0.23999643
84	0x3d99e40c	0.075141996
85	0x3d3290c8	0.043595105
86	0xbe232dc0	-0.15935421
87	0xbd8930da	-0.06698771
88	0xbe555f5c	-0.20837158
89	0xbd5ff96d	-0.05468123
90	0xbe097a28	-0.13425505
91	0x3e2734cf	0.16328739
92	0xbdc9d2a2	-0.09854628
93	0xbe88d4e6	-0.2672493
94	0xbdab0b71	-0.08351792
95	0x3d496a0d	0.049173404
96	0x3d3e2c39	0.046428893
97	0xbd2305ac	-0.03980033
98	0xbe93ce04	-0.28868115
99	0x3e0c9fea	0.13732877
100	0xbf02831c	-0.5098131
101	0xbf052226	-0.5200523
102	0xbaa2df82	-0.001242623
103	0xbdaf3f5c	-0.08557007
104	0xbef3b844	-0.4760152
105	0x3e4aadbd	0.19792838
106	0xbd8185f8	-0.06324381
107	0x3cb5a80c	0.022174858
108	0xbdc6a677	-0.096997194
109	0x3d9e6ec8	0.077359736
110	0xbe825574	-0.2545582
111	0xbef52035	-0.47876135
112	0x3f126f8d	0.57201463
113	0x3a25f180	0.0006330237
114	0xbe8f3442	-0.27969557
115	0xbec4b5aa	-0.3841985
116	0x3d913677	0.070904665
117	0x3dc151aa	0.09439404
118	0x3e067259	0.13129558
119	0x3dbcee81	0.092251785
120	0xbd06ea67	-0.032938387
121	0x3eaae72e	0.333795
122	0x3d9ee87e	0.07759188
123	0xbd4d71c7	-0.050157335
124	0x3e6b50af	0.22979997
125	0x3e34fb50	0.17673993
126	0xbe6c0297	-0.23047863
127	0x3e8e0292	0.27736336
128	0xbc9f826d	-0.019471372
129	0x3e9820fc	0.29712665
130	0xbe217666	-0.15767822
131	0xbcd7d9be	-0.026348945
132	0xbe97bce9	-0.29636315
133	0x3e70b1b7	0.23505293
134	0x3e1f4f04	0.15557486
135	0xbe92ebbe	-0.28695482
136	0xbe198351	-0.149915
137	0xbe0e1134	-0.1387375
138	0xbd66a56b	-0.0563101
139	0xbe3a85cf	-0.18215106
140	0x3dde29bf	0.10847806
141	0xbdf16f24	-0.117887765
142	0x3ded9655	0.11600939
143	0x3de5731e	0.112035975
144	0x3e5ccee8	0.21563303
145	0xbdc48e9e	-0.095975146
146	0xbd3cb2ea	-0.046069063
147	0x3daf5eea	0.08563025
148	0x3d1d2214	0.038362578
149	0xbd75f3b9	-0.060046885
150	0xbde2a3b9	-0.11066384
151	0x3e726e3c	0.23674864
152	0x3df47a1e	0.119373545
153	0x3dc695dd	0.09696553
154	0x3d835cbc	0.06414172
155	0xbd94ab6f	-0.07259261
156	0x3f216780	0.63048553
157	0x3dc907ae	0.09815918
158	0xbd3081d7	-0.043092575
159	0x3dfcdae7	0.1234644
160	0x3e4415e8	0.19148982
161	0xbe1fa4cf	-0.15590213
162	0xbc64bfab	-0.013961713
163	0xbe0c6192	-0.13709095
164	0x3ef1ba10	0.47212267
165	0xbd2be0c0	-0.041962385
166	0x3e97e99a	0.2967041
167	0xbcc3ed3b	-0.023916831
168	0x3f46e71c	0.77696395
169	0x3e122f30	0.14275813
170	0xbcdc6b3e	-0.026906606
171	0x3e04e493	0.12977819
172	0xbe074ba2	-0.13212445
173	0xbebea4bf	-0.37235066
174	0xbc4cf918	-0.01251056
175	0xbd5905d5	-0.052984077
176	0xbdacdafc	-0.084402055
177	0x3e341842	0.17587379
178	0xbee19c99	-0.44064787
179	0xbe65606e	-0.22400066
180	0xbe4edcb2	-0.20201376
181	0x3e8db5b6	0.27677697
182	0x3f0d8eb7	0.5529589
183	0xbe272d0a	-0.16325775
184	0x3d676de7	0.056501295
185	0xbe8f2cfb	-0.27964005
186	0x3c5c0ccb	0.013430784
187	0x3eb3f3fc	0.35147083
188	0x3d6c6cfa	0.057721116
189	0xbd9ddf48	-0.07708603
190	0x3e71d833	0.2361763
191	0xbe71ada8	-0.23601401
192	0x3d71cd45	0.05903365
193	0xbe280e61	-0.16411735
194	0xbe0506f7	-0.12990938
195	0x3e22f45a	0.15913525
196	0x3da89360	0.082312346
197	0xbdbd82a5	-0.09253434
198	0xbd8efd0a	-0.06981857
199	0xbe9c96af	-0.30583712
200	0x3e88df07	0.26732656
201	0xbdba76c9	-0.09104688
202	0xbd5c6f9e	-0.053817384
203	0xbd9a2fc3	-0.07528641
204	0x3e60d1f4	0.21955091
205	0x3c7fefdd	0.015621153
206	0x3d3e99e3	0.046533477
207	0x3ea8ed82	0.32993704
208	0x3e8a01c3	0.2695447
209	0x3f006835	0.5015901
210	0x3c29ee87	0.010371811
211	0x3c6acb25	0.01433066
212	0xbd2836ea	-0.041067995
213	0xbc05c4db	-0.00816461
214	0xbce503d1	-0.027955921
215	0xba844eac	-0.0010094247
216	0xbe0392ef	-0.1284902
217	0x3e12f8d2	0.1435273
218	0xbd5c1f3d	-0.05374073
219	0x3d5bdcc8	0.05367735
220	0x3de2bcec	0.1107119
221	0xbf0294ad	-0.5100811
222	0x3e91504d	0.28381577
223	0xbd43a783	-0.047767173
224	0xbdf470cd	-0.119355775
225	0xbec04569	-0.37552956
226	0xbe8d72f9	-0.2762678
227	0x3e10815a	0.14111844
228	0x3e27d218	0.16388738
229	0xbd0a4eb2	-0.033766456
230	0xbc8e7794	-0.017391004
231	0x3d1481ac	0.036256477
232	0xbe9860b9	-0.29761294
233	0x3c94325e	0.018090423
234	0x3ec1af0f	0.37828872
235	0xbcb394ab	-0.021921476
236	0x3ee5b12e	0.4486174
237	0xbe83b28a	-0.25722152
238	0xbe83517a	-0.256481
239	0xbebb90d3	-0.3663393
240	0x3c827961	0.015927019
241	0x3cea6c7e	0.028616186
242	0x3dab5289	0.08365352
243	0x3e1d378a	0.15353218
244	0xbc46da83	-0.012137058
245	0xbe11340c	-0.1418001
246	0xbe0119a6	-0.1260744
247	0xbea74e68	-0.32677007
248	0xbdf2ec96	-0.118615314
249	0xbce58a38	-0.02802001
250	0x3ee6baee	0.4506449
251	0xbc8eb968	-0.017422393
252	0xbee2b523	-0.4427882
253	0xbc675858	-0.014120184
254	0x3ee33b74	0.44381297
255	0x3ea7af18	0.32750773
