results/Log_11011055/kernel_points/epoch53/layer_0_simple_0.npy (npy, 3968 bytes, 1 tensors)

array f4 [15, 1, 64]
00000000: 3db5 fe3f 3eac 93be 4747 65bf c8fa 883f
00000010: 6a40 89be 80d6 1240 2554 d53e c134 a43f
00000020: 92f6 21bf 5f0d ea3f ee1f 0e40 fe61 bf3f
00000030: 1c26 1b3f 642b a840 31ad c33d 4f9a a33e
00000040: 6b2b ecbe bf8f 33be fb4d d23f bcb3 67bf
00000050: 2107 e340 f827 40be 3d2c 443f b0e6 483e
00000060: dd8f 3fc0 f116 febe e6c3 c23f a2b7 f63f
00000070: 6a63 08bf 2be9 bc3f 5bb1 8cbe 4666 183f
00000080: e4fa 0140 a49b 0240 4a5d 303e 4ac0 b63e
00000090: be1d 7f3f 9cb1 1040 afa8 9fbf 4436 30be
000000a0: a582 2340 0508 32bf 8138 f3be 9be9 013f
000000b0: b6ff 2bbe 6060 1b40 cce6 6bbf b4ec ac3f
000000c0: 24ee b2bf 6850 0d3f 0af2 f43e 9ecf bfc0
000000d0: db6c d6be b63b 2f3e bdfd a53f d69b 073f
000000e0: ba0c 533f fd83 473f 80f7 853f 3698 0e3e
000000f0: e874 85be eea8 cbbd 4eac 23be cc82 8cbf
00000100: 9160 79bf 7478 d8be 6f64 4cbf 5f3a 2ebf
00000110: bd82 593f 9a12 ba3f 9318 74bf f64e fd3e
00000120: 636f b8bf db1a 71be 0533 833f d5a7 84bf
00000130: 378e 07c0 b499 6abe 8000 72bf f683 143f
00000140: dd3f f93c 9487 803f 6d8b 2c3e 6907 0a40
00000150: 983c 5fbe a791 2e3e 31eb 89be 230f 2bc0
00000160: 0ba6 913e 5948 17bd 8116 833f de9c ee3e
00000170: cfc0 743f e1c4 e33e 19e1 91bf 900e ccbe
00000180: c8dc a5c0 3e54 e53e 1967 9b3e 4f93 3d3f
00000190: 0642 96bf 4196 88bf 32bf 113f eefd a4be
000001a0: 51f0 00c0 a5ec 00c0 9945 8c3e cf8e c33e
000001b0: 70bf cebf fe2b 81bd 69cb c9bf 0c32 743c
000001c0: 515c e23e d546 1b3f 5aa8 b83e 095d 07bf
000001d0: 9fee 4abf e79b 123e b30b 6e3f 3c42 1e3f
000001e0: 8a08 84c0 f654 4d3f d6eb 38bf 1f38 a7bd
000001f0: 5b28 e2be 0f1a 133f 7fa0 cbbd e963 e63f
00000200: e1b8 cb3f ebd9 9c3e 1bee 263f 3a51 0abf
00000210: 66e8 943f 45be 8f3f b059 0abf 6fcc d13f
00000220: 52cc 9c3e f17a 8b3e 2bd2 01c0 22f3 73bf
00000230: d64d 473e 89fb 8bbf 9fc4 9b3f 5c30 e23f
00000240: 7153 1ac0 daba 833e bffe 8b3f ed1e 2b3f
00000250: bdcb 913d 6021 963f f51f 09be 2fc8 2a3f
00000260: e38c 093f 7ca7 a9be 7e37 51bf 081c 89be
00000270: 9320 8a3f 869f 273f 6fde 2bbd 4790 b8be
00000280: 3841 3bbf 738b 943e c85a fcbf 6965 c2bf
00000290: 09bd 153f fe9b 1a3f 3450 f53d 9a93 cabe
000002a0: a9bb 8cc0 68d0 45bd f7c0 15b9 8c28 5fbf
000002b0: 4502 12c0 8ad3 67bf f1b0 e43e b778 b3bf
000002c0: c163 d03e 4043 f83e 0ece 6abf ad7f 35bf
000002d0: 1dd7 89c0 f766 aa3e 6186 c13e 0291 9cc0
000002e0: 0858 6fbf 951d 893f 3cf6 e9be bae0 2abc
000002f0: c86c 393d 5953 a8bf 0a7e 9b3f b8bc 9ebe
00000300: bb7a 22c0 c1ff 8e3e baac debf 3005 a53e
00000310: ff18 3f3f a678 d33f 86e4 243f 1ac9 a1be
00000320: dc5b 77be 1ecc afbf cfed fdbf e1be b43f
00000330: dec3 fe3e 2973 133e 02e6 81be 8775 003d
00000340: 253b 433f 5e95 b9bf a2d1 a0c0 3d22 53c0
00000350: a23e 9bbe c20e 523e a326 963e 3720 4dc0
00000360: 0fc1 aebd 1610 d63e 170f 6bbd 1a37 71be
00000370: df29 9b3f 5b16 4d3f fa93 383f 8562 3dbf
00000380: cb24 04bf 5011 01bf a76c 50be 752c 8e3f
00000390: 67b8 263e d787 39be a586 bdbe 76ad f6bf
000003a0: a48d 3fbe bdcb c33e 0ab3 2fc0 c95e 26bf
000003b0: 4cb4 163e 88fb 3b3f 1da2 94bf d6a5 9cbd
000003c0: 7447 7e3f 2034 053f 3dca 7f3f 3183 fcbe
000003d0: 2f51 ac3e d57d b6bf fd04 1fbf 638d 363f
000003e0: 1fd0 283f 4f5b 84bf 6a74 38c0 a1b3 253f
000003f0: 2536 8a3f 5ab6 d23e 4705 6dbe 5a03 21be
1.989906 -0.28842348 -0.89561886 1.0701532 -0.26806957 2.294342 0.4166576 1.2828599
-0.6326686 1.828533 2.2206988 1.495178 0.60605025 5.2552967 0.09554518 0.31953666
-0.46126875 -0.17535304 1.6430048 -0.9050863 7.09462 -0.18765247 0.7663 0.1961925
-2.9931557 -0.49626878 1.5216033 1.927479 -0.53276694 1.4758657 -0.2747906 0.59531057
2.0309381 2.0407495 0.17223087 0.3569358 0.9965476 2.2608404 -1.2473353 -0.172082
2.554849 -0.69543487 -0.47504047 0.5074708 -0.16796765 2.4277573 -0.92149043 1.3509736
-1.3978925 0.55200815 0.4784091 -5.994094 -0.41879925 0.17112622 1.296806 0.5297216
0.82441294 0.77935773 1.0466156 0.13925251 -0.26065755 -0.0994433 -0.15983698 -1.0977416
-0.97412974 -0.42279398 -0.7984075 -0.6805782 0.84965116 1.4536927 -0.9535 0.49474305
-1.4408993 -0.23545401 1.0249945 -1.0363718 -2.118055 -0.22910196 -0.9453201 0.58013856
0.03042596 1.0041375 0.16850062 2.1567023 -0.21800458 0.1704775 -0.2693725 -2.6727989
0.28446993 -0.03693423 1.0241243 0.46604055 0.956067 0.44486144 -1.1396819 -0.3985486
-5.183201 0.44790834 0.30352095 0.740529 -1.1738899 -1.0670854 0.56932366 -0.32224983
-2.0146677 -2.0144436 0.2739685 0.38194892 -1.6152172 -0.06307219 -1.5765201 0.01490451
0.44211057 0.60654956 0.36065942 -0.52876335 -0.79270357 0.14317285 0.929866 0.61819816
-4.1260424 0.80207765 -0.7223486 -0.08165001 -0.44171414 0.5746164 -0.099427216 1.799924
1.5915796 0.30635008 0.6520707 -0.5403019 1.1633422 1.1229941 -0.540431 1.6390513
0.30624634 0.27242234 -2.0284526 -0.95292866 0.19463286 -1.0936137 1.2169379 1.7671008
-2.4113429 0.25728494 1.0937117 0.66844064 0.07118938 1.1728935 -0.13391097 0.66711706
0.537306 -0.33135593 -0.817253 -0.267792 1.0791191 0.6547779 -0.041960176 -0.36047575
-0.7314639 0.2901264 -1.9715204 -1.5187198 0.5849157 0.60394275 0.11978188 -0.39565736
-4.3979077 -0.048294455 -0.00014281632 -0.87171245 -2.2813885 -0.9055716 0.44666246 -1.4021214
0.40701106 0.48488808 -0.91720665 -0.7089794 -4.307509 0.3328168 0.37797835 -4.892701
-0.934937 1.0712153 -0.45695674 -0.010429556 0.045269758 -1.3150436 1.2147839 -0.31003356
-2.5387409 0.279295 -1.7396462 0.3223052 0.74647516 1.6521194 0.644112 -0.3159874
-0.24156135 -1.3734167 -1.9838198 1.4120752 0.4975881 0.14399399 -0.25370795 0.031362083
0.7626212 -1.4498708 -5.02559 -3.2989647 -0.30321223 0.20513442 0.29326352 -3.2050912
-0.08532917 0.41809148 -0.057387438 -0.23556176 1.2122153 0.80112237 0.72100794 -0.73978454
-0.5161864 -0.5041704 -0.20353948 1.1107317 0.16281281 -0.18118225 -0.37016788 -1.9271686
-0.18706375 0.38241377 -2.7453027 -0.6498838 0.14717215 0.7343068 -1.1611973 -0.07648818
0.9932778 0.5203266 0.99917966 -0.4931884 0.33655688 -1.4257151 -0.62116987 0.7130949
0.6594257 -1.0340365 -2.8821054 0.64727217 1.0797774 0.41154748 -0.23146544 -0.15723935
