results/Log_11011055/kernel_points/epoch53/layer_0_resnetb_1_conv1.npy (npy, 8320 bytes, 1 tensors)

array f4 [64, 32]
0	0x3f8eced9	1.1156875
1	0x3e96c20c	0.2944492
2	0x400a4f1a	2.161078
3	0xbf968b21	-1.1761209
4	0xbec82eb3	-0.3909813
5	0x3f194822	0.5987569
6	0xbe23b870	-0.15988326
7	0xbec1f125	-0.3787929
8	0xbf5dd099	-0.8664642
9	0x3ea01817	0.3126838
10	0xbff1112e	-1.8833368
11	0x3e76e2f6	0.24110016
12	0x3f01d55b	0.5071618
13	0x3e263265	0.16230161
14	0xbf0f588e	-0.559945
15	0xbfc300a9	-1.5234576
16	0x3e54c3da	0.20777836
17	0x3bfdc620	0.0077445656
18	0xbf5b6a8b	-0.85709447
19	0xbf356da9	-0.70870453
20	0xbf26ac31	-0.65106493
21	0xbeb6d9b1	-0.3571296
22	0xbdd499e1	-0.103809126
23	0xbdc8e5d1	-0.09809459
24	0x3f544e96	0.8293241
25	0xbd9f6597	-0.077830486
26	0x3d172c99	0.036907766
27	0x3eb1acf1	0.34702256
28	0xbed9ddf0	-0.42552137
29	0xbfadfb8a	-1.3592389
30	0xbfadd451	-1.3580419
31	0x3fbc21d4	1.4697824
32	0x3ec0ba34	0.37642062
33	0xbf456fe7	-0.77123874
34	0x3e245233	0.16046982
35	0x3e081b2e	0.13291618
36	0xbc3f8c9f	-0.0116912415
37	0xbeb9c11c	-0.36280143
38	0xbd765e8c	-0.06014876
39	0x3f8770c1	1.0581285
40	0x3decbbab	0.11559232
41	0xbf1d73aa	-0.61504614
42	0x3ef2fd51	0.4745889
43	0x3e70ceb0	0.23516345
44	0x3ec8f0b3	0.3924614
45	0xbe5c421d	-0.21509595
46	0xbefaad18	-0.48960185
47	0x3fbbe083	1.467789
48	0x3ed03bbb	0.4067057
49	0xbcbf9e40	-0.02339089
50	0xbf241f85	-0.64110595
51	0xbe20ee63	-0.15715937
52	0x3f32b3c1	0.6980553
53	0xbe8beb70	-0.27328062
54	0x3e922c28	0.28549314
55	0xbe468759	-0.19387569
56	0x3dab9015	0.08377091
57	0xbe0bb7f5	-0.13644393
58	0x3de8b27b	0.113621674
59	0xbe24741d	-0.16059919
60	0x3eb39738	0.35076308
61	0xbf7cb560	-0.98714256
62	0xbeebe88f	-0.46075866
63	0xbf345723	-0.7044546
64	0xbd9c9794	-0.07646099
65	0xbe67c5d9	-0.22634067
66	0x3fe3c6af	1.7795008
67	0xbe981b03	-0.29708108
68	0x3e4ac5e2	0.19802049
69	0x3f1f829c	0.6230867
70	0xbe56b34d	-0.20966835
71	0x3eb96192	0.36207253
72	0xbe4192b8	-0.18903625
73	0xbe8ce57c	-0.27518833
74	0x3e21f1f6	0.15814957
75	0x3e4ade5d	0.19811387
76	0x3f881f34	1.0634522
77	0xbe439d00	-0.1910286
78	0xbcb18f43	-0.021674758
79	0x3f394ce5	0.72382957
80	0xbf0fdc0b	-0.56195134
81	0xbf01bafe	-0.5067595
82	0xbf6dab1e	-0.9283923
83	0xbea3f4cf	-0.32022712
84	0x3e5348e2	0.20633271
85	0xbcd1b699	-0.025599765
86	0x3ed83785	0.42229858
87	0x3db1a6a1	0.0867436
88	0xbe632af5	-0.22184356
89	0xbe488235	-0.1958092
90	0x3e3ef992	0.18649891
91	0xbe3d148b	-0.18464868
92	0xbe3f4e76	-0.18682274
93	0xbf03c25a	-0.5146843
94	0xbf91011c	-1.1328464
95	0xbd1c17d6	-0.03810867
96	0x3d9b80c8	0.075929224
97	0xbf0d5f38	-0.5522342
98	0xbce3a04d	-0.027786398
99	0x3f2e11f3	0.6799614
100	0xbf6889ec	-0.9083545
101	0xbf14b867	-0.58093876
102	0xbf2dd8a3	-0.67908686
103	0xbfc4bf5f	-1.5370902
104	0x3eb3e22a	0.35133487
105	0x3c073c0d	0.008254063
106	0xc011070d	-2.2660553
107	0x3fea36ba	1.8297951
108	0xbf0429c6	-0.5162624
109	0xbd870cf9	-0.06594271
110	0xbfbbdd2e	-1.4676874
111	0x3d746368	0.059665114
112	0x3f1f966e	0.6233891
113	0xbf4f5cd2	-0.8100101
114	0x3fdf176b	1.7429022
115	0xbf3532e7	-0.70780796
116	0x3ede76eb	0.43450102
117	0x3fabb43f	1.3414382
118	0xbdfecf86	-0.12441926
119	0xbddc4f91	-0.107573636
120	0x3fa1c983	1.2639621
121	0xbdc92de0	-0.09823203
122	0x3e9dff56	0.30858868
123	0x3fb311a1	1.3989755
124	0xbedb5a90	-0.4284253
125	0xbcae9c13	-0.021314656
126	0x3f7b569a	0.9817902
127	0x3c4a8886	0.012361651
128	0x3ecb99a0	0.39765644
129	0x40121864	2.2827387
130	0x3f822482	1.0167391
131	0xbc916922	-0.017750327
132	0x3c9531f6	0.0182123
133	0x3f3679e5	0.71279746
134	0xc012dd69	-2.2947638
135	0xbf7dad69	-0.9909273
136	0x3c3a7775	0.01138102
137	0x3f2ef3da	0.6834084
138	0x3f38f7ec	0.722533
139	0x40075a80	2.1148987
140	0xbf8c7ae2	-1.0975001
141	0x3cc900c4	0.024536498
142	0x3ea99e62	0.3312865
143	0xbf9d36c3	-1.2282337
144	0xbebfcb03	-0.37459573
145	0xbe2b7eca	-0.16747585
146	0x3f6faa10	0.9361887
147	0xbea81337	-0.3282716
148	0xbbd89af2	-0.006610268
149	0xbfb56f95	-1.4174677
150	0xbf2f9c15	-0.6859754
151	0x3e1d72ef	0.15375875
152	0x3f2acbd8	0.6671729
153	0x3ea2a437	0.3176591
154	0xbdba9ab5	-0.09111539
155	0x3fe0b4a4	1.7555127
156	0xbf3cb95d	-0.7372034
157	0xbf8ccf4b	-1.1000761
158	0xbf248a5e	-0.6427363
159	0xbf0e237f	-0.5552291
160	0xbebed690	-0.37273073
161	0x3e30530c	0.1721918
162	0xbf72f615	-0.9490674
163	0xbe973f33	-0.29540405
164	0xbe8a554a	-0.27018195
165	0xbe1da7da	-0.15396062
166	0x3eaa7c12	0.33297783
167	0x3e50f150	0.20404553
168	0xbe69b71a	-0.22823754
169	0x3f1b9239	0.60769993
170	0x3e50990d	0.20370884
171	0x3ecde215	0.4021155
172	0xbe7fcf3a	-0.24981394
173	0xbe7f9744	-0.24960047
174	0x3e80ff14	0.2519461
175	0x3e5c149e	0.2149224
176	0xbe715791	-0.2356856
177	0xbdb72c86	-0.08944039
178	0xbea666b9	-0.32500246
179	0x3f043188	0.5163808
180	0x3ef669b9	0.48127535
181	0xbec900dd	-0.3925847
182	0xbe9407a9	-0.28912094
183	0xbeb240ca	-0.34815055
184	0xbe5556e3	-0.20833926
185	0x3ecb1fda	0.39672738
186	0xbd018fb7	-0.031631198
187	0xbd48ce8b	-0.0490251
188	0x3b36e936	0.002791
189	0xbe1cfbad	-0.15330382
190	0xbf3aefe3	-0.7302229
191	0x3ecc5ef0	0.39916182
192	0xbf262978	-0.64907026
193	0xbeec5111	-0.461556
194	0x3e5a28d0	0.21304631
195	0xbe1e0481	-0.15431406
196	0xbdeb16c0	-0.114789486
197	0xbfcca701	-1.5988466
198	0x3ea984dd	0.3310918
199	0x3f0428ae	0.5162457
200	0x3ea0fed8	0.3144443
201	0x3e82d594	0.25553572
202	0x3e248d16	0.16069445
203	0xbfd1e8f4	-1.6399217
204	0x3f5cb165	0.8620818
205	0xbdfcefd8	-0.12350434
206	0x3fa6f923	1.304478
207	0x3fcef306	1.6167915
208	0x3f7991c8	0.9748807
209	0x3ba65256	0.005075733
210	0xbec8d08e	-0.39221615
211	0xbe657888	-0.2240926
212	0xbed65510	-0.41861773
213	0x3ed8c0d6	0.42334622
214	0x3e9e8da8	0.3096745
215	0xbe6ed105	-0.23321922
216	0xbf8c4d45	-1.0961081
217	0x3e524b07	0.20536433
218	0x3e044789	0.12917913
219	0xbfbf85e4	-1.4962735
220	0xbec619ff	-0.38691708
221	0xbee13221	-0.43983558
222	0x3d97a9ec	0.07405457
223	0xbe75f858	-0.24020517
224	0x3e31bcf8	0.17357242
225	0x3df60fca	0.1201473
226	0xbeacf59a	-0.3378113
227	0x3ea8c866	0.32965392
228	0xbe61b600	-0.22042084
229	0xbd878159	-0.06616468
230	0xbf26042e	-0.6485013
231	0x3d5935b8	0.053029746
232	0x3ef596dd	0.47966662
233	0x3e346bf0	0.176193
234	0x3e9db732	0.3080383
235	0x3f9ecd5a	1.2406418
236	0xbf0ce169	-0.5503145
237	0x3a17586d	0.00057733693
238	0xbfd83206	-1.6890266
239	0xbec10a42	-0.3770314
240	0x3d4d4e4e	0.050123505
241	0xbeb64094	-0.35596144
242	0xbf12801c	-0.5722673
243	0x3e6dc748	0.23220551
244	0x3ea74244	0.32667744
245	0xbe77d0ad	-0.24200697
246	0xbe5779ce	-0.21042559
247	0x3e839e97	0.25706932
248	0x3ee8373c	0.4535464
249	0x3e7d96c4	0.24764544
250	0x3ea1cefe	0.31603235
251	0x3f90204b	1.1259855
252	0xbf16cb05	-0.58903533
253	0xbfc9e6a7	-1.5773515
254	0x3ee3adc5	0.44468513
255	0xbe19d9e6	-0.15024528
