results/Log_11011055/kernel_points/epoch53/layer_2_resnetb_strided_1_conv1.npy (npy, 262272 bytes, 1 tensors)

array f4 [512, 128]
-0.102782324 0.03207504 0.014887499 -0.07256066 -0.022588909 -0.08341529 0.04166166 -0.021363568
-0.14615224 0.010462913 0.119561255 0.15190394 -0.06976639 0.021436084 0.2537509 -0.053182997
0.0091958 -0.13130409 -0.018518472 -0.005870593 0.14545454 0.034913022 -0.04775008 0.13762231
-0.03211062 0.042718414 0.032416202 0.13883531 0.10053685 0.055643298 0.23129778 0.05931226
0.013112695 0.19512834 -0.086155936 0.02154919 0.09864696 -0.14455578 -0.0069451984 0.17524199
-0.03705531 -0.0443213 -0.19877484 -0.048365712 -0.0629096 0.16186605 -0.12766095 0.02298934
-0.041610017 -0.12028296 0.22418062 0.1578322 0.11794456 0.006936452 0.05943089 0.038644258
0.030844748 -0.029376388 0.1704023 0.09968436 0.0688415 0.033005938 0.03677277 0.061809987
0.0022766858 -0.036042687 0.047286022 -0.063386336 -0.06661477 0.055368137 0.033946946 -0.08928614
0.055042207 -0.06022925 -0.040087413 0.15282208 0.09539091 -0.12967974 0.15204348 0.016903853
-0.05427127 -0.03807635 0.11456835 0.15355241 0.09941856 -0.03624382 0.036132358 -0.016152302
0.005343945 -0.11591883 -0.10653862 0.0779108 -0.025145724 0.1255563 -0.07373502 0.19901675
-0.02170951 -0.013118755 0.02485392 -0.04803767 0.043244235 0.11172122 -0.09918221 0.004330168
-0.021226352 -0.0845059 0.058672294 0.14708497 -0.04380509 -0.060811434 -0.023580153 0.182622
-0.029489402 0.042082842 -0.19155152 -0.021032771 -0.09811896 -0.13358949 0.006113616 0.06640562
0.044600815 0.05854632 -0.059571285 -0.10714038 -0.047264535 0.049043342 -0.13827726 -0.18274088
-0.07770026 0.006887421 -0.13214955 0.08567869 0.074235894 0.12142013 -0.07511283 0.010696227
-0.06871877 0.04184672 0.048003215 -0.009067442 0.023821196 0.014355724 0.026226902 -0.0034774179
0.042365618 0.11460386 0.13575591 -0.0339187 0.0019894915 0.058074385 0.2994971 0.03569145
0.12620415 0.062829286 -0.025556916 -0.07235873 -0.029556334 0.08255508 -0.13503414 0.009368371
0.06470137 -0.0714533 0.16160119 0.20607407 -0.01695647 -0.0012536949 -0.10141775 -0.0453564
0.026543032 0.12400207 0.061444726 -0.106301345 -0.14839564 0.02950353 -0.06776782 0.0011014175
-0.01562622 -0.2027846 -0.095368356 -0.118200175 -0.024931345 -0.076026365 -0.0038398786 -0.030554496
-0.077271596 -0.09933819 -0.01909228 -0.11328909 -0.13165921 0.056053665 0.039262086 -0.057061978
0.048655163 0.096973024 -0.018198673 0.0160305 -0.029551774 -0.045451704 -0.051879145 0.07713466
0.08574366 -0.03999742 -0.022294192 0.1483198 -0.04062301 0.054156195 -0.028601442 0.04848358
0.1708498 -0.085329816 -0.035978537 -0.032148406 0.00011414475 -0.05991946 -0.10424826 0.095284
0.15822987 -0.112321526 0.09531189 -0.030373339 0.037405428 0.07294163 -0.11349166 0.010057475
-0.018119754 -0.15521163 0.09957389 -0.028054224 -0.020582292 -0.08279972 -0.010863772 -0.021762673
-0.011268592 0.026876302 0.14332426 0.060751196 0.06805527 -0.08427953 0.0032436522 -0.043546088
0.14291109 -0.1231292 0.115531914 -0.04101594 -0.016103765 -0.131663 0.023980768 -0.033101622
0.081997804 -0.003340636 -0.033032812 0.093232445 -0.082798734 -0.09434527 0.09681544 -0.17407039
00000000: 8a7f d2bd 1e61 033d b2ea 733c af9a 94bd
00000010: 600c b9bc a3d5 aabd 6ba5 2a3d a602 afbc
00000020: efa8 15be a36c 2b3c 88dc f43d b58c 1b3e
00000030: aee1 8ebd ba9a af3c a3eb 813e 6ad6 59bd
00000040: fba9 163c 9474 06be 0db4 97bc 1a5e c0bb
00000050: 09f2 143e f500 0f3d 9695 43bd ddec 0c3e
00000060: 6d86 03bd 81f9 2e3d dac6 043d d82a 0e3e
00000070: 44e6 cd3d 3aea 633d 53d9 6c3e 6af1 723d
00000080: a1d6 563c b9cf 473e 8672 b0bd ed87 b03c
00000090: 6b07 ca3d 6e06 14be 8c94 e3bb a372 333e
000000a0: 4fc7 17bd 408a 35bd a28b 4bbe 201b 46bd
000000b0: c0d6 80bd 37c0 253e 8db9 02be 2454 bc3c
000000c0: 446f 2abd ea56 f6bd 9b8f 653e c49e 213e
000000d0: eb8c f13d 2d4b e33b ce6d 733d 7149 1e3d
000000e0: 20ae fc3c c0a6 f0bc f17d 2e3e 5027 cc3d
000000f0: c6fc 8c3d 3c31 073d 0b9f 163d 782c 7d3d
00000100: 7334 153b 7fa1 13bd fdae 413d b2d0 81bd
00000110: 536d 88bd b3c9 623d f40b 0b3d a7db b6bd
00000120: f073 613d f2b2 76bd b332 24bd 647d 1c3e
00000130: 4f5c c33d c4ca 04be 49b1 1b3e f379 8a3c
00000140: 8d4b 5ebd f2f5 1bbd d0a2 ea3d d83c 1d3e
00000150: f59b cb3d 6674 14bd 86ff 133d d551 84bc
00000160: 431c af3b da66 edbd ec30 dabd b38f 9f3d
00000170: 68fe cdbc d591 003e 6302 97bd 0ccb 4b3e
00000180: 24d8 b1bc 0cf0 56bc 739a cb3c 26c3 44bd
00000190: de20 313d 18ce e43d 0b20 cbbd 15e4 8d3b
000001a0: e3e2 adbc 6e11 adbd 5c52 703d 719d 163e
000001b0: f76c 33bd 6915 79bd 2a2b c1bc 4301 3b3e
000001c0: c293 f1bc 0f5f 2c3d 1526 44be eb4c acbc
000001d0: 98f2 c8bd afcb 08be ba54 c83b abff 873d
000001e0: 58af 363d 44ce 6f3d 0501 74bd 6a6c dbbd
000001f0: 7598 41bd ace1 483d 8e98 0dbe 6d20 3bbe
00000200: 5021 9fbd e0af e13b 3652 07be 4f78 af3d
00000210: fd08 983d 1eab f83d c1d4 99bd 3a3f 2f3c
00000220: 6dbc 8cbd 7767 2b3d 059f 443d 9c8f 14bc
00000230: ab24 c33c 4534 6b3c cdd9 d63c 64e5 63bb
00000240: 9287 2d3d 6eb5 ea3d 9903 0b3e 56ee 0abd
00000250: 2162 023b 68df 6d3d af57 993e 3331 123d
00000260: a93b 013e a4ac 803d bd5c d1bc d030 94bd
00000270: 2020 f2bc a312 a93d 6446 0abe cc7d 193c
00000280: 2782 843d 1c56 92bd c87a 253e 1505 533e
00000290: 4ce8 8abc 0553 a4ba 1cb4 cfbd a2c7 39bd
000002a0: c670 d93c ccf4 fd3d 77ad 7b3d 85b4 d9bd
000002b0: 07f5 17be 63b1 f13c dbc9 8abd 705d 903a
000002c0: 8f02 80bc c4a6 4fbe 7c50 c3bd ef12 f2bd
000002d0: d23c ccbc b6b3 9bbd 79a6 7bbb 6c4d fabc
000002e0: 9240 9ebd d271 cbbd 6a67 9cbc 1c04 e8bd
000002f0: acd1 06be 8798 653d 48d1 203d d2b9 69bd
00000300: a34a 473d cb99 c63d 6215 95bc 6552 833c
00000310: 9016 f2bc 912b 3abd 3a7f 54bd c7f8 9d3d
00000320: 5f9a af3d 56d4 23bd 4fa2 b6bc 25e1 173e
00000330: 5064 26bd e3d2 5d3d 924d eabc b896 463d
00000340: 40f3 2e3e 66c1 aebd 3b5e 13bd 0cae 03bd
00000350: ff60 ef38 1c6e 75bd 1d80 d5bd 4224 c33d
00000360: 0307 223e d408 e6bd e132 c33d 82d1 f8bc
00000370: 6f36 193d 6c62 953d 516e e8bd 1cc8 243c
00000380: e16f 94bc ccef 1ebe 65ed cb3d f9d1 e5bc
00000390: 329c a8bc e692 a9bd f6fd 31bc a247 b2bc
000003a0: e79f 38bc b12b dc3c 98c3 123e 3fd6 783d
000003b0: 9060 8b3d bf9a acbd 7493 543b 625d 32bd
000003c0: 4957 123e 292b fcbd ff9b ec3d 5500 28bd
000003d0: 0bec 83bc aad2 06be 5173 c43c 9195 07bd
000003e0: 77ee a73d 92ee 5abb 6a4d 07bd a7f0 be3d
000003f0: 6292 a9bd 1838 c1bd 2c47 c63d 823f 32be
