results/Log_11011055/kernel_points/epoch53/layer_0_resnetb_1_shortcut.npy (npy, 32896 bytes, 1 tensors)

array f4 [64, 128]
0	0xbd02ba56	-0.031915985
1	0xbe42b24a	-0.19013324
2	0xbeb94d47	-0.3619177
3	0x3d8e7780	0.069563866
4	0xbe4a56b2	-0.19759634
5	0xbe8f631d	-0.28005305
6	0xbc54c65c	-0.012986746
7	0xbedb735c	-0.4286145
8	0x3ebe47f3	0.37164268
9	0x3ded3990	0.11583245
10	0x3ee38a2d	0.44441357
11	0xbef4f62e	-0.4784407
12	0xbf0c7213	-0.54861563
13	0xbe40c6e2	-0.18825868
14	0xbe920e13	-0.28526363
15	0x3ee157aa	0.44012195
16	0x3cf2373d	0.029567355
17	0xbf6011a4	-0.8752692
18	0xbe1ae835	-0.15127642
19	0xbd52c373	-0.051455926
20	0x3e8d5661	0.27604964
21	0xbf1568a6	-0.58362806
22	0xbe61b22d	-0.22040625
23	0xbfa5a8e7	-1.294217
24	0xbeb6c515	-0.35697237
25	0x3eb11e22	0.34593302
26	0xbe30faed	-0.1728322
27	0xbf1695e2	-0.58822453
28	0xbf78b738	-0.9715457
29	0x3cca3f7f	0.02468848
30	0x3de432b7	0.111424856
31	0xbead0863	-0.3379546
32	0x3e5d6ec1	0.2162428
33	0x3ec212a4	0.37904847
34	0xbed7e1a5	-0.4216434
35	0xbdc158af	-0.09440743
36	0xbeab029a	-0.33400422
37	0x3f28f751	0.66002375
38	0xbe3370dd	-0.17523523
39	0xbe01dd75	-0.12682135
40	0xbe46f12c	-0.19427937
41	0x3e149508	0.14509976
42	0x3d684db8	0.056714743
43	0xbf1a6b18	-0.6031966
44	0xbd94b7ee	-0.07261644
45	0xbf1fc10b	-0.62403935
46	0xbf0458da	-0.51698077
47	0xbeb30ce5	-0.34970775
48	0xbe50ae48	-0.20378983
49	0xbf1afe52	-0.6054431
50	0xbe94d5aa	-0.29069263
51	0x3de0fa7e	0.109852776
52	0x3e3c670e	0.18398687
53	0xbde43998	-0.11143798
54	0x3eacc790	0.33746004
55	0xbee1d538	-0.44107985
56	0x3e6f3c39	0.23362817
57	0xbc9dbbb0	-0.019254535
58	0x3f436ae6	0.7633499
59	0x3ebfe5d3	0.3748003
60	0xbce2563d	-0.027629012
61	0x3e7eb4b5	0.24873622
62	0x3f0dda05	0.55410796
63	0x3d254dd2	0.04035742
64	0xbf8754f4	-1.0572801
65	0x3eda13c8	0.42593217
66	0x3f3c609e	0.73584926
67	0x3e8fd503	0.28092203
68	0xbe6a071b	-0.22854273
69	0xbe80f10d	-0.25183907
70	0x3e8cb38d	0.27480736
71	0x3e6de7ba	0.23232928
72	0xbe9f0d22	-0.31064707
73	0x3eabed89	0.33579662
74	0x3e218bc4	0.15775973
75	0x3e820af7	0.2539899
76	0xbef843b8	-0.48489165
77	0x3d4647e8	0.04840842
78	0xbe9f1578	-0.31071067
79	0xbe9de327	-0.30837366
80	0x3ebcce29	0.36876038
81	0xbf7a6a2e	-0.9781827
82	0x3de8d117	0.11368006
83	0xbe873c01	-0.26412967
84	0x3eb9ea3b	0.36311516
85	0xbf448fd4	-0.76781964
86	0x3f0c4555	0.5479329
87	0x3e67bb84	0.22630125
88	0x3d889b29	0.066702195
89	0xbe3c057a	-0.18361464
90	0xbe1e64a1	-0.15468074
91	0x3f115770	0.56774044
92	0xbf81abc1	-1.013054
93	0x3f6ee6c4	0.9332087
94	0x3dca286a	0.098709896
95	0xbed1f4dd	-0.41007128
96	0xbe8dedd3	-0.27720508
97	0x3f21fcca	0.6327635
98	0x3d5a9184	0.05336143
99	0x3eb6d7f2	0.35711628
100	0xbebd6a25	-0.36995044
101	0xbe4ef107	-0.20209132
102	0xbf190eb7	-0.5978808
103	0x3e409b93	0.18809347
104	0x3f0b0941	0.54310995
105	0xbd908d4c	-0.070582
106	0x3de4e313	0.111761235
107	0xbd49ae26	-0.049238347
108	0x3a35f474	0.00069410284
109	0xbef0aaca	-0.47005302
110	0xbec60249	-0.38673618
111	0x3f26e865	0.65198356
112	0x3e6dd4c2	0.23225692
113	0x3e02a47b	0.12758057
114	0xbf21e6d1	-0.6324282
115	0x3f2289eb	0.63491696
116	0x3f11aee3	0.5690748
117	0xbc53ff9e	-0.012939362
118	0xbea1c521	-0.3159571
119	0x3dbfcabe	0.09364842
120	0x3e1dfaae	0.15427658
121	0xbe17e52d	-0.14833517
122	0xbeee0476	-0.46487778
123	0xbef6c2ca	-0.48195487
124	0x3f644e1d	0.8918169
125	0xbf2075e5	-0.6267989
126	0x3ef47e29	0.47752503
127	0xbec805da	-0.39066964
128	0x3ec0f79e	0.37688917
129	0xbec5c66c	-0.38627946
130	0xbf045784	-0.5169604
131	0xbd54bb1c	-0.051936254
132	0x3e5ae9db	0.21378271
133	0x3dc142a7	0.09436541
134	0xbe186b43	-0.14884667
135	0xbdb799f1	-0.08964909
136	0xbec2d2c0	-0.38051414
137	0x3d49b8bc	0.049248442
138	0xbe04727d	-0.12934299
139	0x3e5b9e69	0.21447147
140	0x3f091fc5	0.535641
141	0xbeb08732	-0.34478146
142	0x3e5d343c	0.21601957
143	0xbef5cd4a	-0.48008186
144	0xbd194e0e	-0.037427954
145	0xbe8e3c0a	-0.2778018
146	0x3f00d220	0.50320625
147	0x3db2a65c	0.08723137
148	0x3e3884e2	0.18019441
149	0xbec84c25	-0.39120594
150	0x3ea0abc0	0.31381035
151	0x3dc4645e	0.09589456
152	0x3dfbcec1	0.122952946
153	0x3f150c10	0.5822153
154	0xbd018c8b	-0.031628173
155	0x3e6cc13a	0.23120585
156	0x3cde23e4	0.027116723
157	0xbe2d3c1f	-0.16917466
158	0x3d8f07ac	0.06983885
159	0x3ed4086b	0.41412672
160	0x3e3d6429	0.1849524
161	0x3e8c3360	0.27382946
162	0xbe4bcaba	-0.19901553
163	0xbe1ecba5	-0.15507372
164	0x3cc43ce5	0.023954818
165	0x3ef24b52	0.4732309
166	0x3eaafe6c	0.33397233
167	0xbd801c13	-0.06255355
168	0xbe8d4bc4	-0.27596867
169	0xbe801ec9	-0.25023487
170	0xbf37f632	-0.7186004
171	0xbe9bf25d	-0.30458346
172	0xbce2e055	-0.02769486
173	0x3f438553	0.7637531
174	0x3cd148d4	0.025547422
175	0xbec54964	-0.38532555
176	0x3f350ea1	0.70725447
177	0x3dfff3d8	0.124976814
178	0x3e25b26a	0.16181341
179	0xbeddd7ad	-0.4332861
180	0xbe2ec6ec	-0.1706807
181	0x3e207ff4	0.1567381
182	0xbf439852	-0.764043
183	0x3e44f737	0.1923493
184	0xbf0b187d	-0.5433424
185	0xbef67ca8	-0.4814198
186	0x3e0f654a	0.14003482
187	0xbd50eaf2	-0.05100531
188	0xbe787029	-0.24261536
189	0x3ea2792f	0.3173308
190	0x3eccf257	0.4002864
191	0xbe4725b9	-0.19447984
192	0xbe8562f5	-0.2605206
193	0xbe60ed93	-0.21965627
194	0xbda2782b	-0.079330765
195	0xbca67756	-0.020320576
196	0x3e039b0c	0.12852114
197	0xbe555ea9	-0.20836891
198	0x3ce1e746	0.0275761
199	0xbef58ecf	-0.47960517
200	0xbf7d4e72	-0.98947823
201	0xbebf2b43	-0.37337694
202	0xbd893101	-0.066988
203	0xbd970c83	-0.07375433
204	0xbea9e502	-0.33182532
205	0xbeb24e60	-0.3482542
206	0x3b21eaff	0.002470672
207	0x3e15eab9	0.14640321
208	0xbd594f81	-0.053054336
209	0xbeddf726	-0.43352622
210	0xbe81a823	-0.2532359
211	0xbf388386	-0.7207569
212	0x3e80bb96	0.25143117
213	0xbd9e9a2d	-0.077442504
214	0x3da714d4	0.081582695
215	0x3e1eda48	0.15512955
216	0x3c9922a6	0.01869328
217	0xbcf7d8d8	-0.030254766
218	0x3f82d471	1.0221082
219	0xbf68c51f	-0.9092578
220	0x3e739463	0.23787074
221	0x3f6ea991	0.9322749
222	0x3f103e32	0.563449
223	0xbd04caf3	-0.03242011
224	0xbe74b13e	-0.23895738
225	0x3ef15615	0.47135988
226	0xbe95ada9	-0.29234055
227	0xbea05ac2	-0.31319243
228	0x3ed21ed9	0.4103916
229	0x3d8b8870	0.06813133
230	0xbe746be3	-0.2386928
231	0xbf611454	-0.87921643
232	0x3eb9684f	0.36212394
233	0x3df28649	0.11842019
234	0xbef2f0d7	-0.4744937
235	0xbb004129	-0.0019570088
236	0xbdf666f6	-0.12031357
237	0xbf5f7e59	-0.87302166
238	0xbdab8561	-0.083750494
239	0x3ea5ab43	0.32357225
240	0x3e2f2412	0.17103603
241	0x3ea692d8	0.32533908
242	0x3c8373fb	0.016046515
243	0xbf046311	-0.51713663
244	0x3eb3562b	0.35026678
245	0x3d090cd7	0.03345951
246	0x3f2a8edc	0.66624236
247	0x3d6d876a	0.05799047
248	0xbdc35540	-0.095377445
249	0xbd1a8816	-0.037727438
250	0x3c4f96df	0.012670248
251	0xbefc5f17	-0.49291298
252	0x3f0e17be	0.5550498
253	0xbeab805f	-0.33496377
254	0x3ebc0100	0.36719513
255	0x3d8e1259	0.06937093
