results/Log_11011055/kernel_points/epoch53/layer_2_resnetb_strided_1_conv2.npy (npy, 983168 bytes, 1 tensors)

array f4 [15, 128, 128]
00000000: 32b3 06be 4072 edbd 0a14 323e 105f 92be
00000010: e892 08bc 81f2 38be a68d 14be f796 40be
00000020: 5259 3cbd 34e0 b53c d95a a8bb a378 12be
00000030: 583f 90be 1487 e93d 46e3 72be e064 12be
00000040: b4d1 dbbd c4f9 063e 35f6 143b cc4d 15bd
00000050: 47a7 0dbe 8378 413d 95b5 d13d 58c6 f1bd
00000060: 12f2 0a3d eb0c 5fbd f784 ae3c 1407 613e
00000070: 3a68 b83d 416b 003e 9320 7cbc 4daf 0fbc
00000080: 6fd0 cc3d 3776 a8bd 1cd6 1cbe 3d85 1dbe
00000090: ce2f 12be 7337 2fbd bad1 853c e15e 8d3c
000000a0: 8cfb 3b3e 1208 083e 45ae d3be cf4a cdbd
000000b0: c496 ff3d 5b6f 813d c4c2 a53e 339a c23d
000000c0: 008d 93be 0728 b23d 0494 a7bd 8787 52be
000000d0: 466e 053e 9063 4dbe cbae 23be afff d33d
000000e0: d7be 84be 8320 553c ce7e b4bd 988f 6d3d
000000f0: 8556 8abe b8b3 8ebd 8160 4a3e 621b 97bc
00000100: d6af 0ebe 5094 313c 0b42 bdbd fa2d d93d
00000110: aad4 6cbd 1920 d33c d6c5 923d 78d7 a4ba
00000120: 72ed 56bd 2d39 0dbe 1189 27bc a31c 40be
00000130: abfe 51bd 8fcd 013e 5c3a cf3d 82b0 3cbe
00000140: 5a59 34be 0f84 1bbe 58ff 59bd 14c5 633d
00000150: 4144 85be d07f 30bd e098 40be e463 f23d
00000160: 4d29 1ebe e3bf e43d 59e5 5d3d a998 e2bc
00000170: e80e 7c3c 9d5d 613d a149 97ba b334 813c
00000180: 8a07 8dbd d3bc 223c a19d 28be 701b 233e
00000190: 17ea 20be 1ba3 43be 84d1 09be ded5 203e
000001a0: 4be9 e43d 7e11 043d 448b 33be 954f 24be
000001b0: 8f60 60bd b8a2 ebbd 174c 8ebd 5560 543e
000001c0: bb4c 45be 8325 19be 6bcf dabd be5c 8c3d
000001d0: 9635 49be f589 b03d c53e 103d dc19 96be
000001e0: 7a97 90bd f0b8 333d f107 de3d 2108 173e
000001f0: 475e c4bd 964b 26be 5fc8 d8bc 1721 44be
00000200: d008 483e ae48 173d a73c 15be b8a8 4bbe
00000210: 3c89 403d a5ed 45bd 30fe ba3d 3dda 40bd
00000220: c414 d9bd 5af3 98bd 8036 283e bb1f 1e3d
00000230: b969 883d 50ab 0ebd f03a c63d b83e 6abd
00000240: 649b b53d 791d e5bd 9af0 f23d 703c f9ba
00000250: 6a4c 91bc dbe6 f53c a614 f23b b408 6dbd
00000260: 6f5b a2bc 7e64 42bc 9316 fcbd 4943 ca3d
00000270: 914d 1bbe d42d ccbd 8376 103c 8ae4 04be
00000280: 731d c0bc cb3a bcbc 51f7 cb3d d6a1 fa3c
00000290: 6d87 d63d 7acc c83d ae41 013c 43b4 633b
000002a0: db40 b53c c7fa dbbd 8f1c 36be b8db aa3d
000002b0: 0f50 5b3d 5c5b 3fbb aced 293b 1058 3b3d
000002c0: 3b95 83bd e7a9 46bd b3be 883d 0eac 04bd
000002d0: 9bb8 88bb 0597 c3bd be3a 07bd 0faf 12bd
000002e0: 85ad 443d 4f29 64bb 880b 8cbd 0075 79bb
000002f0: a7f6 c8bb f943 903d c5cd 193d ddc2 27bd
00000300: 67d9 04be 1268 22be 5cbb 32be b964 b2bd
00000310: c2be 74be 2ad8 82bd 6000 00be d9e7 08be
00000320: 0455 e3bd d292 57be dede 7b3c d1d3 0a3d
00000330: d10c f0bd e9ed 1ebe 4d89 e1bb d1b4 fb3a
00000340: 8127 b4bd a650 25be 6f8d 40bd 1a8a 883d
00000350: 03d2 70be b936 793d fde8 e23d 4998 91bc
00000360: 5658 8fbe 80b9 1ebd b60c 083b dde7 02be
00000370: 8f22 033d 42a3 cfbb 774d 363d 6666 203d
00000380: f3c1 353e a6c7 143d 456f ae3b f24b b63d
00000390: 0ff6 263e d58c c5bd 72ad ae3d 657f 133d
000003a0: 8af9 9c3a 1d4c 40be dd83 10be 632a 60bd
000003b0: a591 f33d 4821 81bd 6b94 983c eaff 62bd
000003c0: 0f4a ad3d 3c28 cbbd 5401 a73d 44bc 3b3d
000003d0: e12b 89bd ab14 9a3d cce5 ccbd 5588 45be
000003e0: d88a bfbb 28ad dabc 762e 6d3d ce7c 093e
000003f0: 42b5 d23c 79b1 92bc eff7 0f3d 440b 4b3d
-0.13154295 -0.11594057 0.17390457 -0.28588152 -0.008335806 -0.18061258 -0.1450716 -0.18807589
-0.04598362 0.022201635 -0.005137783 -0.14303832 -0.28173327 0.11402717 -0.2371951 -0.14296293
-0.10733357 0.13181216 0.0022729759 -0.036451146 -0.13833342 0.04723407 0.10239712 -0.11805409
0.033922262 -0.05445568 0.021303637 0.21975356 0.09004255 0.12540914 -0.015388626 -0.008769822
0.10000693 -0.08225673 -0.15316051 -0.15382858 -0.14276049 -0.04277749 0.016335357 0.017257156
0.18357676 0.13284329 -0.41343895 -0.10024034 0.12479928 0.063200675 0.32375157 0.095020674
-0.28818512 0.08699041 -0.081825286 -0.20559512 0.13030347 -0.20057511 -0.15984647 0.10351502
-0.2592685 0.01300824 -0.088132486 0.05799827 -0.27019134 -0.069678724 0.19763376 -0.018445674
-0.13934264 0.010838583 -0.09241112 0.106044725 -0.05782 0.025772141 0.071666405 -0.0012576422
-0.05247254 -0.13791342 -0.01022555 -0.18760924 -0.05126826 0.1267607 0.10118553 -0.18426707
-0.1761221 -0.15187095 -0.05322203 0.05560787 -0.26028636 -0.04309064 -0.18808317 0.11835459
-0.15445442 0.11169412 0.0541738 -0.027660685 0.015384413 0.055020917 -0.0011542329 0.0157722
-0.068862036 0.0099327145 -0.1646638 0.15928435 -0.15714298 -0.19105189 -0.1345883 0.15706584
0.111773096 0.032243244 -0.17533594 -0.16045983 -0.054779585 -0.115056455 -0.06948107 0.20739873
-0.19267552 -0.14955716 -0.10684093 0.06853627 -0.19649348 0.08620063 0.03521611 -0.29316604
-0.07060142 0.043877542 0.108413585 0.14749195 -0.095882945 -0.16239771 -0.026462732 -0.19153248
0.19534612 0.036934547 -0.14573918 -0.1988858 0.047005877 -0.04832234 0.09130514 -0.04708313
-0.10599664 -0.074682906 0.1642704 0.03860448 0.0666079 -0.034831345 0.0967921 -0.05718872
0.08867529 -0.11187262 0.11862297 -0.0019015204 -0.017736632 0.030017307 0.0073877154 -0.057869628
-0.01981899 -0.0118647795 -0.12308993 0.09876115 -0.15166308 -0.099696785 0.008817318 -0.12977806
-0.023451542 -0.022977253 0.09959281 0.030594748 0.10475049 0.09804626 0.007889194 0.0034744896
0.022125652 -0.10741191 -0.17784332 0.08342689 0.053543147 -0.0029198742 0.0025929017 0.04573828
-0.06424948 -0.048501875 0.06676998 -0.032390647 -0.0041723973 -0.09550289 -0.033015005 -0.03581148
0.048017044 -0.003481466 -0.06838137 -0.0038064122 -0.006132919 0.07044215 0.037549753 -0.04095732
-0.12973557 -0.15860012 -0.17454284 -0.087106176 -0.23900893 -0.06388886 -0.12500143 -0.13369693
-0.111002 -0.21052101 0.01537296 0.03389341 -0.117211945 -0.15520443 -0.0068828226 0.0019203668
-0.08796597 -0.16144046 -0.04700988 0.06666966 -0.23517613 0.060843203 0.11079595 -0.01777281
-0.27997082 -0.038751125 0.002075953 -0.12783761 0.03201538 -0.0063366005 0.04450747 0.039160155
0.17749767 0.036323212 0.005323323 0.08901204 0.16304801 -0.09646002 0.08529176 0.036010165
0.0011976224 -0.18779035 -0.14112802 -0.054727923 0.11893014 -0.06305176 0.018625459 -0.05541984
0.08461391 -0.099197835 0.0815455 0.04583384 -0.06697822 0.07523473 -0.10004768 -0.19290288
-0.005845409 -0.026693895 0.057905637 0.13426515 0.025721196 -0.017906891 0.035148557 0.04957129
