results/Log_11011055/kernel_points/epoch53/layer_1_resnetb_strided_1_conv1.npy (npy, 65664 bytes, 1 tensors)

array f4 [256, 64]
0	0xbe16714b	-0.14691655
1	0xbdaab15f	-0.08334612
2	0x3ee95845	0.45575157
3	0xbe47a08d	-0.19494839
4	0x3e76abf8	0.24089038
5	0x3dd4a153	0.10382333
6	0xbe5d13b2	-0.21589544
7	0xbe18d461	-0.14924766
8	0xbe297b72	-0.16550997
9	0x3e035dbc	0.12828726
10	0xbd791da5	-0.060819287
11	0x3cce972f	0.025218574
12	0xbdab044e	-0.083504304
13	0x3cd98f9a	0.026557732
14	0x3da71ca7	0.08159762
15	0x3e5b707c	0.21429628
16	0x3e23febc	0.16015142
17	0xbe41ff29	-0.18944992
18	0x3d9dde90	0.07708466
19	0xbb8ea5fe	-0.004353284
20	0xbd49248a	-0.049107112
21	0xbe259bcd	-0.16172715
22	0x3e52147e	0.2051563
23	0xbd189286	-0.03724911
24	0xbe397420	-0.18110704
25	0xbd6ee199	-0.058320615
26	0xbd2066d1	-0.039160553
27	0x3d0cb76c	0.034354612
28	0x3e1e8fbb	0.15484516
29	0xbe7f31ff	-0.24921416
30	0xbcc6c8be	-0.024265643
31	0xbd098dcd	-0.033582497
32	0x3e01d789	0.12679876
33	0x3e0e7d8c	0.1391508
34	0x3da177b3	0.07884159
35	0x3e69887c	0.22805971
36	0x3dab2f2f	0.08358609
37	0x3e01c544	0.12672907
38	0xbd36d575	-0.044637162
39	0xbe233d8a	-0.15941444
40	0x391c625d	0.00014913963
41	0xbe06fa49	-0.13181414
42	0xbc8e1bf6	-0.017347317
43	0xbdf42915	-0.11921898
44	0x3dae85ce	0.08521615
45	0x3eabc49e	0.33548445
46	0xbe366bd6	-0.17814574
47	0x3d1349a0	0.035958886
48	0x3e39001e	0.18066451
49	0xbdc20a12	-0.09474577
50	0xbdfd82a0	-0.1237843
51	0xbdb391bd	-0.08768032
52	0x3e09ed45	0.13469417
53	0x3dd925b1	0.10602892
54	0xbe8638ce	-0.26215214
55	0xbcc46acb	-0.023976704
56	0x3e312a67	0.17301331
57	0x3e3990a3	0.18121581
58	0xbe656f6a	-0.22405782
59	0xbd136071	-0.035980646
60	0xbea26ec1	-0.31725124
61	0x3f353283	0.707802
62	0x3e72859b	0.23683779
63	0x3dd32c52	0.10311188
64	0xbed4d229	-0.4156659
65	0xbe1962da	-0.14979115
66	0x3eb2d3ea	0.34927303
67	0xbf6383fc	-0.8887327
68	0x3db3d112	0.08780111
69	0x3db8447a	0.08997436
70	0xbdc11f6a	-0.0942982
71	0xbeb76a04	-0.3582307
72	0x3e5724e3	0.21010165
73	0xbe866c0c	-0.26254308
74	0x3df1ed0f	0.118127935
75	0x3ea963dd	0.33084002
76	0x3c61307f	0.0137444725
77	0x3e9adedb	0.3024815
78	0xbe0f6453	-0.14003114
79	0xbd8df229	-0.06930954
80	0x3e875652	0.26433045
81	0xbd615fb6	-0.055022918
82	0xbe8d4ec6	-0.27599162
83	0xbe2154be	-0.15754983
84	0xbe39037b	-0.18067734
85	0x3e260b07	0.16215144
86	0x3e333f7b	0.17504685
87	0x3dfe5b8a	0.124198034
88	0xbec9c5c7	-0.39408705
89	0x3dcd7d8a	0.1003371
90	0xbd0378cf	-0.032097634
91	0xbe6b25ec	-0.22963685
92	0x3ea35e13	0.3190771
93	0x3e05ec4e	0.13078424
94	0x3e0da8f7	0.13833986
95	0xbdb6249b	-0.08893701
96	0x3e8af54e	0.27140278
97	0x3eca0e3f	0.39463994
98	0xbeaf1f63	-0.34203634
99	0x3e9a1ee9	0.30101708
100	0x3ed9b34d	0.42519608
101	0xbbbca0e8	-0.005756486
102	0xbe93734c	-0.28798902
103	0xbe2baf8e	-0.16766188
104	0xbde8e353	-0.11371484
105	0xbe4509cb	-0.19242017
106	0xbdb66ba4	-0.089072496
107	0x3f03fc66	0.51557004
108	0xbdb16d73	-0.08663454
109	0x3de4d658	0.11173695
110	0xbeed0ae6	-0.46297377
111	0x3e63d388	0.22248662
112	0x3e5a2595	0.21303399
113	0xbe6755f3	-0.22591381
114	0x3cff163d	0.031138534
115	0x3ec98979	0.39362696
116	0x3e616bf3	0.22013836
117	0x3d986cd7	0.074426346
118	0xbde0a62a	-0.10969193
119	0xbe0203e7	-0.12696801
120	0x3e2c7408	0.16841137
121	0x3f5a8465	0.8535827
122	0x3e806fe2	0.2508536
123	0xbdad1925	-0.084520616
124	0xbf0f9ffd	-0.561035
125	0x3f69008c	0.9101646
126	0x3e61f8bb	0.2206754
127	0xbe4f9db2	-0.20275
128	0xbef21727	-0.4728329
129	0xbe9d040b	-0.30667147
130	0x3f44846b	0.76764554
131	0xbf477476	-0.7791208
132	0xbe4db24f	-0.2008755
133	0x3c09ce36	0.008410981
134	0x3d37237b	0.04471157
135	0xbf07d725	-0.5306266
136	0x3e91002d	0.28320447
137	0xbe26ae8b	-0.1627752
138	0xbce6e34a	-0.028184552
139	0x3e97779d	0.29583445
140	0xbdcf38ba	-0.101182416
141	0x3ee4845f	0.4463224
142	0xbe4cdf65	-0.20007093
143	0x3e58b4ef	0.2116277
144	0x3eff81d7	0.49903747
145	0xbe1f6005	-0.15563972
146	0xbd60ce97	-0.05488452
147	0xbe335d83	-0.1751614
148	0xbe84443f	-0.25833318
149	0xbda00862	-0.07814099
150	0x3e71ee3e	0.23626038
151	0xbc7f28a7	-0.015573657
152	0xbf13f807	-0.57800335
153	0x3e3e5735	0.18587954
154	0x3d8dd8f2	0.06926145
155	0xbbedf6c3	-0.0072620823
156	0x3e86862f	0.2627425
157	0x3e273805	0.16329964
158	0x3d1d7974	0.038445905
159	0x3df8d513	0.12150016
160	0x3dc27a93	0.094960354
161	0x3e440412	0.19142178
162	0xbeb66fbf	-0.3563213
163	0x3d293ef1	0.04131979
164	0x3e2138f9	0.1574439
165	0x3e5a5a15	0.21323426
166	0xbe04e53e	-0.12978074
167	0xbe0cb1a1	-0.13739635
168	0xbcaa487b	-0.020786515
169	0xbe6435a0	-0.22286081
170	0xbd151f95	-0.036407072
171	0x3f5654bb	0.8372304
172	0x3d82235b	0.063544
173	0x3e4e8310	0.20167184
174	0xbe7289c9	-0.23685373
175	0x3e87a1c6	0.2649061
176	0xbcb10be1	-0.02161211
177	0xbde30d03	-0.11086466
178	0x3df8ce52	0.121487275
179	0x3edcdb00	0.43135834
180	0x3e3f1c66	0.18663177
181	0x3e87fb7a	0.2655905
182	0x3dccb311	0.09995092
183	0x3e4f6c89	0.20256247
184	0x3e1b8980	0.15189171
185	0x3f40399f	0.7508792
186	0x3e4dc27b	0.2009372
187	0xbe12d874	-0.14340383
188	0xbede1476	-0.43374985
189	0x3f90fb4d	1.1326691
190	0x3d91f3cc	0.07126579
191	0xbce08ee0	-0.027411878
192	0xbd9a264a	-0.07526834
193	0x3e548c23	0.20756583
194	0x3e683e86	0.22680101
195	0xbe39337d	-0.18086047
196	0x3da961ff	0.082706444
197	0x3e28e024	0.16491753
198	0xbe8aa8c4	-0.27081883
199	0xbdd1e318	-0.10248393
200	0x3c2d105b	0.0105629815
201	0xbe946b6f	-0.28988215
202	0xbc41c5e1	-0.011826963
203	0x3db62deb	0.08895477
204	0x3da68dd6	0.08132522
205	0x3ef8f57c	0.4862479
206	0x3dbd8685	0.09254173
207	0x3c111a21	0.008856327
208	0x3e9eae3f	0.30992314
209	0xbeb1fdeb	-0.34764037
210	0xbe48be9f	-0.19603966
211	0xbe9c3fd8	-0.3051746
212	0x3e89542a	0.26822025
213	0xbe2a9509	-0.16658415
214	0x3ed893eb	0.42300352
215	0x3bbd3f80	0.005775392
216	0xbe580756	-0.21096548
217	0x3bccf71e	0.0062550446
218	0x3cc6bd1c	0.024260096
219	0xbe8f4da5	-0.27988926
220	0x3d532202	0.051546104
221	0x3eb72d58	0.35776782
222	0xbe821a85	-0.25410858
223	0xbc88040f	-0.016603498
224	0x3cd99848	0.026561871
225	0x3da7f01f	0.08200096
226	0xbda026cd	-0.07819901
227	0xbd733184	-0.059373394
228	0xbe74ee7a	-0.23919097
229	0x3dc7a52b	0.097483
230	0x3d5c5ae7	0.05379763
231	0xbd55f383	-0.052234184
232	0x3da8a0b0	0.08233774
233	0x3f064347	0.5244641
234	0x3d637133	0.055527877
235	0xbd4a57e1	-0.049400214
236	0xbe2b733b	-0.16743176
237	0x3d9b6c06	0.07588963
238	0xbe84d3a2	-0.25942713
239	0x3dfe5b19	0.12419719
240	0x3dc01ec9	0.09380872
241	0x3ebc5f32	0.36791378
242	0xbeb9444f	-0.36184928
243	0x3e3a62e6	0.1820179
244	0xbce3f78d	-0.027828002
245	0x3e824e60	0.2545042
246	0x3e5ff58c	0.21871012
247	0xbdb8ed60	-0.09029651
248	0xbe787315	-0.2426265
249	0xbdc95ff4	-0.09832755
250	0x3ea76a4d	0.3269829
251	0xbe9ad99f	-0.30244157
252	0xbeb271ab	-0.34852347
253	0x3e9383db	0.28811535
254	0x3d0c7b86	0.03429749
255	0xbc55b902	-0.013044598
