results/Log_11011055/kernel_points/epoch53/layer_1_resnetb_0_conv1.npy (npy, 32896 bytes, 1 tensors)

array f4 [128, 64]
000000 8d ac 2f 3f fa 17 af 3f 7a 14 b8 3d 7a 6c 27 3e
       0.68622667 1.3679192 0.089882806 0.16349974
000010 05 7f 0d 3f b7 2c 61 3e 00 de 9b bd c4 8f 99 be
       0.5527194 0.21989714 -0.076107025 -0.29992497
000020 38 80 27 be 89 2b be be 54 ef c9 3d 4a 0a d2 bd
       -0.16357505 -0.3714259 0.09860101 -0.10255869
000030 87 f2 ac 3e 2d 2b 05 be d4 53 8c 3d 35 ed b9 3e
       0.33778784 -0.13004752 0.068519264 0.36313787
000040 e5 87 04 3e b4 42 ad 3d c4 3e 82 3f 48 2d 48 bf
       0.12942465 0.08459988 1.0175405 -0.78194094
000050 0b 6f 31 bd fa fa 29 be 3f 85 61 be 97 33 3b 3f
       -0.04331879 -0.16599646 -0.22023486 0.73125595
000060 7b e8 10 3e 2e f0 8b bf 75 85 9b bf 9c 8d 54 3f
       0.14151184 -1.0932672 -1.2150103 0.8302858
000070 b7 4e 89 3e 51 75 fa 3d 4f 40 fd 3f b1 35 4c 3e
       0.26817867 0.122294076 1.978525 0.19942357
000080 c2 24 28 3d e0 e3 be be 9f 31 3c bf db 7a a5 3f
       0.04105068 -0.3728323 -0.73513216 1.2928118
000090 40 7f 99 3e 7c 61 8b 3c b3 39 1b be 1a d9 66 3e
       0.29979897 0.017014258 -0.1515873 0.22543755
0000a0 ba bd 0b bc c2 c9 aa 3e 8b 54 83 3c c7 a6 a1 be
       -0.008529121 0.33357054 0.016031524 -0.31572554
0000b0 a4 3d c0 be 7d 26 b6 be 3f c6 dc bd bf e9 2f bf
       -0.37547028 -0.3557624 -0.1078 -0.68716043
0000c0 e5 c7 71 bd 67 b0 eb 3e 01 92 5a 3f a4 aa 28 3e
       -0.059028525 0.46033022 0.85379034 0.16471344
0000d0 58 02 7f 3f 7b 01 fd 3c ca 5b d3 3d 19 61 e6 3e
       0.9961295 0.030884495 0.10320242 0.44995955
0000e0 57 ff 48 3e 67 48 60 bd 64 70 e5 3f c9 65 c5 bd
       0.19628654 -0.05475655 1.7924924 -0.096385546
0000f0 c2 76 b9 3e f2 74 66 3f 4b b6 b5 3d 00 27 87 be
       0.36223418 0.90022194 0.0887266 -0.26396942
000100 b4 dc 7a bf bd 45 a3 3f a1 11 1a 3e 35 80 42 be
       -0.97993016 1.2755657 0.15045787 -0.1899422
000110 06 5a a6 bd 7d 02 72 be d9 e8 ac bf 76 fd 6f 3e
       -0.08122639 -0.23633762 -1.350856 0.23436531
000120 8f 40 1d be 05 07 0a bf b2 d0 a4 3f 72 c0 08 bf
       -0.15356658 -0.5391696 1.2876189 -0.5341865
000130 2f fe 03 3e d7 1c c1 3c 0e 0a 2d 3f 91 e5 81 3e
       0.12889932 0.023573322 0.6759347 0.25370458
000140 68 e0 6e bd b0 66 1a be 36 63 83 3f 53 05 0e bf
       -0.05831948 -0.15078235 1.0264652 -0.55476874
000150 69 6f 86 3e f1 a7 bf be a7 24 d3 3c c4 27 e8 3f
       0.26256874 -0.37432817 0.025774313 1.8137136
000160 a0 95 aa be f7 72 3d be 64 5e 56 bd ae 72 34 be
       -0.3331728 -0.18500887 -0.05233611 -0.17621872
000170 03 11 12 3d bc 20 8f 3e 8f 96 d7 3d 3f 13 8a 3f
       0.035660755 0.27954662 0.10526764 1.0787123
000180 ad 0c f4 be c1 53 58 be 8e 80 f7 be cd b4 5e 3f
       -0.4766592 -0.211257 -0.48340267 0.8699463
000190 e8 90 43 3e 62 ae 4c 3f 7f 5e ab bd c5 db 64 3f
       0.19098246 0.7995359 -0.08367633 0.8939784
0001a0 ea 36 ce bd 47 10 4b 3e 56 2f 1c 3e 04 c9 06 bd
       -0.10069068 0.19830428 0.15252432 -0.032906547
0001b0 59 72 1e 3f e7 a0 2f be b4 d7 80 3e 1a e2 e3 be
       0.6189323 -0.17151223 0.25164568 -0.4450844
0001c0 c4 cb d8 be 1a 8d 68 3e 9e 86 18 bf 5f f6 93 3e
       -0.4234296 0.22710076 -0.5958041 0.28898904
0001d0 68 26 2b 3f 3f 30 59 be 1f 15 0c 3f 20 b8 3a bf
       0.6685548 -0.2120981 0.5471973 -0.729372
0001e0 60 13 1a bf 74 70 ce 3d 07 bf e5 be 9b db 52 3e
       -0.60185814 0.100800425 -0.44872305 0.20591585
0001f0 08 c2 3f be 47 d4 0a c0 67 ad d4 3d 51 0f 14 3f
       -0.18726361 -2.1692064 0.10384636 0.5783587
000200 20 c9 94 be b5 ab d7 3e e8 88 87 3c 9a 12 b6 be
       -0.29059696 0.4212319 0.016544774 -0.35561067
000210 86 f0 46 3f 5d 26 96 3e 5a 20 36 3f b3 c8 bd be
       0.7771076 0.29326144 0.71143115 -0.37067184
000220 01 b3 07 3e 34 8b 0a bd 2d ac 9e 3d 5a 85 0e 3f
       0.13251878 -0.03382416 0.07747684 0.5567223
000230 ed bb b8 bd 6b 86 22 be 1f dd 27 3d 3f 49 1b bf
       -0.09020219 -0.15871589 0.040982362 -0.6065864
000240 55 87 8b bd 39 e0 e8 3e 4b 5d c5 3e fd 95 21 bf
       -0.06812922 0.45483568 0.3854774 -0.6311949
000250 5a c0 53 3e ed 0b fa 3d 87 3d 19 3e ce 48 9b be
       0.20678845 0.12209306 0.14964877 -0.30328983
000260 bd ce 0c bd 97 5a 38 bf 69 e8 8f bf 82 1c 57 3e
       -0.03437685 -0.7201323 -1.1242801 0.21006969
000270 3b 27 b0 3d b2 0c f0 be b1 42 c2 3f 42 5d 28 3f
       0.086012326 -0.46884686 1.5176603 0.657673
000280 e2 04 48 3d ae f7 1f 3e 93 e2 56 bf 3e 2d 87 3f
       0.04883278 0.15621826 -0.83939475 1.0560682
000290 ab 6c 8b 3e 25 93 b8 bd ed c8 6c be a7 61 29 3f
       0.27231345 -0.090124406 -0.23123522 0.6616463
0002a0 e5 e4 b8 ba ff d4 8f 3e ef 29 fa bd f3 be 44 3c
       -0.0014106302 0.2809219 -0.122150294 0.0120084165
0002b0 84 ce bb 3d 8c d6 2e 3e ea ad b3 be 23 c3 c8 be
       0.09170249 0.1707403 -0.35093623 -0.39211378
0002c0 85 1b 8b be df 1a 15 3f 3d 41 05 3f 28 d7 36 3e
       -0.27169433 0.5824413 0.5205267 0.17855513
0002d0 7e 92 8f 3f ae 9b 8b 3e bb 93 e1 3d 4c dd c6 bd
       1.1216581 0.27267212 0.110145055 -0.09710178
0002e0 5a 6f 66 bc 8f bd 49 3e 21 1e bc 3f 48 c3 6c 3d
       -0.014064634 0.19701217 1.4696695 0.057803422
0002f0 1c 6a f8 3d 67 4e 47 3f e3 d7 df 3e 42 43 1e bf
       0.12129614 0.7785401 0.43719396 -0.6182138
000300 01 cd dd 3d 40 20 90 be 50 5d a8 bd 99 8d af be
       0.10830117 -0.28149605 -0.08220923 -0.34287718
000310 87 bf 2e 3f bc 08 40 3e 54 0b ad 3f 99 78 35 be
       0.68261 0.18753332 1.3519082 -0.17721786
000320 1f 98 1a 3f 5d 5a 1e 3d d3 cb 5a 3e 73 e7 96 3d
       0.6038837 0.038660396 0.21366815 0.07368364
000330 8b 2a 8c 3e a6 b4 99 bd bf e9 b3 3e 47 ba 08 be
       0.27376208 -0.07505159 0.35139272 -0.13352309
000340 d9 52 b7 bd 44 eb 4d be 9f ad 2e bf 78 e4 3c bf
       -0.08951349 -0.20109278 -0.68233675 -0.73786116
000350 41 7a b2 bd 0c db 97 3d b9 5e 75 be bc ad ce be
       -0.08714724 0.07414827 -0.23961915 -0.40366924
000360 72 ff 96 be 08 a9 0e bf 8e f3 eb be a8 42 c2 3e
       -0.29491764 -0.5572667 -0.46084255 0.3794148
000370 11 7c 7d 3d 3a 69 c1 3e c5 d5 b2 3f 00 87 26 3f
       0.061885897 0.37775594 1.3971487 0.65049744
000380 d0 ed ae 3e a5 bb 04 3d 49 98 23 bf ac dc 43 3f
       0.34165812 0.032405514 -0.63904244 0.76508594
000390 e9 1e 0b 3e 24 7e d1 3d 88 98 ca be 62 db 9c 3d
       0.1358601 0.102291375 -0.39569497 0.076590315
0003a0 86 b9 3d 3d 62 67 c5 3e 12 1a 83 be e8 ee 14 be
       0.046319507 0.38555437 -0.25605828 -0.1454426
0003b0 c8 55 18 be 8a 9f f8 bd 71 7c 9a be 30 eb 54 be
       -0.14876473 -0.12139805 -0.30173066 -0.20792842
0003c0 4f ab 26 bd 45 0f 84 3d 02 36 9a 3d 34 76 0c 3e
       -0.040690716 0.06448225 0.075298324 0.13716966
0003d0 15 62 71 3f 90 21 ed bc dd eb cd 3e 87 5c 10 3f
       0.94290286 -0.028946668 0.40219012 0.56391186
0003e0 c8 ad 34 be 91 72 97 bd 43 9d 24 3f 04 0e 9e bd
       -0.17644417 -0.07394899 0.6430246 -0.07717517
0003f0 65 ad da be 55 bd 34 3e c1 f2 8d 3d e4 a2 f5 3d
       -0.42710415 0.1765035 0.06931067 0.119939595
