results/Log_11011055/kernel_points/epoch53/uplayer_0_unary_0.npy (npy, 65664 bytes, 1 tensors)

array f4 [256, 64]
000000 ad 0e 19 bf 4e 46 35 be d8 f2 ad 3f a4 d5 44 bf
       -0.5978802 -0.177026 1.3589735 -0.7688849
000010 6a bb d6 be 3f b8 e1 3a 89 2e 1f 3e a5 26 b5 be
       -0.4193986 0.0017221047 0.15545096 -0.35381046
000020 52 55 b4 3f 50 3c be 3e 3d 7c e4 3e b2 eb 9f bf
       1.4088538 0.3715539 0.44626036 -1.2493804
000030 88 52 10 bf 27 9d ef be 46 6c f1 3d 65 65 f5 be
       -0.5637593 -0.46799585 0.1178823 -0.4792892
000040 ca 55 f6 be 26 eb 98 be cd 4d eb 3e e9 e4 dd bd
       -0.48112327 -0.29866904 0.45957795 -0.10834677
000050 68 d0 79 bf 04 7c 81 be fd e1 b4 be 03 6d e7 3f
       -0.9758363 -0.2528993 -0.35328665 1.8080143
000060 3d 0c ae 3e c6 64 86 bf de 89 f3 3d c4 4b ea 3e
       0.33993712 -1.0499504 0.118915305 0.4576093
000070 a8 b9 22 bf a3 07 7b bd d0 3d aa 3e 87 ad 04 40
       -0.6356454 -0.06128658 0.33250284 2.0730913
000080 23 f4 81 bf d1 34 8b 3e ab 5c 7a bf f0 6b 56 be
       -1.015263 0.27188733 -0.9779765 -0.20939612
000090 12 88 17 3f ff fe 59 3e a2 e8 45 be 7c a1 56 3c
       0.59192 0.2128868 -0.19327024 0.013100024
0000a0 71 02 43 bf 36 b1 09 3f 9e 69 5a be 0b 64 a5 3d
       -0.761756 0.5378603 -0.21329352 0.08075722
0000b0 df 70 2c bf 5f 29 96 3e 97 5e 04 bd 5e 68 b8 3e
       -0.6735973 0.2932844 -0.03231677 0.36017126
0000c0 91 69 b7 3e ca 5d e2 3c e9 93 86 3c 9d 53 35 3f
       0.35822728 0.027632613 0.016427951 0.7083071
0000d0 d6 07 3b be fb f3 0b bf 6d 04 fc bb 5d e8 42 bf
       -0.18264708 -0.5466916 -0.0076909573 -0.7613581
0000e0 e8 33 51 bf af 17 c3 bd dd 25 be be 03 02 76 be
       -0.8171983 -0.09526002 -0.37138262 -0.24024205
0000f0 de 78 63 bf f2 7e 05 bf ec 15 06 3f 80 3c eb 3d
       -0.88856304 -0.5214683 0.523772 0.11486149
000100 b1 43 6e bd 3a 9d 13 bf 71 b4 f0 3e bc 1b 32 3f
       -0.058170024 -0.57661784 0.47012666 0.6957357
000110 64 46 31 be 06 d5 74 3c 85 2f b5 be d3 03 63 bf
       -0.17312008 0.014943367 -0.35387817 -0.8867771
000120 ba fc d5 3e 65 53 48 3e a0 66 6b 3f 0f 8b 93 3e
       0.41794378 0.19563062 0.9195347 0.2881703
000130 90 ea 3c bf 87 1f b2 be 65 40 0c 3f de 74 31 3e
       -0.73795414 -0.34789678 0.5478576 0.17329738
000140 47 97 c9 3e ac 9a 0c be 50 ea 65 3f 87 b2 04 be
       0.39373228 -0.13730878 0.8981066 -0.12958728
000150 3a e6 2e 3e 0a c4 05 3e f7 bc 0b be 69 f9 1d 3f
       0.17080012 0.13063064 -0.13646303 0.61708695
000160 30 d8 59 3e b7 8c 77 be 72 46 75 3d 83 63 d2 be
       0.21273875 -0.24174772 0.059881635 -0.41091546
000170 ca 2c f7 3e 01 93 fd be 32 fd 41 3e 7e 47 2f bf
       0.4827636 -0.49526218 0.18944243 -0.68468463
000180 8c 91 ca be 27 e9 a6 3d 0d 7d 07 3c 2a c8 d6 be
       -0.39564168 0.08149939 0.0082695605 -0.41949588
000190 58 f8 55 3e 7c 44 31 3f 8d a4 40 3e 94 09 d2 3d
       0.20895517 0.69245124 0.18812771 0.10255733
0001a0 ba b6 02 40 4f a8 af 3e a7 27 f3 3d a2 76 9a 3f
       2.0424027 0.34308097 0.118727975 1.2067454
0001b0 01 d6 44 bf 84 a7 90 bf 2b d6 8e bf 41 63 04 3f
       -0.76889044 -1.1301122 -1.1159109 0.5171395
0001c0 53 cc 3e bf 83 85 b1 3e 91 ec 96 3d ef da 5b bf
       -0.74530524 0.34672174 0.0736934 -0.8588094
0001d0 24 19 02 3e 1d 7d e5 bc 5f d3 3f bd 65 52 53 3f
       0.12704903 -0.02801376 -0.04683244 0.825476
0001e0 84 96 05 bf 7d 18 7c 3f de 0c 2c bf c0 fc 1a 3f
       -0.52182794 0.98474866 -0.67207134 0.60541916
0001f0 d8 f4 2b bf 0d 16 e0 3d 6b 98 37 3e d3 03 cc 3e
       -0.67170477 0.10941706 0.17929237 0.39846668
000200 c8 50 80 bf 9d e6 9a be aa 9e 99 be 31 bf 1d 3f
       -1.0024652 -0.3025407 -0.30003864 0.6161986
000210 a5 6f d9 be 1d 28 8a be bb b9 72 be d2 8d 1a bd
       -0.4246799 -0.2698373 -0.23703663 -0.037732907
000220 90 0f d9 be a9 43 3f 3f 54 a7 2c 3e ac de 67 3f
       -0.42394686 0.74712616 0.16860706 0.90574145
000230 fb fc e8 be 3a 59 71 be cf ef ef 3e 3d 89 c3 be
       -0.4550551 -0.23569193 0.46862647 -0.38190642
000240 64 1e a6 bf 09 9d b0 3e 63 40 5c be f8 c7 20 bf
       -1.2978024 0.34494808 -0.21508937 -0.6280513
000250 3d 1e 09 bf 17 a5 6b 3e b1 77 68 bd c8 d8 d6 3e
       -0.53561765 0.23012196 -0.05675477 0.41962266
000260 54 cf e9 be dc 95 c7 3e 70 6e b9 3d aa 5a 3d 3f
       -0.4566599 0.3898152 0.090542674 0.7396647
000270 80 6d d2 3e 9f 51 5d 3f d9 38 73 3d a2 5e 31 3f
       0.41099167 0.8645267 0.059380386 0.69285023
000280 42 cb e9 3e b3 e0 03 bf 01 d7 26 3f f0 b9 0b 3f
       0.45662886 -0.5151474 0.6517182 0.54580593
000290 1b 7d aa be 5c f6 59 3e 2f 47 8f bc 5a d2 f9 be
       -0.33298573 0.21285385 -0.017489998 -0.48793298
0002a0 5d e7 a7 3f fa 2c 07 3f e5 d4 bf be 42 a4 ff 3e
       1.3117481 0.52803004 -0.37467113 0.49930006
0002b0 2a 52 85 3e 06 24 ac bf 94 8c 16 3f 55 be 25 bf
       0.2603925 -1.3448493 0.58808255 -0.6474355
0002c0 69 b6 ed 3e 51 6e 7d be 34 90 24 bd 11 71 fb 3e
       0.4642823 -0.24749114 -0.040176585 0.491097
0002d0 53 87 40 3f ef 7e 6d 3f 30 db ba 3c ff 08 c7 3e
       0.7520649 0.9277181 0.022809595 0.3887405
0002e0 3c 53 bc be 67 7c 9d bf 5d d2 10 3f 73 f7 30 3f
       -0.36782253 -1.230359 0.5657099 0.6912758
0002f0 e9 83 30 3b f0 32 bf 3e 81 62 39 bf 7d ee 46 3d
       0.0026934093 0.3734355 -0.7241593 0.048567284
000300 68 4d 3a bd ab e0 30 3e b3 3e 4f 3e 06 83 be be
       -0.045483977 0.17273204 0.20238762 -0.37209338
000310 0d 33 86 be 38 a0 96 be ee a6 59 bf b6 89 25 3f
       -0.26210824 -0.29419112 -0.8502034 0.64663255
000320 84 8b 83 3f e8 5e 07 3e 48 0a 04 bf 9b 54 46 be
       1.0276952 0.13219798 -0.5157819 -0.19368212
000330 81 65 01 3f ec 65 9a 3d 49 18 3c bf a8 46 61 3e
       0.5054551 0.07538971 -0.73474556 0.2199961
000340 11 18 6c bf f7 5e 33 be 3a 16 3e be 21 e8 42 be
       -0.9222422 -0.17516695 -0.18563166 -0.19033863
000350 81 0b 86 bd 7d c6 81 bc b6 77 15 3f c4 e0 08 40
       -0.06545163 -0.015841717 0.5838579 2.1387186
000360 1b 07 0e 3f 64 c4 51 bf ee 05 c2 bd 09 0f 40 bf
       0.5547959 -0.81940293 -0.09473787 -0.7502294
000370 76 b5 c6 3e 7a ae 86 bd cd 97 4e bf d2 06 a2 3d
       0.3881032 -0.065762475 -0.8070038 0.07911457
000380 f1 0f b7 3d c9 a9 10 3e 72 e4 28 bd f7 f2 b3 3f
       0.089385875 0.14127268 -0.041233487 1.4058522
000390 66 f2 93 be 99 ec a3 3e cc 33 68 be 5a f6 fa bd
       -0.28895873 0.32016447 -0.22676009 -0.12254019
0003a0 ad 66 9a 3f 26 fa 8d bf ab db e1 bf 3f ed 50 3e
       1.2062584 -1.1091964 -1.7645162 0.20403002
0003b0 ec 09 67 be 3c 52 33 bf 68 2b d0 3f 0f 1b 4b 3f
       -0.22562379 -0.70047355 1.6263247 0.79338163
0003c0 e5 2c 27 3f 3d 51 e0 be 17 d3 3b 3d 1d 18 45 3f
       0.6530288 -0.4381198 0.045855608 0.7698992
0003d0 22 4d e6 be 19 60 b6 3e 46 e3 50 be 66 0b 73 be
       -0.44980723 0.35620192 -0.20399198 -0.23734817
0003e0 ca b3 28 bd 61 eb a6 be 48 c9 e3 be 64 35 9a 3e
       -0.041187085 -0.32601455 -0.44489503 0.3011886
0003f0 b1 33 04 3e 40 62 03 bf 01 0c 9d bc 2d bc cb 3d
       0.12910344 -0.5132179 -0.019170763 0.09948001
