results/Log_11011055/kernel_points/epoch53/uplayer_0_last_unary_1.npy (npy, 8320 bytes, 1 tensors)

array f4 [64, 32]
-0.29798493 1.5868112 -1.1555125 -0.40178424 1.3850828 1.2317955 -1.8318857 -1.6215076
-0.033004593 1.3200613 1.2094883 0.48295784 -0.83280295 0.2811796 -0.26546597 -0.77647805
-0.114629485 0.5395747 -1.3630686 1.4281952 -0.85786045 -0.654016 0.115426615 0.11169805
1.1920897 0.86103356 -1.9147078 -1.3267686 -0.58851594 2.4669719 0.93323874 1.1388463
-0.052450515 -0.10784574 -0.15667412 0.17425503 0.44136292 0.2638661 -0.1154515 0.21502703
0.51588583 0.01287846 0.08996436 -0.17847908 -0.21786922 0.38334197 -0.37053022 -0.049689416
-0.05504294 0.2058787 1.2499951 0.16430686 -0.06936936 0.10013495 0.39027208 0.1099996
0.26287097 -0.016939543 0.09416881 0.07548206 -5.728359 0.10387678 -0.30304995 0.6602159
1.5052694 -0.7997639 -4.8724036 -0.50040746 -0.47692144 0.3363413 0.41290018 0.06905754
-0.27137703 0.26591793 0.16639285 -1.0055081 0.23647623 0.18537413 -0.09117792 -0.17852917
-0.8307095 0.76090086 1.0143281 0.03688629 0.16963708 -0.43849114 -0.014004453 0.7490515
0.1753694 -0.17672837 -0.23705406 0.13204381 -0.07805596 0.857858 1.0967778 -0.509335
0.79314154 -0.14286877 -0.6129642 1.1547769 -0.38350064 -0.3142939 1.4472417 0.03520595
-0.2298994 -1.1903914 0.5292456 -1.310123 0.8970464 -0.7403966 -0.2685907 -1.6793967
-1.3367615 -0.7222804 0.058684766 -1.0214297 2.7217565 -0.4972775 -0.31630147 -1.2712146
-0.99797285 -0.54467034 0.41409838 0.239639 -0.8590375 0.58988935 0.37729594 -2.3550432
-2.5442913 1.7668673 -0.5385765 -3.9003706 0.029570673 -0.22159125 0.017293287 0.21007712
0.5437566 -0.8561033 -0.29470176 0.085262224 1.31584 -0.4197362 -0.4943381 1.2599945
0.67786497 -0.9936435 -0.9270214 0.23377836 1.7246368 -0.25823075 0.3029633 0.5415304
-0.32631728 -0.79422766 1.5200748 -0.83389276 0.2334209 -0.41760918 -0.71600735 -0.35884586
0.27176374 0.26442778 1.5277348 0.1323169 -0.5903751 -0.43712905 -0.44560432 -0.88290286
0.4005877 -0.18746929 0.6125405 0.5689267 0.15123637 -0.59761083 0.41843528 0.1608862
0.3141773 0.03692117 0.6836704 0.19058487 0.62533456 1.0431422 -1.1486602 0.09095508
-0.7493547 -4.4799724 -0.8318427 0.54486334 0.36106187 0.33408445 -0.2041035 -1.7992866
-0.08627365 -0.33015302 0.038582847 -0.5077825 -0.31870908 -0.19682169 -0.4746043 -0.24161696
-0.46072695 -0.84414494 -0.8850547 0.49525577 0.47996044 0.38066497 -0.015311954 -0.27672523
-1.0377154 -1.0935827 -0.20895785 -1.1913675 0.3933321 -1.5052655 -0.27552295 0.55264693
-0.0781617 -0.05065063 0.98635197 0.5020507 0.69062686 -0.49820468 0.27312642 1.8740114
-2.1233656 -1.2167956 0.4530993 0.061963562 0.18561421 0.67744076 0.51819134 -0.3495787
1.0206983 -2.0669904 -1.7288109 2.3920374 -0.35225767 -0.11413612 -0.48069188 -2.2647228
1.3019084 0.5107468 -1.6804187 -0.48113555 -0.76913583 0.49497414 0.42247918 -0.09423646
-1.287065 -0.09084371 -0.76326287 1.6582594 -0.64454955 -0.4883038 -0.56361216 0.47180426
00000000: 7b91 98be a11c cb3f d5e7 93bf aab6 cdbe
00000010: 654a b13f 7aab 9d3f 3b7b eabf 908d cfbf
00000020: d32f 07bd c5f7 a83f 83d0 9a3f 4046 f73e
00000030: 9332 55bf c6f6 8f3e 28eb 87be 44c7 46bf
00000040: ddc2 eabd 9121 0a3f 0879 aebf 1acf b63f
00000050: be9c 5bbf 986d 27bf ca64 ec3d f2c1 e43d
00000060: 6596 983f b26c 5c3f 2515 f5bf 8ed3 a9bf
00000070: fba8 16bf dee2 1d40 bce8 6e3f b7c5 913f
00000080: 5ad6 56bd 3ade dcbd 2e6f 20be e96f 323e
00000090: 52fa e13e 7519 873e d671 ecbd 0c30 5c3e
000000a0: 1811 043f 2d00 533c 3c3f b83d 38c3 36be
000000b0: 1c19 5fbe 6645 c43e 23b6 bdbe 2187 4bbd
000000c0: b574 61bd ded1 523e d7ff 9f3f 0f40 283e
000000d0: 8611 8ebd 8d13 cd3d bed1 c73e 7847 e13d
000000e0: 0697 863e ccc4 8abc 94db c03d 5796 9a3d
000000f0: b84e b7c0 59bd d43d 5d29 9bbe e903 293f
00000100: abac c03f 54bd 4cbf bbea 9bc0 b41a 00bf
00000110: 0c2f f4be ed34 ac3e a767 d33e 0a6e 8d3d
00000120: eef1 8abe 6526 883e e362 2a3e 7db4 80bf
00000130: d326 723e b7d2 3d3e 7dbb babd 5ad0 36be
00000140: 61a9 54bf 66ca 423f 81d5 813f 1416 173d
00000150: 58b5 2d3e e981 e0be ef72 65bc d7c1 3f3f
00000160: 0994 333e 48f8 34be 4dbe 72be 7e36 073e
00000170: cedb 9fbd 959c 5b3f 3763 8c3f c763 02bf
00000180: 530b 4b3f 314c 12be 39eb 1cbf bbcf 933f
00000190: 325a c4be 21eb a0be 373f b93f 1d34 103d
000001a0: c06a 6bbe bf5e 98bf a47c 073f 1cb2 a7bf
000001b0: d5a4 653f a28a 3dbf b884 89be 79f6 d6bf
000001c0: 001b abbf 5ee7 38bf 705f 703d 35be 82bf
000001d0: 4231 2e40 289b febe 44f2 a1be 29b7 a2bf
000001e0: 267b 7fbf 846f 0bbf b404 d43e ed63 753e
000001f0: e2e9 5bbf fd02 173f ef2c c13e 07b9 16c0
00000200: abd5 22c0 b528 e23f 26e0 09bf ac9f 79c0
00000210: 323e f23c d1e8 62be a7aa 8d3c 751e 573e
00000220: a233 0b3f 9629 5bbf 26e3 96be f69d ae3d
00000230: 726d a83f aae7 d6be e219 fdbe 8047 a13f
00000240: 8f88 2d3f 6c5f 7ebf 4651 6dbf 9863 6f3e
00000250: e6c0 dc3f d236 84be 011e 9b3e bca1 0a3f
00000260: 0f13 a7be 8152 4bbf d091 c23f ff79 55bf
00000270: e305 6f3e dfd0 d5be 424c 37bf a5ba b7be
00000280: 9e24 8b3e 1463 873e d08c c33f 157e 073e
00000290: d322 17bf 61cf dfbe 4026 e4be ec05 62bf
000002a0: d519 cd3e f3f7 3fbe 74cf 1c3f 2ea5 113f
000002b0: b5dd 1a3e 06fd 18bf 263d d63e 5abf 243e
000002c0: d9db a03e a73a 173d 0605 2f3f ae28 433e
000002d0: ed15 203f af85 853f 4c07 93bf a846 ba3d
000002e0: b6d5 3fbf ef5b 8fc0 a5f3 54bf 2a7c 0b3f
000002f0: 1add b83e 1e0d ab3e 8200 51be 064f e6bf
00000300: 3db0 b0bd d109 a9be 0c09 1e3d 09fe 01bf
00000310: d62d a3be a08b 49be 56ff f2be 706a 77be
00000320: 67e4 ebbe e219 58bf f292 62bf 2a92 fd3e
00000330: 60bd f53e 85e6 c23e fdde 7abc eeae 8dbe
00000340: dcd3 84bf 85fa 8bbf 0cf9 55be bb7e 98bf
00000350: d362 c93e 8aac c0bf 5811 8dbe 457a 0d3f
00000360: 3e13 a0bd 0977 4fbd 9081 7c3f 6586 003f
00000370: eccc 303f af14 ffbe 3ad7 8b3e 9bdf ef3f
00000380: 39e5 07c0 f5bf 9bbf a2fc e73e 81cd 7d3d
00000390: a711 3e3e c26c 2d3f 30a8 043f fbfb b2be
000003a0: 3ea6 823f 9249 04c0 ad49 ddbf 2417 1940
000003b0: 1e5b b4be 33c0 e9bd 3f1d f6be 38f1 10c0
000003c0: efa4 a63f 4dc0 023f f617 d7bf 6657 f6be
000003d0: 16e6 44bf 406d fd3e 314f d83e 0cff c0bd
000003e0: 8cbe a4bf 440c babd 3265 43bf d841 d43f
000003f0: 3301 25bf f502 fabe e348 10bf 5490 f13e
