results/Log_11011055/kernel_points/epoch53/uplayer_1_unary_0.npy (npy, 262272 bytes, 1 tensors)

array f4 [512, 128]
00000000: 9f32 47bf a648 4f3e 30a7 a5be 088b e2be
00000010: 97bb aabd e29d e93e 879e 2d3e 4017 d3be
00000020: 876a a2bd b07e 59bc d53d 4d3c e128 b83d
00000030: ce32 59be a364 4cbd 80b9 52be 420a a23e
00000040: 722f 953d 8046 7ab9 06a4 033d afb6 ce3d
00000050: 0295 abbd babf 56be 483a 3b3e 1272 84be
00000060: 128c b53e f51d abbe 503e 343e ea8c 0ebe
00000070: fbdd c9be e3ed 0abe 1ee7 45be 4d36 583e
00000080: cf4f 193f bcdf 153f 966e 93bd 1bf6 21bf
00000090: 1c0f afbe e6d6 a8be ce14 4cbd f6c6 953c
000000a0: 9490 7bbe 97b1 523e f29e 053e b8cf 8dbe
000000b0: a398 bc3d c02a c1be a8f1 2f3d 584b 52bd
000000c0: 6931 de3c 0c38 e8bc 7486 103e 5c1d bf3c
000000d0: 292d 643e d736 213d 7f5a cebe 45f2 913c
000000e0: 9532 a63e 55d5 86bd a942 bb3e 4cad ac3d
000000f0: ec35 2fbd 10d5 c9bd cbbc 0fbf 56d5 67be
00000100: 567c 30bd 1872 693e bf83 1dbf 8c36 10be
00000110: eaf2 983c 571a 44be 7b87 d53c 5d88 433e
00000120: 164a dcbe 6193 c9bd 03bf de3b 2e92 433e
00000130: 94e7 403e d94b b23e 3ccb c5be b5f7 6cbe
00000140: 8d1d 43be a394 383d 5c43 073f b253 a83e
00000150: d882 27be c250 803e 7399 05bf a021 3f3c
00000160: 4bfc 0bbf 6ba6 453e 4dfb 06bf b52a 83be
00000170: 49b8 43be 599e e5bd 487c 0cbe 3b0d e1bd
00000180: 5d94 dc3e 7cd4 f83d af0f 12bf 3aa0 2fbd
00000190: 3b8e 6cbe d958 dd3d 134c bdbe 4789 bc3d
000001a0: 7325 18be 055b 103e 72fe f83d 9244 c93d
000001b0: b4c8 a23e 386b 54be 5b7d 16bf 9e13 1fbe
000001c0: 81c7 bc3e c847 1f3e 4d62 2abe d4bc aebd
000001d0: 1573 18bf 747f 7cbe a000 1fbf cd89 debd
000001e0: 5f6d 23bf f826 0cbe d95c 44be 414b b8be
000001f0: 2049 b33d f97c 7b3e ac88 9dbd 8cb7 233e
00000200: 242b 393f 9f80 8f3e f1b5 1d3e 6868 aa3e
00000210: 0528 f73d 9110 90be e406 56bc 9746 81be
00000220: 9742 13bf 4b6c 02be b475 fc3d 4644 93be
00000230: 63f1 cbbd a3e7 2b3e 8f87 92be 10e6 483e
00000240: 6fb1 27be 7c92 52bd 2a51 163d 251b 25be
00000250: fd70 74bd 1e9f 483e ddbc 6dbe ae83 a03e
00000260: aa19 983d 1041 05be fc83 2abd 2a8c 8ebe
00000270: 79b5 90bd 91e5 20be bea3 30be 8c12 513e
00000280: d659 37bf 1d2e 7bbe 0855 80be 9460 edbd
00000290: 6fc3 16be 82a6 8e3e d95b 1f3e a21b 113e
000002a0: 8ec0 89be 4735 93be d6c0 b2be 6cd3 08be
000002b0: 92b7 31be 098d 58be b7d6 123e a858 7e3e
000002c0: 10b7 31be cc5f 8abd 501f a93c 17d7 423e
000002d0: 7964 b1be 868a be3d 0081 9fbe 244a 88be
000002e0: 7a00 423e c51e 2bbe 9dad 24bf a7ca f8be
000002f0: fa18 adbe c1cd 7e3c 6c42 053f 2b63 a7be
00000300: 375a cbbe dbb4 92bc a296 63be 7ec3 543e
00000310: 28c3 edbb 9515 68bc 352d 9ebe ce0b b8bd
00000320: 556c e0bd 6ab0 91be 0590 22bd fd31 b73e
00000330: 379b 9dbe 64ad 99bd c528 6dbe 731b d23d
00000340: dc32 d33e 9f37 173d 00fc f1be 02fb 86be
00000350: afb7 85bd 2886 d83c 4492 a1be 0fd0 9cbe
00000360: ea61 4f3d 81fb 5d3e 6cea 34be 08fb a6be
00000370: 8a1d 07bd 3a08 6fbd 4714 d63e 5b02 803e
00000380: 1e64 47be 3bb8 cabe 5ee1 be3c 4525 c7be
00000390: cc72 323d 584f 62be 65a0 b4be e062 1c3c
000003a0: 61fd 1dbe 1736 a0be b781 91bd 26c4 a7bc
000003b0: e2d3 4a3e da76 db3c 0008 363e 68e8 7bbe
000003c0: 71f8 64be be47 4fbe aa59 9abe 5a77 993d
000003d0: efeb 783e 9fd0 c7bd aa62 9a3c c41b 84be
000003e0: 1276 95bd 5b95 fbbd 0f80 e5be 289a c5be
000003f0: 6959 e0be e6c3 f4bd e216 85be f86f f43c
-0.77811617 0.20242557 -0.32354116 -0.44246697 -0.08336561 0.45628268 0.16955005 -0.41228676
-0.07930475 -0.013274834 0.012526949 0.08992172 -0.21210787 -0.049900662 -0.20578575 0.3164845
0.0728444 -0.00023868121 0.032138847 0.10093438 -0.0837803 -0.20971575 0.18283951 -0.2586828
0.35458428 -0.33421293 0.17601895 -0.13920942 -0.3942717 -0.13567309 -0.19326445 0.21114464
0.59887403 0.58544517 -0.07198827 -0.6326615 -0.34191215 -0.32976454 -0.04982453 0.018283349
-0.24566871 0.20575558 0.13048914 -0.2769754 0.09208801 -0.37727928 0.04295507 -0.051341385
0.02712317 -0.028347038 0.1411379 0.02332943 0.22282852 0.03935894 -0.40303418 0.017815718
0.32460466 -0.065836586 0.36574295 0.08431491 -0.042776033 -0.098550916 -0.5614745 -0.22639975
-0.043087326 0.2279743 -0.61529154 -0.14083308 0.018670518 -0.19150673 0.026065579 0.19094987
-0.43025273 -0.098425634 0.0067976727 0.19098732 0.1883834 0.34823492 -0.38631618 -0.23141368
-0.19054241 0.045063626 0.5283716 0.32876354 -0.16358507 0.25061613 -0.5218727 0.011665732
-0.54681844 0.19301765 -0.52727205 -0.2561852 -0.19113268 -0.11211843 -0.13719285 -0.10988852
0.43081942 0.12149903 -0.5705518 -0.042877413 -0.23101132 0.10807962 -0.36972103 0.09205871
-0.14858036 0.14097221 0.121579066 0.09827532 0.3179375 -0.20744026 -0.5878503 -0.15534827
0.3687096 0.15554726 -0.16639061 -0.0853211 -0.595506 -0.24657995 -0.6211033 -0.10866127
-0.6383876 -0.1368674 -0.19176044 -0.35994914 0.08754182 0.24559392 -0.07692084 0.15987986
0.7233145 0.28027818 0.15401436 0.3328278 0.1206818 -0.2813764 -0.013063166 -0.25249168
-0.57523483 -0.12736623 0.123271376 -0.28763026 -0.0995815 0.16787581 -0.28619048 0.19619012
-0.1637628 -0.05140923 0.036698498 -0.16123636 -0.059678067 0.19591948 -0.23216577 0.31350464
0.0742677 -0.130131 -0.041629776 -0.27841312 -0.07065863 -0.15712573 -0.17249963 0.20417231
-0.71621454 -0.2452931 -0.25064874 -0.115906864 -0.1472299 0.2786141 0.15562381 0.14170697
-0.2690472 -0.28751585 -0.34912747 -0.13361901 -0.17355183 -0.2114755 0.1433972 0.24838507
-0.17354989 -0.06756553 0.020644814 0.19027363 -0.34646967 0.09303765 -0.31153107 -0.26619065
0.18945494 -0.16710956 -0.6432741 -0.4859211 -0.33808118 0.015551985 0.52054477 -0.32692847
-0.39717266 -0.017908504 -0.2222543 0.207777 -0.0072559305 -0.014165302 -0.30893865 -0.089866266
-0.10958163 -0.28454906 -0.03968813 0.35780326 -0.30782482 -0.07503775 -0.23160084 0.10259142
0.4124974 0.03691828 -0.47262573 -0.2636338 -0.065291755 0.026431158 -0.31556904 -0.30627486
0.050630488 0.21677972 -0.1766755 -0.32613397 -0.032987155 -0.058357455 0.41812345 0.25001797
-0.19471785 -0.39593682 0.023300823 -0.38895622 0.04356651 -0.2210058 -0.3527862 0.009545058
-0.15428688 -0.31291267 -0.07104819 -0.020479273 0.1980739 0.026790071 0.1777649 -0.24600375
-0.22360398 -0.20242211 -0.30146533 0.07493468 0.24308752 -0.09756588 0.018845875 -0.25802433
-0.07297911 -0.12284347 -0.44824263 -0.38594174 -0.43818215 -0.11951427 -0.2599402 0.029838547
