results_kitti/Log_11011605/kernel_points/epoch61/layer_1_resnetb_0_conv2.npy (npy, 245888 bytes, 1 tensors)

array f4 [15, 64, 64]
000000 44 ba 58 bc 15 af 20 3d 01 a0 35 3e 48 bf 53 3e
       -0.013228003 0.03922947 0.17736818 0.20678437
000010 00 0e b0 3d b6 c4 af bc 6a 7f dc 3d 70 3a 54 be
       0.0859642 -0.021456104 0.1076649 -0.20725417
000020 e5 5e e5 3d 0a d8 57 be ad c3 d2 3d 10 15 39 bd
       0.1119974 -0.21078506 0.102912284 -0.045186102
000030 9b 44 6a 3d ec bd 76 be a2 6a d4 3d 9c 76 32 bc
       0.057194334 -0.24095887 0.10371901 -0.0108925365
000040 1d f8 1a 3e f2 e2 53 be 28 92 e8 3e 63 5f 89 3e
       0.1513371 -0.20692042 0.45424008 0.26830587
000050 8d 5e 39 be 15 9e 58 3d 16 6f 8f bd 50 9b d1 bc
       -0.18102475 0.052885134 -0.0700361 -0.025586754
000060 1d 13 17 3f 17 bc 36 be 68 06 80 3e 88 b5 b1 be
       0.5901354 -0.17845188 0.25004888 -0.3470881
000070 aa fa 29 bd e9 45 61 3e b6 88 ac bd c7 aa ee bc
       -0.041498818 0.21999325 -0.08424513 -0.029134167
000080 b9 9c 9a 3e 72 e7 41 3d 5f f6 dc 3d 5c cf 07 be
       0.30197695 0.047339864 0.10789179 -0.13262695
000090 fc 81 66 3e e4 00 2b be 45 de 2b 3e f5 40 fe bc
       0.22510523 -0.16699558 0.16784008 -0.031036833
0000a0 66 01 a6 bd 63 f6 31 3d e0 bb ab bd 66 00 a4 3e
       -0.081057355 0.043447863 -0.08385444 0.32031554
0000b0 0a e3 89 be 0e 99 50 3e da c9 ce bd 7f 3c 04 be
       -0.2693103 0.20370886 -0.10097094 -0.12913702
0000c0 2a bf c8 bd b4 66 8d 3e c7 0b d0 3d c9 ec 30 3e
       -0.09802087 0.2761742 0.10158496 0.17277826
0000d0 47 c4 ef bd 6b c6 2f be ac 06 41 be 89 fb 2a bd
       -0.11707359 -0.17165534 -0.18850201 -0.04174379
0000e0 35 3d df 3d c2 7b cb 3d 1d 30 8c 3c 43 a2 3b 3e
       0.10900346 0.09935714 0.017112786 0.18323617
0000f0 3d d2 95 3e b3 8f af be 48 c4 16 3e 42 67 a1 3e
       0.29261962 -0.3428932 0.14723313 0.31524092
000100 98 05 45 be 89 70 14 be 16 08 17 3e e2 81 2c 3e
       -0.19240415 -0.14496054 0.14749178 0.16846421
000110 08 29 6f 3e df ac 2a bd d1 02 8a be 56 ab fb be
       0.23355496 -0.04166877 -0.26955274 -0.49154156
000120 12 fd 20 be 50 3f 27 be ad 82 05 3d 1c 4a 21 3e
       -0.15721539 -0.16332746 0.032595325 0.15750927
000130 47 fa cd bd 55 25 bf 3d f1 8e 7e bd d4 9f 2c 3e
       -0.10057502 0.093332924 -0.06214804 0.16857845
000140 01 5b bd bd e0 a3 51 be cb 9b 1a 3e 1c 2a 87 be
       -0.09245873 -0.2047267 0.15098493 -0.26399314
000150 a8 64 9b be 98 ad 97 3d 07 f7 00 3e 58 9e ad 3e
       -0.30350232 0.07406157 0.12594233 0.3390987
000160 c7 dd 16 bb 96 45 34 3d e8 64 61 3e 76 29 ba 3e
       -0.0023020373 0.044011675 0.22011149 0.36359757
000170 2e b7 1b 3e d9 57 68 3e f7 46 ab 3e bd 22 5b 3e
       0.15206596 0.22689761 0.3345258 0.2139997
000180 28 c6 8d 3e 02 62 a6 bd 3b 2f 46 3d 21 b2 17 be
       0.27690244 -0.08124162 0.048384886 -0.14814045
000190 95 44 c9 bc 2f 0a bd 3e fc 23 f5 bd 10 1e 8d 3d
       -0.024568835 0.36921832 -0.11969754 0.068904996
0001a0 1b c0 ed bc 7e 50 4e be 5c 4b cd bd 39 cb ac 3c
       -0.029022267 -0.20147893 -0.10024139 0.021092998
0001b0 19 64 25 bd 35 3c 4b 3d 16 f8 b8 be 09 c8 6a 3e
       -0.040378664 0.049617965 -0.36126775 0.2292787
0001c0 41 85 ab 3e 7c 58 5c 3c f1 84 13 3e 68 09 a1 3d
       0.33500102 0.013448831 0.14406182 0.07863122
0001d0 9c b1 9f be f5 4c 06 be 71 70 48 3e 0c dd 7a 3e
       -0.31190193 -0.13115294 0.19574143 0.24498385
0001e0 1a 27 39 be 01 77 0d be bc cd 6f bc a0 b9 61 3e
       -0.18081322 -0.13814928 -0.014636453 0.22043467
0001f0 51 0e f7 3c d1 b1 8f be c1 fe 44 3e 78 f1 18 bf
       0.030158194 -0.2806535 0.19237806 -0.5974345
000200 92 17 c7 be e4 44 69 3b da 64 fd 3d b0 73 4f 3d
       -0.3888517 0.003559404 0.123727515 0.050647438
000210 5c c6 00 be 2f 74 ab 3c 86 8e 97 3d f7 b2 2a be
       -0.12575668 0.020929424 0.07400231 -0.16669832
000220 cf ca 36 be c3 b9 07 bd 59 72 7f be 1f 97 71 3d
       -0.17850803 -0.03313614 -0.24945964 0.05898201
000230 7b d5 26 3e a5 da 1c 3d 3f da 77 be 67 0a 56 3e
       0.16292374 0.038294453 -0.24204348 0.20902406
000240 6a 2a 9a bd 85 d6 d1 bd d8 e8 73 3e 43 35 93 3e
       -0.07527621 -0.102459945 0.23819292 0.28751573
000250 cf 6c 6a be 08 3b b0 bd 76 34 4a 3d 87 02 4c bd
       -0.2289307 -0.08605009 0.049366437 -0.049807098
000260 de c3 af 3e b2 34 16 3e a5 a5 6d bd 64 84 44 3e
       0.34329122 0.14668539 -0.0580193 0.19191128
000270 54 b8 68 bc 8e 7e 2b 3e 4d 19 2e 3c 28 80 2c 3e
       -0.0142041035 0.16747496 0.010626149 0.16845763
000280 0f 98 b4 bc f5 9a fd bd 9e a9 95 be c5 9b d5 bd
       -0.022045163 -0.12383071 -0.2923097 -0.10430101
000290 c4 ac d4 3c 61 70 bb 3b ff 30 73 be 40 1d a3 3d
       0.025961287 0.0057201837 -0.2374916 0.07964563
0002a0 5a 0a 3e 3e 2e 5a 19 bc bb fc 22 be 3c 69 9c bd
       0.18558636 -0.009359879 -0.15916722 -0.07637259
0002b0 46 f5 8f be ef 07 a8 3e 52 bc 2e 3c c2 7a d2 3e
       -0.28116816 0.32818553 0.010665016 0.41109282
0002c0 54 30 11 bd f8 f6 e1 bc 14 95 9e bd 71 db 7c be
       -0.03544648 -0.027583584 -0.07743278 -0.24693085
0002d0 e1 b3 a7 be fa 89 41 bd 6c c3 81 be 90 5a d1 bc
       -0.32754424 -0.047250725 -0.25344408 -0.025555879
0002e0 07 ce ae 3c 91 52 a2 be ca 20 e6 3a 72 af 6f 3e
       0.021338476 -0.31703618 0.0017557379 0.23406771
0002f0 54 95 e4 bd a2 d2 44 3d 82 ea 0b bc 51 c8 32 be
       -0.111612946 0.048052438 -0.008539798 -0.17459227
000300 1e 94 c1 bd d0 b5 11 3e 12 c3 ba bd fc e0 1a 3d
       -0.09452079 0.14229512 -0.09119238 0.037812218
000310 70 d4 b5 be a9 59 36 be f8 e2 44 3e d4 19 d8 be
       -0.3551364 -0.1780764 0.19227207 -0.42207205
000320 35 ee e6 3d 2e b7 84 be 81 fc ca bd da ef 7e bd
       0.11275903 -0.25921005 -0.099114425 -0.06224046
000330 bc 2c 3e bc c0 6d 11 3e a3 8d c1 3e d7 2e 6e bd
       -0.011607345 0.14202023 0.37803373 -0.05815014
000340 92 42 a3 be 84 cc 64 3e a7 87 0c 3d b3 57 e5 bd
       -0.31886727 0.22343642 0.034309056 -0.11198368
000350 d9 2b b3 3d 76 c4 82 bd 83 c1 30 3e 5f b5 45 3e
       0.08748598 -0.06385128 0.17261319 0.19307469
000360 1d fa 9d be f7 7a 81 3e b7 9e 67 be eb 45 dc bc
       -0.30854884 0.25289127 -0.22619139 -0.026888808
000370 60 8e dd bd 5f 32 33 3e 64 74 69 be b7 3c 22 be
       -0.108181715 0.17499684 -0.22798306 -0.15843473
000380 c3 65 25 be 74 46 33 be f2 fb f1 3d 8c 56 85 3c
       -0.161521 -0.17507344 0.11815633 0.01627662
000390 7f 54 74 bd d8 76 6c be 1c 50 43 3d bc 13 ce 3d
       -0.059650894 -0.2309221 0.04768382 0.10062358
0003a0 b9 e9 fa bc 91 03 8e 3e d3 e3 2a 3e f2 c5 3f 3e
       -0.030629026 0.27737096 0.1668847 0.18727854
0003b0 d3 54 71 be 56 92 6b be e2 d4 07 bc 8f 50 92 bd
       -0.23567514 -0.23005041 -0.008290501 -0.071442716
0003c0 8e 81 13 be 2f 8c 7b 3e d2 0c 6e 3e 9b 4f 46 be
       -0.1440489 0.24565195 0.23247078 -0.19366305
0003d0 3c 81 aa 3d 66 b0 7d bc 14 19 3b 3e 32 d3 2f be
       0.08325431 -0.015483951 0.18271285 -0.17170408
0003e0 96 2e 4b 3d af dd ae bc 87 84 ea 3e aa 29 29 bd
       0.049604975 -0.021345941 0.45804235 -0.0412995
0003f0 c5 ca 89 3e 5b cc 14 be bd 08 bc 3d bd 4a 8c 3e
       0.26912513 -0.1453108 0.09181354 0.2740077
