results_kitti/Log_11011605/kernel_points/epoch61/layer_0_resnetb_1_shortcut.npy (npy, 32896 bytes, 1 tensors)

array f4 [64, 128]
0	0xbe1b7ade	-0.15183589
1	0xbc8d0c88	-0.01721789
2	0x3dd87546	0.10569243
3	0x3ce85245	0.028359542
4	0x3d500c42	0.05079294
5	0xbdda89a2	-0.106707826
6	0xbe7708a1	-0.24124385
7	0x3b02512b	0.0019884806
8	0xbe00ed50	-0.12590528
9	0xbd5aa487	-0.05337956
10	0xbbfafd99	-0.0076596257
11	0x3d4cbb3e	0.049983256
12	0xbebbcdcc	-0.36680448
13	0x3d910a94	0.07082096
14	0xbe34f630	-0.17672038
15	0xbdc9d3b1	-0.0985483
16	0xbd6283af	-0.055301365
17	0xbe63a08b	-0.22229211
18	0xbdd8120b	-0.105503164
19	0x3de606aa	0.1123174
20	0xbe8b4c98	-0.27206874
21	0xbc5fec27	-0.013667143
22	0xbd74d604	-0.059774414
23	0xbdbb0073	-0.09130945
24	0xbd4d3c8c	-0.05010657
25	0xbd38a926	-0.045083188
26	0xbe331805	-0.17489631
27	0xbe244d7d	-0.16045184
28	0xbe4f94cb	-0.20271604
29	0xbcdfa9ad	-0.027302587
30	0xbf005134	-0.50123906
31	0xbd9a5b74	-0.075369745
32	0x3e1efb63	0.15525584
33	0x3e3b6689	0.18300833
34	0x3e5af487	0.21382342
35	0xbe2452ab	-0.1604716
36	0x3e061efd	0.13097759
37	0x3e501cd3	0.20323496
38	0xbcf250a0	-0.02957946
39	0x3e174773	0.1477335
40	0xbd46f004	-0.04856874
41	0xbeb622af	-0.35573336
42	0xbda423ed	-0.08014665
43	0xbdb8cf45	-0.090239085
44	0xbe62c354	-0.22144824
45	0xbd9a2f2a	-0.07528527
46	0x3e37695a	0.17911282
47	0xbdb947d6	-0.09046905
48	0xbe275f1c	-0.16344875
49	0x3aeb8008	0.0017967233
50	0x3e089e69	0.13341679
51	0xbde629ca	-0.112384394
52	0xbecd63ad	-0.4011511
53	0xbe9f4223	-0.31105146
54	0x3e67e4c2	0.22645858
55	0x3d6ab788	0.057303935
56	0x3d0391f4	0.032121614
57	0xbe33a601	-0.17543794
58	0xbdb08a4c	-0.08620128
59	0xbebcca2a	-0.3687299
60	0x3e17e644	0.14833933
61	0x3d88a7b3	0.06672611
62	0xbe2b2260	-0.16712332
63	0xbe879110	-0.2647786
64	0xbe92b8a7	-0.28656504
65	0xbe743e85	-0.23851974
66	0x3d3b1b0b	0.045680087
67	0xbead46da	-0.33843118
68	0xbd56c560	-0.052434325
69	0x3d626bdc	0.055278644
70	0xbde52b7b	-0.11189934
71	0x3c89434e	0.016755726
72	0xbbd291a7	-0.0064260545
73	0x3def5bdc	0.11687443
74	0x3d21fdae	0.03954857
75	0x3e064ab2	0.13114432
76	0x3da006e6	0.07813816
77	0x3e55f677	0.208948
78	0x3e859d8d	0.26096764
79	0x3ea778cc	0.32709348
80	0xbd09c745	-0.033637304
81	0x3dd582ab	0.104253136
82	0xbcfa72a3	-0.030572241
83	0xbe04a9b7	-0.12955366
84	0xbe56ba7f	-0.2096958
85	0xbecc6bba	-0.3992594
86	0xbe1cb39f	-0.15302895
87	0xbec386f7	-0.38188908
88	0x3cc6e1aa	0.024277527
89	0x3d60fdbf	0.05492949
90	0x3d5ff48e	0.054676585
91	0xbd366555	-0.04453023
92	0x3e02e70e	0.12783453
93	0xbe028f63	-0.1275001
94	0xbdd2c3a9	-0.102912255
95	0x3d8491be	0.064731106
96	0x3db90a22	0.09035136
97	0x3e4f407e	0.20239446
98	0x3e419798	0.18905485
99	0x3da891c9	0.08230931
100	0xbdc4ec8c	-0.0961543
101	0xbd84b7a4	-0.06480339
102	0xbdaafbfd	-0.08348844
103	0xbc9cf2f7	-0.019158823
104	0x3e110727	0.14162885
105	0xbe2e65eb	-0.17031066
106	0xbe90d344	-0.28286183
107	0xbea3d5e1	-0.31999114
108	0xbe8a3a77	-0.2699773
109	0xbc0a0452	-0.008423882
110	0xbe63ad1a	-0.22234002
111	0x3ec4fa0d	0.38472024
112	0x3e35389b	0.17697375
113	0x3dccf72e	0.10008083
114	0x3db20592	0.08692469
115	0xbb2cb4d4	-0.00263529
116	0xbe413e62	-0.18871453
117	0x3e15f1f6	0.14643082
118	0xbdb7674d	-0.0895525
119	0xbe063b64	-0.13108593
120	0xbd515aba	-0.051111914
121	0x3d74c993	0.05976255
122	0xbcce6f7d	-0.025199646
123	0x3da2bc99	0.079461284
124	0xbe4843fe	-0.19557187
125	0xbd8a1bd2	-0.067435876
126	0xbc5cb997	-0.013471982
127	0xbe2e21be	-0.17005059
128	0x3e248d41	0.16069509
129	0xbe660e3b	-0.22466366
130	0xbc604371	-0.013687954
131	0x3d5fdb36	0.054652415
132	0x3de05ae3	0.10954835
133	0x3c644de1	0.013934583
134	0xbe4098ec	-0.18808335
135	0xbe3dad84	-0.18523222
136	0x3e9e69cf	0.309401
137	0x3e110187	0.14160739
138	0xbdd2c47b	-0.10291382
139	0x3f09f489	0.53888756
140	0x3e76d403	0.24104314
141	0x3d2f25c3	0.04276062
142	0xbed4c153	-0.41553745
143	0x3d02d689	0.031942878
144	0xbeabbdfc	-0.33543384
145	0x3ee4e0ab	0.44702658
146	0xbecb64f7	-0.39725468
147	0x3e9a9b5c	0.30196655
148	0xbebda382	-0.3703881
149	0x3d3f27ce	0.04666882
150	0xbdc9934d	-0.098425485
151	0xbe96007e	-0.2929725
152	0xbf391a84	-0.72306085
153	0xbed977a4	-0.4247409
154	0x3d20175b	0.039084774
155	0xbf1220fe	-0.5708159
156	0xbb1980af	-0.0023422649
157	0xbe9fbf87	-0.3120081
158	0xbe971b2c	-0.29512918
159	0xbc64306a	-0.013927558
160	0xbe648276	-0.22315392
161	0x3e86320e	0.26210064
162	0xbf511251	-0.81668574
163	0xbe865e04	-0.26243603
164	0x3e88d1b6	0.26722497
165	0xbadfc870	-0.0017073285
166	0x3ccc8d15	0.024969617
167	0xbf210e5f	-0.62912554
168	0x3d8d5fc5	0.06903032
169	0xbe2ffc5b	-0.1718611
170	0x3dfa307e	0.122162804
171	0xbe495115	-0.19659837
172	0xbe308071	-0.17236497
173	0x3e3e0b34	0.18558961
174	0xbe27e02f	-0.16394113
175	0x3ea4d797	0.32195732
176	0x3cefc1c7	0.029267205
177	0xbed01ea6	-0.40648383
178	0xbe95cef5	-0.29259458
179	0x3d2f45a2	0.042791016
180	0x3d3f1bd2	0.04665739
181	0xbe8cdb20	-0.2751093
182	0x3d97f6bd	0.074201085
183	0xbc98e690	-0.018664628
184	0xbe1674ee	-0.14693043
185	0x3da83de2	0.08214928
186	0x3e48b1bd	0.19599052
187	0xbb36951c	-0.0027859872
188	0x3d762e1e	0.060102575
189	0x3e3da1dc	0.18518776
190	0xbe9e1144	-0.30872548
191	0x3e1fc758	0.15603387
192	0xbec727f5	-0.38897672
193	0x3c886952	0.016651783
194	0xbe934480	-0.287632
195	0x3e893ce4	0.26804268
196	0x3df90aa7	0.12160235
197	0xbd69958e	-0.057027392
198	0x3df405b1	0.11915148
199	0xbeeb017f	-0.4589958
200	0xbd154e2a	-0.036451496
201	0x3ceab337	0.02864991
202	0xbe90d73d	-0.28289214
203	0xbe965508	-0.2936175
204	0xbe0aa618	-0.13539922
205	0xbec8f028	-0.39245725
206	0xbdf2d735	-0.11857454
207	0xbe00e298	-0.12586439
208	0xbef0b1d8	-0.47010684
209	0xbd9d326b	-0.07675632
210	0x3ef61b77	0.4806783
211	0xbf112413	-0.5669567
212	0x3ec03738	0.3754213
213	0x3d9af3df	0.07566046
214	0xbcd7aa30	-0.026326269
215	0xbdf82de1	-0.12118126
216	0x3eaafbcc	0.3339523
217	0x3df6ca69	0.120503254
218	0xbeb78352	-0.35842377
219	0xbdede2c0	-0.11615515
220	0xbe967480	-0.29385757
221	0xbeb4d0d7	-0.35315582
222	0x3c1500c2	0.009094419
223	0x3ca56de3	0.020194
224	0x3cc6f2d7	0.024285717
225	0x3de1956e	0.110148296
226	0xbee77780	-0.4520836
227	0xbe1e2cd7	-0.15446793
228	0xbd6c4e4d	-0.05769186
229	0xbde78c6f	-0.113060825
230	0xbd8e94ae	-0.06961952
231	0xbdbc97cd	-0.09208641
232	0x3e4a86d5	0.19777997
233	0x3dcc07de	0.09962438
234	0x3db0384f	0.0860449
235	0xbe8be92e	-0.2732634
236	0xbe52db09	-0.20591368
237	0xbe1d8053	-0.15380983
238	0xbce6960c	-0.02814772
239	0x3e45cce1	0.19316436
240	0x3ddd0b92	0.107932225
241	0xbdaa6e82	-0.08321859
242	0xbe4a948b	-0.19783227
243	0xbf48947b	-0.78351563
244	0x3e867259	0.26259115
245	0x3e3a2cb8	0.18181121
246	0x3ddeaf88	0.10873324
247	0xbea1c503	-0.3159562
248	0x3d5286e1	0.05139816
249	0x3e101ab1	0.14072682
250	0x3e13daf0	0.14438987
251	0x3ec59914	0.38593352
252	0xbd8018bf	-0.0625472
253	0xbebb310f	-0.36560866
254	0x3e893c8b	0.26804003
255	0x3d4a06ef	0.04932302
