results_kitti/Log_11011605/kernel_points/epoch61/layer_0_resnetb_1_conv1.npy (npy, 8320 bytes, 1 tensors)

array f4 [64, 32]
000000 60 de bd bd c2 7f a3 3c 39 6a c2 be de ad 14 3e
       -0.0927093 0.01995838 -0.37971666 0.1451945
000010 ca 71 d7 3c f1 58 49 bd e9 35 bd 3c 58 9e fd bd
       0.026299376 -0.049157087 0.023096995 -0.12383717
000020 0a 40 76 39 a7 33 49 be 98 8e 9f be a4 75 c8 be
       0.00023484245 -0.1964861 -0.31163478 -0.39152253
000030 55 50 b1 3e bc fe d1 3e 7c 2c 51 3c a8 d8 bd bd
       0.346316 0.4101466 0.012766954 -0.092698395
000040 47 c5 01 be 62 69 21 bd 59 2f 09 bf 75 18 9b be
       -0.12672912 -0.03940714 -0.5358787 -0.30292097
000050 59 5e 0a be e3 da c9 bd 0f 29 c0 3e 72 fd 67 be
       -0.13512553 -0.098562025 0.37531325 -0.22655275
000060 e9 9a a3 be cf a5 3c 3e 81 30 0f 3e 1f 06 34 be
       -0.31954125 0.18422626 0.13983347 -0.1758046
000070 8b e4 ec be a6 7d 4e 3e cf 7b 0d 3c e6 bb fc bd
       -0.46268114 0.20165119 0.008635475 -0.12340526
000080 6a a8 49 be b5 59 fa be b4 34 fa 3d ce a4 86 be
       -0.19693151 -0.48896566 0.122170836 -0.2629761
000090 9d c1 bd 3e 0c 7d 0f 3f 55 3c 0a bd 69 72 28 bd
       0.37061778 0.5605018 -0.033748943 -0.041124735
0000a0 cc a5 2b 3d e6 f7 e9 3d 7e 6e f8 be 91 91 69 be
       0.041906163 0.11424236 -0.485218 -0.22809435
0000b0 35 ef 0b 3e c0 71 31 be f6 ba 84 be af 8c 5e 3f
       0.13665469 -0.17328548 -0.2592389 0.86933416
0000c0 b6 b7 74 3e d9 c0 50 3c 15 ba d6 be 94 bc 0a 3f
       0.23898205 0.012741291 -0.41938844 0.54194
0000d0 9d 0a 8d be 69 e7 0d be bb 02 87 3f b9 fc d5 be
       -0.2754716 -0.13857807 1.0547708 -0.41794375
0000e0 e0 d2 2b 3e e4 1d 3d be 9b dc 13 bf 49 07 90 be
       0.16779661 -0.18468434 -0.5775849 -0.28130558
0000f0 b9 24 1a bf e2 c7 c0 be a8 db 93 3f b1 42 e4 be
       -0.60212284 -0.37652498 1.1551409 -0.44582132
000100 80 42 ea be a0 e5 b1 be 2f 2d bf 3e ce 92 6e bd
       -0.4575386 -0.34745502 0.3733916 -0.058245473
000110 10 5a a2 3d 33 8e 70 3e 4f ba a6 3c 95 e2 e5 be
       0.07927334 0.23491745 0.02035251 -0.4489943
000120 db a6 92 3e 37 20 bc bd a1 71 9e bb a3 ef 00 bf
       0.28642926 -0.09185832 -0.004835323 -0.50365657
000130 73 38 8c be 41 a9 b0 be c9 87 b7 be cd 16 0e 3f
       -0.27386817 -0.3450413 -0.35845783 0.5550354
000140 90 51 0f bf 7b cc 9e 3e 84 29 a3 be 25 b0 89 3f
       -0.5598383 0.3101538 -0.3186761 1.075688
000150 f3 02 86 bd ae 9d 51 3f 5f 94 60 be 99 dd 0c bb
       -0.06543531 0.81881225 -0.21931599 -0.0021494387
000160 82 f2 89 be ab 3c d4 3d 17 68 8d 3e 9b 41 03 bf
       -0.2694283 0.10363134 0.27618477 -0.5127198
000170 88 32 de be 44 15 37 3d 47 7e eb be 64 2c e5 be
       -0.43397927 0.044698015 -0.4599478 -0.4476043
000180 d5 f7 06 3d c5 6b bd 3d db 7f 05 3e 36 50 40 be
       0.032951195 0.09249071 0.13037054 -0.18780598
000190 60 cc e1 be 7e 68 ac 3c f2 37 36 bf 87 f5 d8 bd
       -0.44101238 0.02104592 -0.71179116 -0.105937056
0001a0 cd 62 5d 3e ef 7b b0 3e 78 f3 46 be f4 ba e4 be
       0.21619721 0.34469554 -0.19428813 -0.44673884
0001b0 69 15 ac bd 67 73 a2 bd 53 34 82 3e ed 80 0a 3f
       -0.08402521 -0.079321675 0.25430545 0.54102975
0001c0 c2 ee 4c 3e 00 0f 57 3c 2b bf 1d be 8f 20 f7 be
       0.20012954 0.013126135 -0.15404956 -0.48267028
0001d0 12 02 7b 3f e1 c2 b3 be 73 92 31 be 25 65 ca bd
       0.98050034 -0.35109618 -0.17341022 -0.09882573
0001e0 5b b4 8f 3e ac 0f 02 3f 21 6a 62 3e 6b 1d 97 bc
       0.28067288 0.50805163 0.22110797 -0.018446645
0001f0 69 d1 bc be a1 68 c5 be 41 c6 88 3e 7d c7 fe bd
       -0.36878517 -0.38556388 0.26713756 -0.12440393
000200 14 e9 55 be bf 5e 16 3f fc 80 3c 3e 1d ae d1 bd
       -0.20889693 0.5873832 0.18408579 -0.102382876
000210 c6 76 b8 bc 6f 12 ea 3e 8d 92 da bd b8 44 0d 3f
       -0.022517573 0.4571719 -0.106724836 0.5518298
000220 7f b7 06 be c5 9d 5d 3d 63 09 42 be ad 0e d8 3e
       -0.13155936 0.05410554 -0.18948893 0.42198697
000230 f4 f6 ca 3e 34 87 18 bf 1a 62 09 3e 0f ad 88 3e
       0.39641535 -0.59581304 0.13416329 0.26694533
000240 0c 8b 45 be 06 30 58 bf 5d d0 72 be 53 62 8a 3f
       -0.19291323 -0.8444828 -0.23712297 1.0811256
000250 03 36 b4 be 89 48 c9 3e c7 59 ad bd 77 21 15 bf
       -0.35197458 0.39313152 -0.08464389 -0.5825419
000260 e4 60 fa 3e 41 81 c2 be 70 2c b7 3d a6 d9 13 3e
       0.48902047 -0.37989238 0.08944023 0.14438495
000270 43 cc 66 be 76 96 bc 3e 71 c0 8a 3e 08 ef c2 3d
       -0.22538857 0.36833543 0.27099946 0.09518248
000280 ad 00 54 3b fe 57 9f be 87 1d fc 3e 58 3e 50 bf
       0.0032349036 -0.3112182 0.49241278 -0.8134513
000290 91 74 a7 3e 08 47 46 bd 4c 27 1c 3f 21 f9 f9 3c
       0.3270612 -0.048407584 0.6099746 0.030514302
0002a0 ba 37 f2 be 0b ea 9d 3e 12 4f d8 3b a4 60 90 be
       -0.4730814 0.30842623 0.006601223 -0.2819873
0002b0 d4 0b 7e bd c9 86 31 bf 76 2a e1 bd e1 45 1b 3e
       -0.062023 -0.6934629 -0.10994427 0.15163375
0002c0 9f 05 a0 be da 1d 6d be 1c 2d 88 be 3e b1 3a be
       -0.3125429 -0.23155919 -0.26596916 -0.18231675
0002d0 cb 8d 9a be 92 10 6b 3f b8 64 12 3f 16 a3 13 be
       -0.30186304 0.9182216 0.57184935 -0.14417681
0002e0 fe e2 5e 3e 51 d3 35 bf cf 2a 7f 3e c0 41 b2 bd
       0.21766278 -0.7102557 0.24918674 -0.08703947
0002f0 0d 7e 82 3c 26 bf 4d be 8c 70 9a be 7e 45 74 bf
       0.015929246 -0.20092449 -0.3016399 -0.95418537
000300 6d 82 8c be b8 1f 2f 3f 7a 2a 4f be 4a 6a c2 bd
       -0.27443257 0.68407774 -0.20231047 -0.09492929
000310 ce 35 59 bc a7 bd 10 be 33 1d f9 3e 45 39 8b 3d
       -0.013257457 -0.14134847 0.4865509 0.06798033
000320 b6 75 9a 3e 6b a6 e7 bd 60 4c 94 3e 59 66 b3 be
       0.3016793 -0.113110386 0.2896452 -0.35039023
000330 80 66 5d 3e c7 64 56 bf 3f fa 8d 3c 6a 2b bf 3e
       0.21621132 -0.83747524 0.01733124 0.3733781
000340 79 ec d2 3e b4 53 01 bc a2 53 df be 33 c7 ea 3e
       0.4119604 -0.007893492 -0.43618494 0.45855102
000350 f1 42 07 3d ed 84 73 3d 4b e7 43 3f 3f 48 62 bc
       0.033022825 0.05945294 0.765248 -0.01381117
000360 57 a3 fc 3e 17 15 87 bd 19 ce f1 bd ec 41 d8 be
       0.49343368 -0.065958194 -0.11806888 -0.42237794
000370 dc d7 bf 3d 37 67 e1 bd 21 c8 ed 3e 88 34 08 3e
       0.09367344 -0.11006015 0.4644175 0.13301289
000380 ae 12 8e bd 40 b8 83 be 5a 56 21 3f ee 7e dc bd
       -0.069371566 -0.2572651 0.6302239 -0.107663974
000390 4b 55 ab 3e f3 d8 c6 bd 65 48 85 be a3 d0 77 3d
       0.3346351 -0.097093485 -0.26031795 0.060501706
0003a0 11 da 51 be a0 ef a1 be 3d ca 4a be 3e db ec be
       -0.20493342 -0.31628132 -0.1980371 -0.4626102
0003b0 cc ae c7 be dd 85 14 3d f9 ab 19 3d 9e 6f 08 3f
       -0.39000547 0.036260474 0.03751752 0.53295314
0003c0 4c f3 38 be b5 44 d0 bd df 89 01 bf 3c 00 1f bf
       -0.1806156 -0.10169355 -0.50601 -0.6210973
0003d0 fe 35 b2 3d b1 00 e0 be 33 f3 f7 be 63 86 7b be
       0.087017044 -0.43750528 -0.48427734 -0.24562983
0003e0 96 6e c2 be e6 4c 38 bf 8f 15 49 be 6d 87 2f 3e
       -0.37974995 -0.7199234 -0.1963713 0.17141505
0003f0 bc a4 21 bf e7 29 d8 be ee c1 3d 3e 4e a1 e0 be
       -0.6314199 -0.4221947 0.1853101 -0.43873066
