results_kitti/Log_11011605/kernel_points/epoch61/layer_2_resnetb_0_shortcut.npy (npy, 524416 bytes, 1 tensors)

array f4 [256, 512]
-0.10531424 -0.013017201 0.036659542 -0.02499747 -0.07578221 -0.16825138 -0.051190853 -0.12805574
-0.028760007 -0.019282749 -0.03545193 0.06770245 -0.036659356 0.0050122947 0.11904648 -0.067586824
-0.052869327 -0.09182197 0.01866022 -0.1833717 -0.05052064 -0.05287634 0.07285319 0.12842792
0.0687673 -0.028493537 0.0019243123 0.11853594 -0.06384011 0.064734034 -0.042334236 -0.14426152
-0.012986205 -0.07848585 -0.055266034 -0.0023836684 -0.03728704 -0.024371037 0.053351264 -0.23391098
0.12952816 -0.038838908 0.007954436 0.14163326 0.14171529 -0.17243977 -0.0051248744 0.017526438
0.037433065 -0.07862839 -0.09556243 0.17010441 -0.08562938 0.061510544 -0.08989379 0.047659565
-0.04162807 0.14943406 0.01920951 0.13502751 -0.035207678 0.02941636 0.013303278 -0.092506066
0.07711062 -0.08284919 -0.025128914 -0.10401047 0.052747346 0.014826443 0.092703186 -0.050080076
0.017098306 -0.04819558 -0.015700797 -0.0049907337 -0.023498546 0.0002793473 -0.09205015 0.01048101
-0.17901863 0.11908081 -0.07410594 -0.02520426 -0.04976873 -0.060685866 -0.068096064 -0.05338646
-0.030443236 -0.07253954 -0.05176475 -0.09965438 0.12361545 -0.091922544 0.019105988 0.0435543
-0.017852832 0.03636755 0.053389587 -0.09800419 -0.058688752 0.06419892 0.02062203 0.00621799
-0.12635624 -0.08043922 0.09378527 -0.10651317 -0.09345531 0.03634554 0.05376558 -0.10766007
-0.10676985 -0.048478886 -0.16969913 0.00786411 -0.06718377 0.009038393 0.013798747 -0.06962437
-0.03354209 -0.08198469 0.09280142 -0.026820881 0.058242466 0.04302667 0.028525973 -0.0068516866
-0.13039386 -0.039802644 -0.013282575 -0.08935055 0.05481578 0.04093505 0.10792192 0.016985798
-0.06950949 0.014646874 0.04768361 -0.0070562665 -0.10782619 0.0013369969 -0.092727765 -0.009901135
-0.03308639 -0.00091028865 -0.021979451 0.08488579 -0.076264925 -0.0045879413 0.01630133 -0.1545418
-0.031277496 0.08909258 0.04773199 -0.026892781 0.096210755 -0.0760845 0.07675159 -0.04853131
-0.11982109 -0.06773961 0.18921523 0.051330905 0.010203378 0.019289391 0.047328584 -0.049250785
0.10319826 -0.008772511 0.012432923 -0.18543756 -0.025832271 -0.09228791 -0.03452234 -0.097667724
-0.036169633 0.082031585 -0.022008594 -0.086392894 -0.119683586 -0.04634154 -0.06825748 -0.056204658
-0.085802615 -0.041347757 0.009496342 0.044135626 0.018577531 -0.06062061 -0.08052908 -0.084528014
-0.0672188 -0.02746209 0.021998312 -0.017052805 -0.0026342915 -0.14429554 -0.05932251 0.058057487
0.06246803 -0.054175973 -0.004813898 -0.07933985 0.08193538 0.07115629 0.11656644 -0.002146621
0.021206003 -0.01827163 -0.04690813 -0.0716378 0.0074684275 0.08099541 -0.1519726 -0.06734196
-0.024774587 -0.031362694 0.02828777 0.058652405 -0.052664533 -0.00667156 -0.045271628 0.049003873
-0.17891304 -0.007971182 0.06693552 0.0033273995 -0.0030656275 0.048426192 -0.022103606 0.06457067
0.00223311 -0.066732064 -0.27518868 -0.040718153 0.034152344 -0.027844481 -0.014528363 -0.057265818
-0.03919656 -0.005810152 0.059288956 0.010991385 -0.17084937 -0.17855921 -0.08482363 -0.0057843747
0.050834894 0.06314098 -0.03167233 0.08884682 -0.0317244 -0.02961565 0.048427373 -0.0975148
00000000: feae d7bd 1946 55bc 5128 163d 7fc7 ccbc
00000010: b433 9bbd 174a 2cbe 80ad 51bd 0b21 03be
00000020: 1b9a ebbc dbf6 9dbc 0b36 11bd 95a7 8a3d
00000030: 1f28 16bd 2d3e a43b a4ce f33d f66a 8abd
00000040: 828d 58bd 280d bcbd 51dd 983c cac5 3bbe
00000050: bbee 4ebd dc94 58bd 0e34 953d 9c82 033e
00000060: dfd5 8c3d 476b e9bc 3539 fc3a f9c2 f23d
00000070: 9bbe 82bd 4793 843d aa66 2dbd 4bb9 13be
00000080: 17c4 54bc 30bd a0bd a35e 62bd 5237 1cbb
00000090: 4cba 18bd c5a5 c7bc db86 5a3d 5c86 6fbe
000000a0: 08a3 043e 8c15 1fbd 5353 023c 4f08 113e
000000b0: d01d 113e 0d94 30be 90ee a7bb 9b93 8f3c
000000c0: 6a53 193d ec07 a1bd 3cb6 c3bd da2f 2e3e
000000d0: 755e afbd 7bf2 7b3d 3c1a b8bd ad36 433d
000000e0: 3282 2abd 3e05 193e 435d 9d3c a744 0a3e
000000f0: ed35 10bd 94fa f03c fef5 593c d273 bdbd
00000100: 2cec 9d3d d6ac a9bd 27db cdbc 7103 d5bd
00000110: 9a0d 583d 9cea 723c 2bdb bd3d c420 4dbd
00000120: bf11 8c3c ba68 45bd f59e 80bc 4f89 a3bb
00000130: 0680 c0bc 5c75 9239 ca84 bcbd 8bb8 2b3c
00000140: a950 37be a4e0 f33d dbc4 97bd 2a79 cebc
00000150: 4cda 4bbd be91 78bd f375 8bbd c3ab 5abd
00000160: 1864 f9bc 9c8f 94bd 4607 54bd 9817 ccbd
00000170: 192a fd3d e341 bcbd 2984 9c3c fe65 323d
00000180: 1a40 92bc 24f6 143d 0aaf 5a3d 6cb6 c8bd
00000190: 9e63 70bd b97a 833d 88ef a83c 48c0 cb3b
000001a0: 8863 01be 51bd a4bd 7e12 c03d 9423 dabd
000001b0: 7f65 bfbd 10df 143d 4c39 5c3d e27c dcbd
000001c0: 27aa dabd cc91 46bd 9cc5 2dbe 78d8 003c
000001d0: a597 89bd c515 143c 2414 623c 3997 8ebd
000001e0: 6e63 09bd 97e7 a7bd ac0e be3d 77b7 dbbc
000001f0: a78f 6e3d bc3c 303d 4daf e93c 1d84 e0bb
00000200: f885 05be 1908 23bd 289f 59bc 6cfd b6bd
00000210: 8386 603d 83ab 273d 2b06 dd3d cd25 8b3c
00000220: fe5a 8ebd 71f9 6f3c e44f 433d 4138 e7bb
00000230: fad3 dcbd 2c3e af3a 0ee8 bdbd 5f38 22bc
00000240: 9885 07bd 70a0 6eba 400e b4bc 9ad8 ad3d
00000250: c930 9cbd 7156 96bb 5e8a 853c 3540 1ebe
00000260: d51c 00bd 2c76 b63d 9f82 433d 404e dcbc
00000270: 250a c53d 31d2 9bbd f02f 9d3d c4c8 46bd
00000280: c264 f5bd 11bb 8abd a3c1 413e 5b40 523d
00000290: 122c 273c c904 9e3c 9edb 413d 31bb 49bd
000002a0: 9c59 d33d 94ba 0fbc 75b3 4b3c 58e3 3dbe
000002b0: 339e d3bc 7201 bdbd 4c67 0dbd 0406 c8bd
000002c0: 9c26 14bd 2d00 a83d 5e4b b4bc c2ee b0bd
000002d0: ab1c f5bd a0d0 3dbd 94ca 8bbd db36 66bd
000002e0: 48b9 afbd 445c 29bd 8c96 1b3c 8fc7 343d
000002f0: e82f 983c 514d 78bd 6eec a4bd 061d adbd
00000300: 03aa 89bd 2df8 e0bc ce35 b43c 53b2 8bbc
00000310: 14a4 2cbb 36c2 13be 29fc 72bd b0cd 6d3d
00000320: 7ade 7f3d a0e7 5dbd e7bd 9dbb ee7c a2bd
00000330: bdcd a73d 64ba 913d 63ba ee3d 53ae 0cbb
00000340: 36b8 ad3c 63ae 95bc bd22 40bd d7b6 92bd
00000350: b6b9 f43b ece0 a53d b59e 1bbe 95ea 89bd
00000360: 13f4 cabc 2b76 00bd c1bb e73c 813d 703d
00000370: c4b6 57bd 1a9d dabb be6e 39bd 49b8 483d
00000380: fb34 37be 9099 02bc 7d15 893d 8010 5a3b
00000390: b2e8 48bb 8b5a 463d 9f12 b5bc a13d 843d
000003a0: 5e59 123b d2aa 88bd 88e5 8cbe 14c8 26bd
000003b0: 54e3 0b3d 1c1a e4bc 5f08 6ebc 908f 6abd
000003c0: 928c 20bd 1663 bebb fad8 723d 3615 343c
000003d0: 23f3 2ebe 3ad8 36be 03b8 adbd da8a bdbb
000003e0: 4038 503d 0f50 813d d8ba 01bd 52f5 b53d
000003f0: 72f1 01bd 859c f2bc c85b 463d d7b5 c7bd
