results_kitti/Log_11011605/kernel_points/epoch61/layer_1_resnetb_strided_1_conv2.npy (npy, 245888 bytes, 1 tensors)

array f4 [15, 64, 64]
00000000: a0f9 7bbd 7cc4 c9bd 13a3 40bc 5eb4 813d
00000010: 1aad d1bd fc3f 05be 37f7 e2bd e21c a1bd
00000020: 6641 20be 7d2b 85bd d2c9 50bd fd39 04be
00000030: 6018 6b3e 4e15 503e 7331 3c3c 25a4 923d
00000040: 3814 0b3e 0cf5 bfbb f7c0 b53d 7b01 ecbd
00000050: f59b acbe 2e24 dfbd cfea 333d 8593 58be
00000060: 7d9a 833e 510a 993e 0a0b 1bbe a89c 503d
00000070: aeb7 e33d 5b02 ddbd b711 833e e116 813d
00000080: 7f74 74bd 7921 81be 0265 953c 1e3f a33d
00000090: d3f0 4e3d 6eb9 09be 653e 443d caf5 bebb
000000a0: 836e 303e f741 9fbb f1a6 5ebc 61b3 0b3e
000000b0: 52f2 13be 175a 49be 1b95 bebe 869f a6be
000000c0: 8d57 8dbd 298f 5fbe 2d2d ae3d c3ed 4a3d
000000d0: 52f1 46be 9c52 5ebe e8a4 ecbd cebe 9a3d
000000e0: 302d bd3d 4505 99be 9edf 1e3e e409 b23d
000000f0: 1952 8f3d 139f 063e a9e2 f7bd 7be8 453c
00000100: c37a 173e 8ed7 133e 9865 b93c 5662 d3bc
00000110: a56a dabe d24a 5dbe 8fc3 97bc 02dd 693e
00000120: 8958 963d cc2b cc3d ba46 3b3d 9206 eabb
00000130: 36e7 5a3e 4be7 2d3e e2e9 e63c db3f f2bc
00000140: a180 b5bd 72be aebd ab91 8e3e c056 653e
00000150: b3d9 2ebe a0cb f4b9 357a f73d 4838 47be
00000160: 9a8a 653e 7276 8b3d 2199 35bb 0bf9 bbbe
00000170: 83b3 64bd c9c1 b93d f20e dcbd 1956 afbc
00000180: b373 67be 0e3f 9c3e 6d1c cdbb beed c33d
00000190: 56fc 22be 9282 623e ded4 cd3d 15ad 90bd
000001a0: 47a8 33be 304f 52be 53e3 653e de0a 3fbe
000001b0: 403a bd3d af1a 133d 3a45 0bbe a926 14be
000001c0: 44c7 113e faf2 f83c 4e7c cabd 7b26 483c
000001d0: ee84 903e 4535 15bc 81b1 643e 9ec7 843d
000001e0: 13bd 983d 9645 633d 7788 ab3d ce94 143e
000001f0: e85c bbbd cd91 5a3d cc77 b5bd 076c b83d
00000200: 369a 58be fa65 71bd 2f0e a63d 2e15 b73d
00000210: 37c1 abbd 1d70 813d 72ba 5bbe 82f3 11be
00000220: db4b 2ebd 6082 893c 27fd 4abe a279 c9bd
00000230: cc05 eebc a53a 79bd 2f1f e5bd c7f1 9abd
00000240: 8450 a43e b0a8 e73d a69f 553e abc5 453e
00000250: 447f 9dbe 411b 3bbe 8174 f8bd c182 c23d
00000260: 6202 10bd 1bb8 65bd c67b 4f3d 918b 353e
00000270: 743d 0dbe 0e97 f6bd 806e 623e 047b 643e
00000280: 9e71 15be 1c02 dbbd 38b1 50be a612 efbd
00000290: 0632 623e cda3 12bd 7b5c 13be 2f5b 273d
000002a0: 556b 05be ad8b e3bd 89a0 fa3d f7c7 7ebe
000002b0: 0d41 093e c658 40be 64e9 00be 4c97 af3e
000002c0: 77f0 1f3c 2f13 c0bd b741 4d3e d2e6 c63d
000002d0: 5b82 4bbe bc2a eb3d d89d 0d3e a990 853e
000002e0: f43a 96be f356 d93d bd32 883e e84f 3fbe
000002f0: 960a 3dbe 8027 003d 2938 10be e0d0 4a3e
00000300: c687 b23d 958a 81bc 4ffa 433e 7368 86bc
00000310: bc5c 183d ce91 613c 2a64 eb3d b54b 113e
00000320: 5e15 1abe 26f6 80be ceea 32be 3f3d 723e
00000330: 8f9a 3bbe 5183 f0bd 35c0 e83d a8f4 43bd
00000340: 40e7 273d 21dd 4dbe b335 afbd e3a9 3cbe
00000350: 1b7d f9bd 254a 07be ace5 d2bc 3276 b43b
00000360: ca38 cabd fb60 053e 0340 6ebd 7274 79be
00000370: 88c5 30bd c9fd 1e3e 1c3d 983c 64cb cebd
00000380: 917a fbbd b2a9 513e c58a 26bd ca59 cebe
00000390: e59b 72be 36f2 63be 027f 8dbd 4f6c 03be
000003a0: 038d 753c d537 7b3e ea99 823d b88e 83bd
000003b0: 7325 043e 67cf ccbd 9f4c f2bc 83a0 25be
000003c0: 8e9e 0cbe 3c60 003c d7a6 3e3e a651 59be
000003d0: 5480 e2bd 7018 a3bd c139 173e 04a2 e3bc
000003e0: d79e eebd 56d9 d73d 64f1 a8be d6e5 d0bd
000003f0: 2275 983c 6051 bbbe e794 c03c f5cc d03c
-0.061517358 -0.098519295 -0.01175763 0.063332304 -0.10238095 -0.1301269 -0.11082309 -0.07866837
-0.15649948 -0.06502435 -0.05097372 -0.12912746 0.22958517 0.20320627 0.011486399 0.07160214
0.13581932 -0.0058580693 0.08874696 -0.1152372 -0.33712736 -0.108955726 0.043925103 -0.21150024
0.25703803 0.29890683 -0.1514093 0.05093065 0.111190185 -0.10791465 0.25599453 0.06303192
-0.05968141 -0.2522085 0.01823664 0.07971023 0.050522637 -0.13449642 0.047911067 -0.00582764
0.17229657 -0.0048601585 -0.013589607 0.13642646 -0.14447907 -0.19663273 -0.37223133 -0.32543582
-0.069014646 -0.21831955 0.0850471 0.049543153 -0.19427994 -0.217112 -0.11554891 0.07555924
0.092371345 -0.29886833 0.1551499 0.08693293 0.06998081 0.1314662 -0.12103779 0.012079353
0.14792924 0.14437696 0.022631451 -0.025803726 -0.42659488 -0.21610573 -0.018525867 0.22838214
0.073411055 0.09969291 0.045721747 -0.0071418965 0.21377262 0.16982763 0.028187696 -0.029571464
-0.08862425 -0.08532418 0.2784551 0.22396374 -0.17075233 -0.0004669102 0.12083856 -0.19455063
0.22416154 0.06809701 -0.002770968 -0.36713442 -0.05583526 0.09070165 -0.10745038 -0.02140336
-0.2260273 0.30516857 -0.006259492 0.0956683 -0.15916571 0.22120121 0.10050367 -0.07064263
-0.17544661 -0.2053802 0.22449999 -0.18656489 0.09239626 0.03591412 -0.13600627 -0.14467873
0.1423617 0.030389298 -0.098869905 0.012216206 0.28226417 -0.009106939 0.22333337 0.064833865
0.07457938 0.055486284 0.08375638 0.1450989 -0.0914858 0.053361703 -0.0886074 0.090049796
-0.21152577 -0.058935143 0.08108174 0.089395866 -0.08386462 0.06320212 -0.21457842 -0.14253047
-0.04255281 0.0167858 -0.19823132 -0.09837653 -0.029055499 -0.060846943 -0.111875884 -0.075656466
0.3209268 0.113114715 0.20861682 0.19313686 -0.30761158 -0.18272115 -0.12131596 0.094975956
-0.035158522 -0.05608378 0.05065515 0.17729022 -0.13792974 -0.1204053 0.22112465 0.22312552
-0.14594123 -0.10693762 -0.20380104 -0.11673479 0.22089395 -0.035800744 -0.14390747 0.040858444
-0.13029225 -0.111106254 0.12237651 -0.24880968 0.13403721 -0.18783864 -0.12589031 0.34295118
0.009761921 -0.09378659 0.200446 0.09711994 -0.19873945 0.1148276 0.13829744 0.2608693
-0.29341853 0.10612287 0.2660121 -0.18682826 -0.1846107 0.03128767 -0.14083923 0.19806242
0.08717303 -0.015813151 0.19138454 -0.016407227 0.037197813 0.013767673 0.11493714 0.14189036
-0.15047213 -0.25187796 -0.17472383 0.23656176 -0.18320678 -0.117437966 0.113647856 -0.047840744
0.04099202 -0.20103885 -0.08555164 -0.18424182 -0.12182065 -0.13211878 -0.025744282 0.005507254
-0.09874113 0.13025276 -0.058166515 -0.24360827 -0.04315713 0.15526499 0.018583827 -0.100973874
-0.12279237 0.2047489 -0.040659685 -0.4030288 -0.23692282 -0.22260365 -0.069089904 -0.12834285
0.014987233 0.24533017 0.06377013 -0.06423706 0.1290491 -0.10000496 -0.029577551 -0.16174512
-0.13732359 0.007835444 0.18618332 -0.21222553 -0.11059633 -0.079636455 0.14768125 -0.027787216
-0.1165139 0.105395004 -0.32996666 -0.10200088 0.01861054 -0.36585522 0.023508502 0.025488356
