results_kitti/Log_11011605/kernel_points/epoch61/layer_2_resnetb_0_conv2.npy (npy, 983168 bytes, 1 tensors)

array f4 [15, 128, 128]
00000000: 207e bb3d 7b30 0ebd 937f f83c b470 0bbe
00000010: 3cc0 46be 1e58 ec3c 0ca5 893d 2969 31ba
00000020: 5f5d f1bd 2caf b8bd ad15 073d 0037 653e
00000030: 60a9 12bb c926 af3d 9ce5 b0bc 4400 09be
00000040: 4257 293e e466 d43b 7aed d03c 5e8f e83c
00000050: ab3d 34be df48 683d a070 d2bd a503 033d
00000060: 6a87 063d d0f6 e83c fdb9 85bd da22 f13d
00000070: 59ed 3dbe 7f4e 84be 690d 3b3d 2c1f 34be
00000080: e3f5 e8bc 9bf1 62be bd04 213e 7f6c febd
00000090: bb0d ef3d a909 5d3c 24d2 eabd f0a9 bfbd
000000a0: fbaf 92bc 169f 08bc 4e51 2e3e b693 e43d
000000b0: ab9d 10be 63ea 41be 6aff 1e3e e699 173d
000000c0: b827 cd3d 44cc f3bd befa 87bd 4c73 e43d
000000d0: 05a8 95bc 7862 053e 239c eb3d 5e42 0ebe
000000e0: 75d1 fabd d863 813c ff56 bc3d 4d15 b43d
000000f0: 6340 493e 9ec4 303e 9164 653e 46f9 9cbd
00000100: 586b 2bbd 637e 9abd 7eb0 623e 042c d8bd
00000110: ae60 76bc eb1b 803d 7a58 163d e737 19bb
00000120: 4a2f 213e 4907 03be eb18 c83d ed1d ed3c
00000130: ad72 a2bd 519e d53d 84ff 1ebe 09e3 d43d
00000140: 0720 103d 78fa c0bd ba5f 313e 9ee0 84bd
00000150: 3b9a fb3d 4d34 d33d 5037 55bd 7482 2c3e
00000160: 4d65 853d 1258 d8bb 91bd da39 83f4 8e3d
00000170: ae80 42b9 b581 3d3d 22f4 9a3c 8af5 6fbe
00000180: ffa1 f33d 82ec 59be 3f23 aa3c 10c8 8d3d
00000190: bc6f f83d 10c7 ae3d 56dc 453e 6aea d13d
000001a0: 7fbf 6bbd f911 c23d 5bbc 993d 1455 cdbc
000001b0: bdeb 4a3c a07a 64bc 832b 0e3e cb7d e8bd
000001c0: 9a03 8e3e eb9c 38be 1745 cdbb 6678 2c3c
000001d0: 5ec7 dc3d 54ce 96bd 9c13 ebbd 089c 67bd
000001e0: 8af5 a23d 541e 0dbe f791 12be 35a1 033e
000001f0: 5ec4 023e a31e 96bd d725 583e 3e63 17bd
00000200: 7d00 67bd 3785 b23d 8d08 823e 9949 e53c
00000210: c293 e83c 55e2 0f3c 3308 b3bd fe50 28bd
00000220: 5b2a 72bd 2f44 b03d e762 e8bd 3270 c8bd
00000230: 8d6d 5bbe 1c35 5ebe 7c7d 47be 1e8b 953d
00000240: 9bd5 1fbe ac10 f83d 817b 82bd a533 f23d
00000250: ede9 69bd a6d1 a7bd 1150 8fbd 4cbc 4fbd
00000260: 6835 d0bb 94f3 5dbd 971f 9238 90e8 dcbb
00000270: 6538 b03e 3d08 d2bd 8ad2 cabc 616f 6a3d
00000280: ebe1 153e d47e 1fbe 75d7 e5bc b694 03be
00000290: a9fd 15be 8991 8abd 4dd6 353e 63ee b73d
000002a0: ec7d 8f3e 938e 843e 048c 01be de3a 4f3e
000002b0: d1fd f63d fd04 ab3b 4ed7 683e 9726 b6bb
000002c0: 00b2 a2bc b858 f23d bee7 983d 1a77 bc3d
000002d0: 6e78 a3bd 5947 973d 833d 06bd fe58 17bd
000002e0: 3240 25be 69c8 493d 7882 323d 0381 6f3e
000002f0: 2cb8 21be 6aca 41bd 51b5 90bd 2ed3 f83c
00000300: 626d d13d 5b40 873e 4d13 7c3d 2f3a 1d3e
00000310: ff72 053c 04fc 82bd 3a36 36bd 0653 423c
00000320: 2a9c a1bd 6f56 a63c 3789 2c3d 2c64 09bd
00000330: 6584 0cbe 6805 5ebd 690f d1bd bde0 b7bd
00000340: 708e 9d3e efc7 ef3d 8e30 48be f534 c0bc
00000350: 5479 343e bb98 b7bd 28f8 d43d 0e7a bbbd
00000360: 0f5b debd a35e 2d3e 9af7 c0bd 2ebf e03d
00000370: 2b46 7ebe 561c b23d 52ac 23be 872e d73d
00000380: 574f 9bbd f3d1 c4bc 87cf cdbc 995c 493e
00000390: 83f7 48bd 33ac 18be 12a1 0f3e faef dc3c
000003a0: 0105 30bc 1ad4 0bbe 61bc 353e 50a4 773d
000003b0: 24b9 3cbe c3fa cdbd 58fb 29bd 5820 e7bc
000003c0: d63f 8f3d 7a9e e13d b10a 83bd 4877 d63d
000003d0: a7a7 103e 86e4 a23d fc1d 493c 6b4f 043e
000003e0: dc01 0ebe 5943 743c f397 243e 60ce ae3d
000003f0: 51d6 b13d e54c e9bd 14d7 2ebd 5225 47be
0.09154916 -0.034714203 0.03033427 -0.13617212 -0.19409269 0.028850611 0.06720933 -0.0006767684
-0.11785387 -0.090177864 0.032979656 0.22384262 -0.0022378787 0.085523196 -0.021593861 -0.13379008
0.16537192 0.006481992 0.025503863 0.028388675 -0.1760165 0.05671012 -0.10275388 0.031985898
0.032843985 0.028438002 -0.06529615 0.117742255 -0.18547572 -0.25841138 0.045667086 -0.17590016
-0.02843756 -0.22162478 0.15724464 -0.12423038 0.11672541 0.013491073 -0.114658624 -0.09358585
-0.01790618 -0.00833871 0.17023203 0.11160986 -0.14122646 -0.18937068 0.1552712 0.037012003
0.100173414 -0.11904195 -0.06639622 0.11154804 -0.018268595 0.13025844 0.1150439 -0.13892505
-0.12246982 0.01579468 0.09196281 0.08793125 0.19653468 0.17262504 0.22401644 -0.07664733
-0.041850418 -0.075436376 0.22137639 -0.1055527 -0.015037699 0.06255325 0.03670547 -0.0023379268
0.15740696 -0.12795748 0.09770378 0.028944934 -0.07932029 0.10430587 -0.15527159 0.10394866
0.035186794 -0.09422773 0.17321673 -0.06488155 0.122852765 0.1031271 -0.052054703 0.16846639
0.06513462 -0.0066022957 0.00041721438 0.06980231 -0.00018549219 0.046266276 0.01891524 -0.2343351
0.11896133 -0.21281627 0.02076876 0.069229245 0.12130687 0.08534062 0.19322333 0.10249789
-0.05755567 0.09476084 0.07506629 -0.025064982 0.012385306 -0.013945252 0.13883786 -0.11352118
0.27737123 -0.1802861 -0.0062643397 0.010526752 0.10780214 -0.07363573 -0.114783496 -0.056545287
0.07956989 -0.137811 -0.14313494 0.12854464 0.1277022 -0.07330062 0.21108185 -0.03695988
-0.05639695 0.08716815 0.2539715 0.027989196 0.028390769 0.008781989 -0.08741798 -0.041092865
-0.059122425 0.08606755 -0.11346989 -0.097870246 -0.21428509 -0.21699947 -0.19481462 0.07301925
-0.15608828 0.12112555 -0.06371213 0.11826257 -0.057107855 -0.08194284 -0.06997693 -0.050716683
-0.006354023 -0.054187372 6.9677066e-05 -0.006741591 0.34418026 -0.102554776 -0.024758596 0.057235125
0.14636962 -0.15575725 -0.02805684 -0.12849697 -0.14647545 -0.0676604 0.1775753 0.089810155
0.28025758 0.25890025 -0.12651068 0.202373 0.120601304 0.0052191005 0.22738382 -0.0055587995
-0.019860268 0.11833328 0.07466076 0.09202404 -0.079819545 0.07386655 -0.032773506 -0.036950104
-0.1613777 0.04926339 0.043581456 0.23389058 -0.15792912 -0.047312178 -0.07065833 0.030374136
0.10225941 0.26416287 0.061541844 0.15354227 0.008145093 -0.063957244 -0.04448531 0.011860615
-0.07891114 0.020304887 0.042123046 -0.033542797 -0.1372238 -0.054204375 -0.102080174 -0.08978412
0.30772734 0.11708056 -0.19549772 -0.023462752 0.17624408 -0.08964678 0.103988945 -0.091541395
-0.10857212 0.16930632 -0.09422226 0.10973965 -0.24831454 0.08696811 -0.15983704 0.10506921
-0.07583492 -0.024025893 -0.02512337 0.1966423 -0.04906417 -0.14909439 0.14026287 0.026969898
-0.0107433805 -0.13655129 0.17747642 0.060459435 -0.1843 -0.100575946 -0.041499466 -0.028213665
0.069945976 0.11016555 -0.063985236 0.1047197 0.14126454 0.07953744 0.012275215 0.1292092
-0.13867897 0.014908635 0.16073589 0.08535457 0.08683456 -0.113916196 -0.042685583 -0.1944783
