results_kitti/Log_11011605/kernel_points/epoch61/layer_2_resnetb_strided_1_conv1.npy (npy, 262272 bytes, 1 tensors)

array f4 [512, 128]
0.13777667 0.1190192 0.0068298923 -0.050760373 -0.070460096 0.059795808 -0.08165853 0.04118326
-0.08234335 0.036722064 -0.040654287 0.10640074 -0.18431208 0.07855185 0.05006425 -0.16177489
-0.11319105 0.09334974 -0.10438962 -0.016515791 0.006325254 -0.108683646 -0.0650708 -0.1297187
-0.04655763 0.03252376 -0.023731422 0.101237155 -0.11253419 0.0875995 0.01978802 0.016699065
-0.24012648 0.14188856 0.016118009 0.09356792 0.058619663 -0.009257893 -0.06612511 -0.013430365
0.02667001 0.019727912 -0.11551147 -0.037431948 0.057074595 0.055867914 -0.050957635 0.08049055
-0.04684546 -0.04177713 -0.078847215 0.06785812 0.036630552 -0.088607855 0.06752287 0.0593675
0.11718047 0.088985816 0.046484593 0.008332556 0.15014 0.19302118 -0.12564045 -0.11991356
0.13211557 -0.013691421 0.022913663 -0.123002596 -0.0328871 -0.06366116 -0.18018855 0.121817976
-0.06052576 0.08152426 -0.12732583 -0.06262813 0.0040697283 -0.042210948 0.0128892455 -0.19547398
-0.0383284 -0.028818881 -0.059622247 0.025919309 -0.040238313 -0.05511882 -0.05453836 0.09054901
-0.028346032 0.09772139 0.11278752 0.0022276356 -0.024102796 0.17440988 -0.14951743 -0.08296748
-0.0008057921 -0.031999245 0.0067889136 0.17258513 0.16723663 -0.16919905 0.037544556 0.14056692
0.15363842 0.0701863 -0.026788343 -0.026843682 0.0084361145 0.051944 -0.0019194882 -0.03393731
-0.124212824 0.09031594 0.07593519 -0.07513986 0.22819346 -0.008659912 -0.0939693 -0.047838405
-0.22568269 -0.1908288 0.023689847 -0.120021634 0.0840227 -0.068919204 -0.08926578 -0.04314837
-0.08879221 -0.055000048 -0.09664485 0.13087532 0.020798687 0.23955598 -0.0074263513 -0.0459022
0.04493106 0.013754552 0.12718347 -0.15556596 0.07071384 0.04313009 0.1515421 0.1617018
0.1528085 0.018609494 0.12222383 -0.056497633 0.14373581 -0.07823274 0.09196362 -0.19093283
-0.078906246 0.032283768 0.067057975 0.15961297 -0.06417358 -0.045345243 -0.07593568 -0.096663475
-0.008029152 0.06945287 0.101492286 0.088105716 -0.012519116 -0.01520943 -0.036812052 0.10342557
-0.1129393 0.12629044 0.085985415 -0.18320881 0.07078427 0.004147016 -0.22993019 -0.08794894
0.09240525 0.019458542 -0.15467577 0.1451586 0.08107698 -0.08583928 -0.04139795 0.09292849
-0.012269624 0.056906205 -0.05930351 0.07995422 -0.19262186 -0.034103252 -0.12862876 -0.0761363
-0.06630585 -0.07671742 -0.023305655 -0.040625807 -0.060420126 -0.076170556 -0.10758763 -0.26521805
0.25285193 -0.13171327 -0.029264906 -0.173762 -0.09308967 0.0037354024 0.07701131 0.02706333
-0.016155966 -0.081812896 0.124091886 -0.1735947 0.08928157 -0.11244766 0.22282185 0.055548858
0.013709498 -0.100887276 0.022630582 0.03292653 0.14208108 0.011884019 0.02471412 -0.1255266
0.056770414 -0.019219447 -0.051210467 0.078764684 -0.004395784 -0.1285957 0.16178739 0.011101206
-0.044764835 -0.021157201 -0.10743223 -0.18028226 0.06495792 0.13109042 -0.085464716 -0.07117323
-0.09784045 -0.062479097 0.008636712 -0.059209276 0.06627456 0.13122651 -0.25319135 0.006215107
0.0044056023 -0.19437298 -0.16094606 0.07900975 0.07364518 -0.1667328 -0.027699966 0.03133288
00000000: 5415 0d3e 57c0 f33d 4acd df3b 1cea 4fbd
00000010: 624d 90bd 73ec 743d 963c a7bd c7af 283d
00000020: a1a3 a8bd e069 163d 1c85 26bd a2e8 d93d
00000030: 4ebc 3cbe cbdf a03d 2c10 4d3d 51a8 25be
00000040: b6d0 e7bd 262e bf3d 3aca d5bd 204c 87bc
00000050: 1444 cf3b 8895 debd d743 85bd fbd4 04be
00000060: 37b3 3ebd a237 053d 6668 c2bc 6d55 cf3d
00000070: 5378 e6bd 5e67 b33d 7c1a a23c 7acc 883c
00000080: b7e3 75be 3c4b 113e ea09 843c 8aa0 bf3d
00000090: 2c1b 703d 6bae 17bc 9a6c 87bd 090b 5cbc
000000a0: 117b da3c 6e9c a13c 4791 ecbd 3e52 19bd
000000b0: 0dc7 693d c1d5 643d f4b8 50bd 3bd8 a43d
000000c0: 06e1 3fbd 7f1e 2bbd a67a a1bd 33f9 8a3d
000000d0: eb09 163d 0978 b5bd 6e49 8a3d 562b 733d
000000e0: 50fc ef3d 323e b63d a166 3e3d 4685 083c
000000f0: 4dbe 193e 58a7 453e e4a7 00be 3e95 f5bd
00000100: 4e49 073e fb51 60bc 6fb5 bb3c c9e8 fbbd
00000110: a0b4 06bd c860 82bd 5983 38be b47b f93d
00000120: dce9 77bd 31f6 a63d b461 02be 2d43 80bd
00000130: 5b5b 853b 63e5 2cbd 6a2d 533c 552a 48be
00000140: 3efe 1cbd 9315 ecbc 7536 74bd bb54 d43c
00000150: eed0 24bd 46c4 61bd 9e63 5fbd c271 b93d
00000160: f035 e8bc 2722 c83d 25fd e63d 86fd 113b
00000170: 3a73 c5bc 8198 323e 191b 19be dbea a9bd
00000180: cb3b 53ba a411 03bd 8975 de3b 28ba 303e
00000190: 1440 2b3e 8442 2dbe 52c8 193d c6f0 0f3e
000001a0: 6453 1d3e d6bd 8f3d 3a73 dbbc 48e7 dbbc
000001b0: a137 0a3c 3bc3 543d 5697 fbba d901 0bbd
000001c0: 4b63 febd 90f7 b83d e983 9b3d ede2 99bd
000001d0: 8cab 693e 4ee2 0dbc fa72 c0bd 34f2 43bd
000001e0: 5d19 67be a068 43be 3611 c23c e7cd f5bd
000001f0: 1814 ac3d 8325 8dbd fad0 b6bd 58bc 30bd
00000200: b1d8 b5bd bb47 61bd bced c5bd 2e04 063e
00000210: 0262 aa3c 2a4e 753e c058 f3bb f203 3cbd
00000220: a209 383d c65a 613c 623c 023e af4c 1fbe
00000230: 6bd2 903d 2da9 303d da2d 1b3e 2895 253e
00000240: d579 1c3e f072 983c 7d50 fa3d 106a 67bd
00000250: 7b2f 133e 7d38 a0bd 6c57 bc3d e583 43be
00000260: 9999 a1bd fc3b 043d b155 893d 9571 233e
00000270: 706d 83bd efbb 39bd 2a84 9bbd 80f7 c5bd
00000280: b48c 03bc 4e3d 8e3d 30db cf3d c570 b43d
00000290: fa1c 4dbc f930 79bc 3cc8 16bd c9d0 d33d
000002a0: b84c e7bd 4852 013e 1f19 b03d 179b 3bbe
000002b0: 58f7 903d b1e3 873b d272 6bbe 931e b4bd
000002c0: f73e bd3d 8567 9f3c 5363 1ebe 75a4 143e
000002d0: b00b a63d 81cc afbd e690 29bd 4b51 be3d
000002e0: 8806 49bc 7b16 693d 3de8 72bd 0abf a33d
000002f0: aa3e 45be daaf 0bbd 42b7 03be 59ed 9bbd
00000300: 5dcb 87bd 061e 9dbd 80eb bebc 3f67 26bd
00000310: 187b 77bd 4fff 9bbd e756 dcbd a9ca 87be
00000320: cf75 813e d8df 06be f5bc efbc aaee 31be
00000330: cca5 bebd a7cd 743b 1bb8 9d3d ebb3 dd3c
00000340: 8459 84bc 858d a7bd e323 fe3d cfc2 31be
00000350: 41d9 b63d f54a e6bd 692b 643e 3387 633d
00000360: cd9d 603c fd9d cebd c563 b93c f8dd 063d
00000370: b47d 113e 30b5 423c 4475 ca3c 0c8a 00be
00000380: 1888 683d 1a72 9dbc 11c2 51bd 614f a13d
00000390: 820a 90bb 97ae 03be 98ab 253e d5e1 353c
000003a0: 555b 37bd de51 adbc 6e05 dcbd ea9b 38be
000003b0: a808 853d 913c 063e 2008 afbd 45c3 91bd
000003c0: 9360 c8bd 15ea 7fbd ff80 0d3c 6d85 72bd
000003d0: f5ba 873d 3e60 063e 4ca2 81be 19a8 cb3b
000003e0: df5c 903b b609 47be 0bcf 24be ddcf a13d
000003f0: 49d3 963d 01bc 2abe 0aeb e2bc e856 003d
