results_kitti/Log_11011605/kernel_points/epoch61/layer_0_resnetb_1_conv3.npy (npy, 16512 bytes, 1 tensors)

array f4 [32, 128]
0	0xbe7c6f87	-0.2465192
1	0xbd3701e9	-0.044679556
2	0xbf19f491	-0.60138804
3	0x3ec717c6	0.38885325
4	0xbe9cdf59	-0.3063915
5	0xbe7fbe4c	-0.24974936
6	0xbec21cd7	-0.37912628
7	0x3e6f8058	0.23388803
8	0x3cb2d8b8	0.021831855
9	0xbdee5133	-0.11636581
10	0x3e6e5527	0.2327467
11	0xbe186a7a	-0.14884368
12	0x3a6b82bb	0.0008984019
13	0xbe966dbe	-0.29380602
14	0xbd96ba06	-0.073597
15	0x3b938c2d	0.0045027942
16	0xbdcbdd8d	-0.09954367
17	0xbf021cfd	-0.5082548
18	0xbdabcc14	-0.08388534
19	0xbe5bcbe8	-0.21464503
20	0xbe39a22f	-0.18128274
21	0xbf30cc2b	-0.69061536
22	0x3eafb93c	0.3432101
23	0xbe608975	-0.21927436
24	0xbbbc16d8	-0.005740028
25	0xbcde245d	-0.027116949
26	0xbeceef16	-0.40416783
27	0x3e9126eb	0.28350005
28	0x3eb87e83	0.3603402
29	0x3e301b94	0.1719802
30	0xbe77354f	-0.2414143
31	0x3e6c8dbd	0.23100944
32	0xbdc262c2	-0.09491493
33	0xbecdd146	-0.40198725
34	0xbeb2d3a8	-0.34927106
35	0x3f0ddafd	0.55412275
36	0x3e008602	0.1255112
37	0x3e942948	0.28937745
38	0xbe45442e	-0.1926429
39	0xbdde0988	-0.10841662
40	0x3eb8f17e	0.36121744
41	0x3eeb7f8c	0.45995748
42	0x3e59061e	0.2119374
43	0xbc939bbb	-0.018018594
44	0x3e8c0e40	0.27354622
45	0xbe0d9cd3	-0.13829355
46	0xbdd28443	-0.10279133
47	0x3e369e11	0.17833735
48	0xbda85a8c	-0.082203954
49	0xbea53dbf	-0.3227367
50	0xbec4c29f	-0.38429734
51	0xbee5eeff	-0.44908902
52	0x3e1c1976	0.15244088
53	0x3d802b80	0.06258297
54	0x3d3d20d2	0.046173878
55	0xbf0e3df5	-0.5556329
56	0xbcbfafaf	-0.023399202
57	0x3d4a64ab	0.04941241
58	0xbea531ef	-0.3226466
59	0x3e1b22f4	0.15150052
60	0x3e4cbba4	0.19993454
61	0xbe2e7e18	-0.17040288
62	0xbd3970fa	-0.04527376
63	0x3ec85dd7	0.39134094
64	0x3c52a9d0	0.012857869
65	0xbde1496d	-0.11000333
66	0x3dc9a729	0.098463364
67	0x3ee8d2bc	0.45473278
68	0xbdd96145	-0.10614256
69	0xbeb6f4c2	-0.3573361
70	0x3dd199c3	0.10234406
71	0xbe68f052	-0.22747925
72	0x3d63b944	0.055596605
73	0xbe11d6b8	-0.14242065
74	0x3eb7a648	0.3586905
75	0xbe6d99d8	-0.23203218
76	0xbeb66c1f	-0.35629365
77	0x3d374edf	0.04475295
78	0xbe9dd6b6	-0.30827874
79	0xbdd94ac7	-0.10609966
80	0xbf09de4b	-0.5385482
81	0x3e0d8d13	0.13823347
82	0x3e2da5b2	0.16957739
83	0xbe44554a	-0.1917316
84	0xbd35aec0	-0.044356108
85	0xbc899e60	-0.016799152
86	0x3e802c68	0.2503388
87	0xbe8f804a	-0.28027564
88	0xbf026d61	-0.5094815
89	0xbe4303c4	-0.19044405
90	0x3dd4491e	0.103655085
91	0x3e127967	0.14304124
92	0x3b77273f	0.0037712601
93	0x3d677de2	0.056516536
94	0xbe426f06	-0.18987665
95	0x3ef58659	0.47954062
96	0x3e55d7eb	0.20883147
97	0xbdd5c9a1	-0.10438848
98	0xbe65bc17	-0.22435032
99	0xbd3742f4	-0.044741586
100	0xbe80e701	-0.25176242
101	0x3dfc77dd	0.123275496
102	0xbe63c892	-0.2224448
103	0xbd121c20	-0.035671353
104	0x3e58b0eb	0.21161239
105	0xbecb4147	-0.3969824
106	0xbd5f4489	-0.05450872
107	0xbccedad2	-0.025250826
108	0x3eaf6a55	0.34260812
109	0x3db2a489	0.08722789
110	0xbee4a762	-0.44658953
111	0x3e0616b7	0.13094603
112	0x3f08fd37	0.53511375
113	0xbdd815fb	-0.105510674
114	0xbe5816de	-0.21102473
115	0xbb300141	-0.0026856216
116	0xbe3070aa	-0.17230478
117	0x3d4112e3	0.047137152
118	0x3eda6779	0.42657068
119	0xbd54d3a0	-0.051959634
120	0x3d6fdfeb	0.058563154
121	0x3d4bebe7	0.04978552
122	0xbe2d7892	-0.16940525
123	0x3e08cfba	0.13360491
124	0xbe2693cf	-0.16267322
125	0xbe4ed392	-0.20197895
126	0x3eb14654	0.3462397
127	0xbe8d1760	-0.27556896
128	0xbda8adcf	-0.08236276
129	0xbe17a525	-0.14809091
130	0xbe7bacd3	-0.24577646
131	0x3ec3fc26	0.38278311
132	0xbe59cfa6	-0.21270618
133	0xbe11df87	-0.14245425
134	0xbe74597e	-0.23862264
135	0x3e7dd9bb	0.24790089
136	0xbe6906c7	-0.22756492
137	0x3c9b0ef8	0.018928036
138	0x3e2ee875	0.17080863
139	0x3dcb0d0b	0.09914597
140	0xbcb2ade4	-0.021811433
141	0xbedf45aa	-0.43607837
142	0xbeb391a7	-0.3507206
143	0xbe5ebb9a	-0.21751252
144	0xbe2a76d7	-0.16646896
145	0xbddd745f	-0.10813212
146	0x3d46ddd9	0.048551414
147	0x3d85119e	0.06497501
148	0xbe8c7aa2	-0.2743731
149	0x3e1e15ce	0.15438005
150	0x3ded4b16	0.11586587
151	0xbce6ab07	-0.028157724
152	0x3ca36666	0.019946288
153	0xbe4deb9a	-0.20109406
154	0xbf025b3b	-0.50920457
155	0xbda8385c	-0.08213875
156	0xbed0d6be	-0.40788835
157	0xbf190e00	-0.5978699
158	0x3daf234a	0.08551653
159	0x3e4ed31e	0.20197722
160	0xbe148230	-0.14502788
161	0xbeeaf5bb	-0.45890602
162	0xbe4b455b	-0.19850676
163	0xbdaf1eeb	-0.08550819
164	0xbd9e38f9	-0.077257104
165	0x3de5773f	0.11204385
166	0xbe54cd1e	-0.20781371
167	0x3e374389	0.17896856
168	0x3d4f658f	0.050633963
169	0x3c1c5fdd	0.00954434
170	0x3de06a8c	0.10957822
171	0xbee9a76a	-0.4563554
172	0xbd4a12ac	-0.049334213
173	0x3e55362d	0.20821448
174	0xbd9cd6ee	-0.07658182
175	0xbe183c2d	-0.14866705
176	0x3d1743a7	0.036929753
177	0x3b094e77	0.002095131
178	0xbe6c4694	-0.23073798
179	0xbecde601	-0.40214542
180	0xbe12a9f2	-0.14322641
181	0x3eae1a12	0.34004265
182	0xbde340e6	-0.11096363
183	0xbe977dd4	-0.29588187
184	0x3e9d2a05	0.3069612
185	0x3e776d5c	0.24162811
186	0xbeb9fd94	-0.36326277
187	0xbd1c21f3	-0.038118314
188	0xbe412934	-0.18863374
189	0xbea21c10	-0.31662035
190	0xbe0ad003	-0.13555913
191	0x3eb57c96	0.35446614
192	0xbe90aa95	-0.28255144
193	0xbd50b336	-0.05095216
194	0xbdeb52cc	-0.114904016
195	0xbeed25d0	-0.4631791
196	0xbe170165	-0.14746626
197	0xbe837b4b	-0.25680003
198	0x3d3e4a2b	0.04645745
199	0xbde5dbdf	-0.11223578
200	0xbdb34ecc	-0.08755264
201	0xbe08c6f4	-0.13357145
202	0x3de515b2	0.11185779
203	0xbe679f05	-0.22619255
204	0xbef4067d	-0.476612
205	0x3d7353cd	0.05940609
206	0xbc7824c9	-0.015145489
207	0x3d129122	0.03578294
208	0x3e85e875	0.26153913
209	0x3e68b142	0.22723868
210	0x3ee19c91	0.44064763
211	0xbdfff08c	-0.124970526
212	0xbe3759c5	-0.17905338
213	0x3b708e7c	0.003670602
214	0x3d3944ac	0.045231506
215	0x3e9144de	0.28372854
216	0xbe0c3631	-0.13692547
217	0xbf02042e	-0.5078763
218	0x3e6f7ada	0.23386708
219	0xbec1e368	-0.3786881
220	0x3e9791c0	0.29603386
221	0xbd38c298	-0.045107454
222	0xbdd86e23	-0.10567882
223	0x3dc62b7e	0.09676264
224	0xbe409cff	-0.1880989
225	0xbe46ccfb	-0.19414131
226	0xbe961ad3	-0.2931734
227	0xbe9fbdf3	-0.31199607
228	0xbed4e3d9	-0.41580084
229	0x3e4afd1d	0.19823118
230	0xbdabe739	-0.083937116
231	0xbe377836	-0.1791695
232	0xbe983610	-0.29728746
233	0x3d17bbe8	0.037044436
234	0x3edddbe5	0.4333183
235	0x3e6f1b39	0.23350228
236	0x3e656b49	0.22404207
237	0xbe26cab6	-0.16288266
238	0xbdf5c538	-0.12000507
239	0xbeb33465	-0.3500091
240	0x3dd5e4b6	0.10444014
241	0xbc1cd46e	-0.009572132
242	0xbe3bd740	-0.1834383
243	0xbde19a4e	-0.110157594
244	0xbca5a567	-0.020220472
245	0xbcc6ec0a	-0.024282474
246	0xbf0a9df6	-0.5414728
247	0xbd9a13ea	-0.075233296
248	0x3dc586a3	0.096448205
249	0xbdd81fbc	-0.10552928
250	0x3e6ed8b1	0.23324849
251	0xbdd95434	-0.106117636
252	0xbee8d721	-0.4547663
253	0xbe3fcaed	-0.18729754
254	0xbe3fca35	-0.1872948
255	0xbeecdc7a	-0.4626196
