results_kitti/Log_11011605/kernel_points/epoch61/layer_2_resnetb_strided_1_conv3.npy (npy, 262272 bytes, 1 tensors)

array f4 [128, 512]
0	0x3d702638	0.0586302
1	0xbd9084f1	-0.070566066
2	0xbb0f1c16	-0.002183681
3	0xbc5d3117	-0.013500473
4	0x3dcd89ac	0.100360245
5	0x3cb92f04	0.022605427
6	0xbd8562e4	-0.065130025
7	0x3dbe4697	0.09290808
8	0xbdb298cf	-0.08720552
9	0xbb852565	-0.0040632957
10	0x3d096db5	0.03355189
11	0xbdc555bd	-0.09635494
12	0xbda2c8d2	-0.0794846
13	0x3d002981	0.03128958
14	0xbce4e2eb	-0.027940234
15	0xbc9c39d4	-0.019070543
16	0xbdf7544d	-0.12076626
17	0x3d652507	0.055943515
18	0xbd02cb9d	-0.031932462
19	0xbd06c480	-0.03290224
20	0xbdace1d9	-0.084415145
21	0x3c89eb4e	0.016835835
22	0x3d959abb	0.07304903
23	0xbd65e3d8	-0.05612549
24	0xba998e69	-0.0011715415
25	0x3d2e8b9f	0.04261362
26	0x3db2e64f	0.08735334
27	0x3ddfa792	0.109206334
28	0x3d798b13	0.060923647
29	0xbdc9f89a	-0.0986187
30	0xbc5d851a	-0.013520503
31	0xbc1c60b1	-0.009544537
32	0xbd901599	-0.070353694
33	0x3cc392df	0.023873745
34	0xbd3c3e4c	-0.04595785
35	0x3b318425	0.002708682
36	0xbda6a8f0	-0.08137691
37	0x3d52afe2	0.051437266
38	0xbb850fc6	-0.004060718
39	0x3cb917ec	0.022594415
40	0xbd81c2de	-0.06335996
41	0xbe05a097	-0.13049541
42	0x3d48d927	0.049035218
43	0x3d1dad4b	0.038495343
44	0x3df7d0fa	0.12100406
45	0xbafc15b1	-0.0019232539
46	0xbd3c2496	-0.04593333
47	0x3e12aa90	0.14322877
48	0xbc51891d	-0.012789038
49	0xbdade106	-0.084901854
50	0x3d1c8d8b	0.038220923
51	0x3d000214	0.03125198
52	0x3e01172c	0.12606496
53	0xbc6aa2b2	-0.014321016
54	0xbd6f8800	-0.05847931
55	0xbdbe0aea	-0.092794254
56	0x3d5df40d	0.054187823
57	0x3c2a4f4e	0.010394884
58	0x3d941c3c	0.07231948
59	0xbd596fd0	-0.05308515
60	0x3d8db0d5	0.06918494
61	0xbde8ab51	-0.11360801
62	0x3d77665a	0.060400344
63	0x3e019f03	0.12658314
64	0x3d123989	0.0356994
65	0xbe4e4b9d	-0.20146032
66	0xbadba804	-0.0016758447
67	0x3cefbc7e	0.029264685
68	0x3dc3d914	0.09562889
69	0x3cd856d4	0.02640859
70	0xbb4501e5	-0.0030060944
71	0xbd811803	-0.06303408
72	0xbd913664	-0.07090452
73	0x3d23c06c	0.03997843
74	0xbd9b08af	-0.07570016
75	0x3d4a8b18	0.049449056
76	0x3d1937b8	0.037406653
77	0xba19ec0e	-0.00058716617
78	0x3c1b1a92	0.009466784
79	0x3b2569fa	0.002524017
80	0xbd653b3c	-0.055964693
81	0xbd8b7ba7	-0.06810694
82	0x3c3e49f2	0.01161431
83	0xbd6712b9	-0.05641434
84	0x3d094c15	0.033519823
85	0x3df04f5e	0.11733888
86	0x3d1cda74	0.03829427
87	0xbd434a0e	-0.047678046
88	0xbd353fb4	-0.044250205
89	0x3daf27f9	0.08552546
90	0x3afd5326	0.0019327148
91	0xbc351c26	-0.011054074
92	0x3e08af98	0.13348234
93	0x3b61275d	0.0034355738
94	0xbd859686	-0.06522851
95	0x3c9fa141	0.019486072
96	0x3d3b9cd4	0.04580386
97	0x3dfcd1d7	0.12344711
98	0xbd6157a3	-0.055015218
99	0x3da96bfd	0.0827255
100	0xbdbfaa1f	-0.0935862
101	0xbc915be3	-0.01774401
102	0xbb2eaa3d	-0.0026651763
103	0xbd02a2f1	-0.031893674
104	0xbd4637e3	-0.04839314
105	0xbcc4c438	-0.024019346
106	0x3daa8895	0.08326832
107	0xba7a209f	-0.0009541604
108	0xbd0be042	-0.034149416
109	0x3ccc0341	0.024903895
110	0x3c09309f	0.008373409
111	0x3d0255e6	0.0318202
112	0x3c18848d	0.009308946
113	0x3dafff53	0.08593621
114	0xbd067f8d	-0.032836486
115	0xbc8401bb	-0.016114106
116	0xbd567690	-0.052359164
117	0x3d1a57c7	0.037681367
118	0x3dcb01a7	0.099124245
119	0xbdab4f58	-0.08364743
120	0x3cd4b980	0.02596736
121	0xbd9e6ed0	-0.077359796
122	0xbda6d05e	-0.08145212
123	0xbc461d64	-0.012091968
124	0x3d8ad9fe	0.0677986
125	0xbc9dc4dd	-0.01925891
126	0x3d88e11e	0.06683563
127	0xbcd83571	-0.02639267
128	0x3b84a05f	0.004047438
129	0x3d64930e	0.055804305
130	0xbcacdf83	-0.021102672
131	0x3db233bd	0.087012745
132	0x3cb2d8e4	0.021831937
133	0xbda4e87b	-0.08052155
134	0x3dab0508	0.08350569
135	0xbd28f3bc	-0.04124807
136	0x3e3f5ddb	0.18688147
137	0x3cf901f6	0.030396443
138	0xbc2f48bc	-0.010698494
139	0x3c0efd14	0.008727331
140	0x3da15f3e	0.07879494
141	0x3d23a78f	0.03995472
142	0xbdbd57fe	-0.09245299
143	0x3da77fe2	0.081786886
144	0xbc92090c	-0.01782658
145	0xbdb6afcf	-0.089202516
146	0xbdc922cb	-0.09821089
147	0xba340dfc	-0.0006868539
148	0x3ca9168c	0.020640634
149	0xbd6a7635	-0.057241637
150	0x3d07b68a	0.033133067
151	0xbe357111	-0.17718913
152	0xbd031056	-0.031998
153	0xbc57fc41	-0.013182701
154	0x3c461a59	0.012091243
155	0x3e0d6c68	0.13810885
156	0xbdf4b876	-0.11949246
157	0x3d7f8d97	0.06239089
158	0x3cc0d785	0.023540268
159	0xbc209b19	-0.009802603
160	0x3d74971b	0.059714418
161	0xbd86e960	-0.065874815
162	0x3c9fda52	0.019513283
163	0xbc1552f8	-0.00911402
164	0x3d55b594	0.05217512
165	0x3c2d2431	0.010567711
166	0xbde7d6b9	-0.11320252
167	0xbe173da0	-0.14769602
168	0xbc384dd4	-0.011249024
169	0x3c476821	0.012170822
170	0xbdd2ec85	-0.10299019
171	0x3cb42d9a	0.0219944
172	0x3c01e987	0.007929212
173	0xbd449b96	-0.04799994
174	0xbd6c64d2	-0.057713337
175	0xbc7ccff9	-0.015430444
176	0x3d72a7c1	0.059242014
177	0x3d13e043	0.036102545
178	0xbe28ff94	-0.16503745
179	0x3d4f9639	0.050680373
180	0x386660e0	5.4926495e-05
181	0x3d6d83cd	0.057987023
182	0xbc393a60	-0.011305422
183	0x3da316bc	0.079633206
184	0x3d401981	0.046899322
185	0x3dea9d84	0.11455825
186	0x3bc697db	0.006060583
187	0xbce3ccd6	-0.027807634
188	0xbd556c9a	-0.052105524
189	0xbdcec342	-0.10095836
190	0xbd7623f5	-0.060092885
191	0xbd4db43d	-0.050220717
192	0x3d15155f	0.036397334
193	0x3bcc89f8	0.006242033
194	0xbdb078a9	-0.08616764
195	0xbda6367b	-0.0811586
196	0xbd2937e0	-0.041313052
197	0xbbca6ba2	-0.0061773816
198	0xbd44295a	-0.047891
199	0x3bae3f53	0.0053176074
200	0x3d63fb2a	0.05565945
201	0x3cf75aff	0.030194758
202	0xbd840462	-0.064461485
203	0x3d213853	0.039360356
204	0xbcf680f4	-0.030090787
205	0xbb17f467	-0.0023186447
206	0xbd6da953	-0.05802281
207	0x3aa2d96f	0.0012424419
208	0xbdc835a2	-0.09775855
209	0xbd83732a	-0.0641845
210	0x3e0f72b7	0.14008604
211	0xbd2e4568	-0.04254666
212	0xbd876ee2	-0.06612946
213	0x3d46c474	0.048527196
214	0x3d484386	0.04889252
215	0xbd53bb2e	-0.05169218
216	0x3cb9b9e6	0.022671651
217	0xbdfa7b91	-0.122306
218	0xbe0420b8	-0.12903106
219	0xbb764765	-0.0037579176
220	0x3d735960	0.059411407
221	0xbdbca5f5	-0.09211341
222	0xbcd53078	-0.026024088
223	0xbd7727c0	-0.060340643
224	0x3d9f83e8	0.07788831
225	0xbd3a3ca6	-0.045467995
226	0x3db5d173	0.0887784
227	0xbcf54a9a	-0.0299428
228	0xbdfa7f6d	-0.12231336
229	0x3d6752aa	0.05647532
230	0x3d9d85d9	0.07691545
231	0xbd230201	-0.039796833
232	0xbd1fa4dd	-0.038975585
233	0xbe03fa48	-0.12888443
234	0x3ddd11f2	0.107944384
235	0x3c3629a2	0.0111183245
236	0x3d06c414	0.03290184
237	0x3d30828a	0.04309324
238	0x3d525bfb	0.05135725
239	0x3c56e48b	0.013116012
240	0xbd99564b	-0.07487162
241	0xbdd9ef0b	-0.10641297
242	0xbd20292e	-0.039101772
243	0xbd652539	-0.0559437
244	0x3d6eb4d7	0.05827793
245	0xbd7c833c	-0.061648592
246	0x3cc434c9	0.023950951
247	0xbe1ccedc	-0.15313286
248	0xbdb04721	-0.08607317
249	0x3ce357a6	0.027751755
250	0xbd8818bd	-0.066453435
251	0x3d38826c	0.045046255
252	0x3ca12948	0.019673005
253	0x3daaa39b	0.083319865
254	0x3d82918c	0.06375417
255	0xbdaba942	-0.08381893
