results_kitti/Log_11011605/kernel_points/epoch61/layer_2_resnetb_strided_1_conv2.npy (npy, 983168 bytes, 1 tensors)

array f4 [15, 128, 128]
-0.011166459 0.045575794 0.15656617 -0.073643886 0.0773039 -0.0467339 0.17332773 -0.23861802
-0.15507835 -0.14252168 -0.15100323 0.09723362 0.027941657 -0.1202215 0.10590974 -0.046228226
0.03455954 -0.11506221 0.14744698 -0.00564661 0.016003665 0.0006455688 0.07099736 0.009331999
-0.12738371 0.13605316 -0.055864003 0.12639463 -0.010998822 -0.011944246 0.19903977 -0.2528952
-0.07743026 -0.20799455 0.11413614 -0.021711791 -0.22139266 -0.061203394 0.17763387 -0.20392954
-0.11115964 0.006276798 -0.08972974 0.078963704 0.011322554 -0.06794208 0.24405296 -0.16146737
0.051741228 0.119844794 0.09214429 -0.17053361 -0.008213755 0.0028110975 -0.15289403 -0.044627912
0.20411134 -0.05345091 0.13960156 0.017562889 -0.2056723 0.22427192 -0.057195913 -0.049547054
0.15027148 -0.16515453 0.065020315 0.030617949 0.049697325 0.088637576 0.12778232 -0.11195842
0.0378695 -0.07919801 -0.13164937 -0.17901951 -0.117190234 -0.057917617 -0.101516195 0.0035631703
0.012481154 -0.07930029 -0.06491248 -0.115445904 -0.1584408 0.09250066 0.16012119 -0.16083783
-0.04338883 0.12966444 -0.024882056 -0.020966878 -0.0687415 0.0015582832 -0.07478376 0.046628315
-0.09040003 -0.036586966 0.0070395926 -0.018206073 0.15358113 -0.20205584 0.12415868 -0.120760374
0.15513349 -0.047037497 0.08304358 0.32351562 -0.014263739 -0.018482264 0.07551472 0.16304095
0.06629099 -0.016010689 0.07662484 0.13080922 -0.025283039 -0.11618993 -0.052053455 0.007494031
-0.12021436 -0.039307874 0.036676057 0.18568955 0.083296716 0.0067287264 -0.100572065 0.13790731
-0.13467462 0.098315485 0.16068688 0.013859297 0.0016600094 0.13267404 0.15373398 -0.036076926
0.12208188 0.15125255 -0.016466241 0.15328729 0.022710556 -0.051574316 0.08057414 0.024851147
-0.10389107 0.0767541 -0.0011647476 0.19353606 0.090792455 0.13690066 0.014544861 -0.1395347
-0.04318696 -0.07120411 0.11358866 0.06881404 0.0639867 0.121264614 -0.040938057 -0.042300157
0.1514342 -0.050350025 -0.20305036 0.030594468 -0.18937695 0.12075641 0.01274315 0.16814472
0.00506203 0.10349351 -0.15256792 0.110243924 0.025902258 -0.27788642 -0.015322147 0.101952456
-0.10049121 -0.086670905 0.058396924 -0.031016974 0.041575696 -0.107906334 -0.034578316 -0.1635859
-0.13884276 0.007225503 -0.0071490374 -0.12964776 -0.02993428 0.08746055 -0.023586947 -0.04762753
0.15239163 -0.098004684 -0.20070685 0.24462299 0.012797186 -0.012449064 0.04176804 0.09460318
0.18927325 0.06787131 -0.022526398 0.08002489 0.054469213 0.022289291 -0.19192763 0.1236175
0.08392609 0.14057939 -0.073534966 -0.11908444 -0.09051329 -0.032717023 0.025798332 0.037926722
-0.068722546 0.15064745 -0.2398109 -0.04665707 -0.18252385 0.09396815 -0.050632015 0.122538
0.041046444 -0.029084299 0.057217043 -0.069091074 0.050137643 -0.14384013 -0.017847177 -0.047619905
0.15085982 0.26499793 0.07764813 0.12642035 0.11168337 0.041454464 -0.12546244 -0.025057169
-0.03540656 -0.16689579 -0.034755304 0.0021075583 0.21282206 0.16350566 0.06145746 0.0021848977
-0.023952158 -0.14875084 0.014630732 -0.0584855 -0.19037293 -0.20182335 -0.14797142 -0.05111265
00000000: 86f3 36bc afad 3a3d e252 203e 9bd2 96bd
00000010: 8251 9e3d 0c6c 3fbd d37c 313e 4858 74be
00000020: dccc 1ebe 34f1 11be 97a0 1abe 6c22 c73d
00000030: e7e5 e43c b136 f6bd 35e7 d83d cf59 3dbd
00000040: 4e8e 0d3d bca5 ebbd 57fc 163e 3307 b9bb
00000050: 1e1a 833c 643b 293a 1067 913d 3ee5 183c
00000060: e070 02be 8551 0b3e a7d1 64bd 986d 013e
00000070: 6734 34bc ccb1 43bc 15d1 4b3e 7b7b 81be
00000080: c293 9ebd 86fc 54be 35c0 e93d eddc b1bc
00000090: c2b4 62be 69b0 7abd a7e5 353e e8d2 50be
000000a0: aaa7 e3bd 99ad cd3b 3ac4 b7bd b9b7 a13d
000000b0: 3c82 393c 3825 8bbd 05e9 793e b457 25be
000000c0: 9cee 533d 3071 f53d 25b6 bc3d 5da0 2ebe
000000d0: fc92 06bc 643a 383b 4190 1cbe c2cb 36bd
000000e0: 9002 513e 57ef 5abd b6f3 0e3e 0ce0 8f3c
000000f0: c29b 52be 8aa7 653e 4346 6abd daf1 4abd
00000100: c4e0 193e 451e 29be 5f29 853d 7ed2 fa3c
00000110: 6c8f 4b3d 9e87 b53d 5ed9 023e 754a e5bd
00000120: 0d1d 1b3d 9132 a2bd 18cf 06be e450 37be
00000130: 6f01 f0bd 063b 6dbd b9e7 cfbd 1484 693b
00000140: c17d 4c3c 3168 a2bd d6f0 84bd e76e ecbd
00000150: 4e3e 22be fc70 bd3d cff6 233e acb2 24be
00000160: 7cb8 31bd c1c6 043e 74d5 cbbc bbc2 abbc
00000170: 58c8 8cbd 4f3f cc3a 3a28 99bd 55fd 3e3d
00000180: a723 b9bd 37dc 15bd 62ac e63b e724 95bc
00000190: 5f44 1d3e bae7 4ebe e846 fe3d 3751 f7bd
000001a0: 50db 1e3e 64aa 40bd c112 aa3d d7a3 a53e
000001b0: 75b2 69bc 1e68 97bc 76a7 9a3d 35f4 263e
000001c0: 92c3 873d d928 83bc 7ced 9c3d daf2 053e
000001d0: 601e cfbc fcf4 edbd 0136 55bd 7d90 f53b
000001e0: f232 f6bd 4b01 21bd a239 163d 6725 3e3e
000001f0: 7897 aa3d a67c dc3b baf8 cdbd 9337 0d3e
00000200: 25e8 09be a159 c93d 1a8b 243e 1b12 633c
00000210: ac94 d93a b4db 073e 716c 1d3e 66c5 13bd
00000220: 1106 fa3d f3e1 1a3e 36e4 86bc 58f7 1c3e
00000230: 7d0b ba3c 973f 53bd 0e04 a53d a294 cb3c
00000240: d7c4 d4bd 4131 9d3d 72aa 98ba 512e 463e
00000250: 65f1 b93d b02f 0c3e 924d 6e3c 2fe2 0ebe
00000260: cfe4 30bd 76d3 91bd 2ca1 e83d 60ee 8c3d
00000270: 750b 833d 9559 f83d aaae 27bd ee42 2dbd
00000280: 9111 1b3e d43b 4ebd 6fec 4fbe 40a1 fa3c
00000290: 08ec 41be 234f f73d a5c8 503c 212e 2c3e
000002a0: 63df a53b 68f4 d33d c43a 1cbe 91c7 e13d
000002b0: f930 d43c 2147 8ebe be09 7bbc 73cc d03d
000002c0: 56ce cdbd 8480 b1bd 9d31 6f3d 4f17 febc
000002d0: 474b 2a3d fffd dcbd fea1 0dbd 1083 27be
000002e0: cc2c 0ebe eac3 ec3b 7942 eabb 62c2 04be
000002f0: bc38 f5bc 841e b33d 6a39 c1bc 1615 43bd
00000300: 8d0c 1c3e aeb6 c8bd 1986 4dbe 737e 7a3e
00000310: 4aab 513c 29f7 4bbc f714 2b3d 50bf c13d
00000320: d9d0 413e 1d00 8b3d 4889 b8bc 17e4 a33d
00000330: 1c1b 5f3d 0898 b63c ad88 44be 2c2b fd3d
00000340: 71e1 ab3d 0bf4 0f3e 8099 96bd 8be2 f3bd
00000350: 085f b9bd 4902 06bd 0657 d33c 0d59 1b3d
00000360: 68be 8cbd 5343 1a3e fd90 75be 7c1b 3fbd
00000370: 88e7 3abe 6072 c03d 8463 4fbd 34f5 fa3d
00000380: 5120 283d 3242 eebc 6b5c 6a3d 9f7f 8dbd
00000390: 215d 4d3d d44a 13be 3e34 92bc 170d 43bd
000003a0: ff7a 1a3e cfad 873e fc05 9f3d 5674 013e
000003b0: 40ba e43d 28cc 293d 3a79 00be b144 cdbc
000003c0: 7806 11bd bbe6 2abe 945b 0ebd f61e 0a3b
000003d0: 07ee 593e 076e 273e d1ba 7b3d 8030 0f3b
000003e0: 5137 c4bc 2452 18be bdb5 6f3c 7e8e 6fbd
000003f0: 1ff1 42be c8aa 4ebe d285 17be 805b 51bd
