results_kitti/Log_11011605/kernel_points/epoch61/layer_1_resnetb_0_shortcut.npy (npy, 131200 bytes, 1 tensors)

array f4 [128, 256]
000000 ec e6 54 bd eb 36 70 3d d0 89 b9 bd 53 24 ac bd
       -0.051978037 0.058646124 -0.09059489 -0.08405366
000010 f9 9a cb bc ce 6b aa 3d 26 e2 9b 3e 2d 84 79 3e
       -0.02485417 0.08321343 0.30445975 0.24366827
000020 0a 08 af bd 15 3f 46 3d c9 a1 14 3e db b2 18 be
       -0.08546455 0.048400003 0.14514841 -0.14911978
000030 68 7e 9e bd 26 09 60 3d da 85 d2 3c 58 cc e9 3c
       -0.07738954 0.054696225 0.025698591 0.028539822
000040 84 de aa 3d 7a 40 52 3d 3d 66 31 bd ba d0 ac 3d
       0.08343223 0.05133102 -0.043310393 0.08438249
000050 92 af 00 3e b3 04 07 3d 83 ae d7 3c 13 a5 cf 3d
       0.12566975 0.032963466 0.02632833 0.10138907
000060 79 f4 d7 bd dd 3e 20 3e 66 ba 19 be 78 1c a2 3d
       -0.10544676 0.1564898 -0.15012512 0.07915586
000070 bc 4d 8e bd 58 64 fc 3d dd ff 56 bd 31 3a e2 3d
       -0.069484204 0.123238266 -0.052490104 0.110462554
000080 4a 5f e1 bd a9 af 98 3b ca 16 95 bc 50 3b 83 bd
       -0.11004503 0.004659612 -0.018199343 -0.06407797
000090 53 3f c0 bd 11 ab 34 3d 99 b2 93 3d 8e db 6e bd
       -0.09387078 0.044108454 0.07211799 -0.058314852
0000a0 08 3b fb 3c 00 a0 ab bd be 97 31 3e 41 6c 35 bc
       0.030667797 -0.08380127 0.17343041 -0.011073173
0000b0 9f 5e 17 bd 28 ec e5 3b 42 d4 37 3d 7b 56 1c bd
       -0.036955472 0.0070166774 0.04488016 -0.03816841
0000c0 77 06 ab 3d b2 ea 3b bd f8 c4 ba 3b c9 64 0c be
       0.083508424 -0.04587812 0.00569975 -0.13710321
0000d0 8a e9 c5 bc 43 90 54 bc ac 4a c4 3d 99 19 4c bb
       -0.024159212 -0.012973848 0.09584555 -0.0031143187
0000e0 d2 5a 4a 3d 3b 6b 20 be 53 33 5c 3d 41 7d e4 3c
       0.04940302 -0.15665905 0.053759884 0.027891757
0000f0 3b c8 d6 3c cc 27 70 bd 2e 71 ad 3d 8f 02 3e bc
       0.026218524 -0.058631703 0.08468853 -0.01159729
000100 66 39 19 3e d4 f8 27 be 3e ae b0 3d c3 4f 64 bd
       0.14963302 -0.16403514 0.08626984 -0.05574013
000110 c0 aa 56 bd af c6 0a bd 06 3f 8f 3d fb 1d a5 3d
       -0.052408934 -0.033880886 0.06994443 0.08062359
000120 6f 13 14 3d 08 23 95 bd da 33 84 3c 13 f5 e9 3c
       0.036151346 -0.07282072 0.016138006 0.028559243
000130 93 63 33 bd cd a6 af bd 11 8e e6 3d 78 56 5f bc
       -0.043796133 -0.085767366 0.11257566 -0.013631456
000140 39 ac 5f be 80 75 68 be 63 59 c1 bd bc f0 38 3e
       -0.21843041 -0.22701073 -0.09440877 0.18060583
000150 ad 74 57 3c 8c b8 d3 bd c4 5e cf 3c 55 06 80 bd
       0.013150376 -0.10337934 0.025313742 -0.06251208
000160 04 a5 5e 3d a7 1f 4b 3d d6 ca 09 3d 74 c6 d8 bc
       0.05435659 0.049590733 0.033640705 -0.026461817
000170 3b be 95 3c e4 b7 0e 3d 05 db d8 3d cf 48 33 bd
       0.018279186 0.03484334 0.1058865 -0.043770608
000180 04 16 a5 3d 5c 57 92 bd 11 1e 57 be 8b 77 d9 3c
       0.0806084 -0.07145569 -0.21007563 0.02654626
000190 03 28 92 3d d9 55 12 3e 13 39 e7 3c 90 7d a4 3d
       0.07136538 0.14290561 0.028225457 0.08031762
0001a0 ac 08 13 3c cc 04 f7 bc 32 fd 1e bd 31 a3 32 3b
       0.0089742355 -0.030153655 -0.038815685 0.0027257914
0001b0 4c 80 5f 3d 6f b7 76 3c 9e 1e 8f bc 03 78 1f bc
       0.054565713 0.015058382 -0.017470654 -0.009733203
0001c0 09 f3 b3 3d 3e 8e 44 3d ed 18 6b bd 6d e0 52 3d
       0.0878659 0.047987215 -0.057396818 0.05148356
0001d0 32 9f 83 3c c4 ce 92 bd 51 63 a6 bd 0f c9 33 3c
       0.016067121 -0.07168344 -0.08124412 0.010973229
0001e0 18 e8 03 3d 85 f9 99 bd 95 14 2c be 9f c5 6a 3d
       0.032203764 -0.07518295 -0.16804726 0.057317372
0001f0 bc 01 b8 3d 5f d2 8c 3b d6 5a 98 bc b2 13 db 3d
       0.08984706 0.004297539 -0.018598001 0.10697116
000200 71 2f 8f bd 4a bb 6c bd fe 32 3f ba 92 ba bf bc
       -0.069914706 -0.0577958 -0.000729367 -0.023404393
000210 79 48 ae bd e3 52 c5 bc 15 9e 89 3c 38 53 2f 3c
       -0.08509917 -0.024087375 0.016799012 0.010700993
000220 00 28 96 bd 39 2e 05 3e de 34 25 3e 50 06 1d 3d
       -0.07331848 0.13005914 0.16133448 0.0383361
000230 43 39 40 3d 47 e5 32 be 0c 54 55 be d3 6b e9 3d
       0.04692961 -0.17470275 -0.20832843 0.11397519
000240 f4 9a 64 3e 58 a9 ab ba f9 6d ba 3d 0a 83 58 bd
       0.22324735 -0.0013096733 0.09103007 -0.052859344
000250 fa bf 96 3d 81 9f fa 3d 91 b9 ce bd 82 ab 2c bd
       0.073608354 0.12237454 -0.10093988 -0.04215575
000260 c2 32 d9 3c 89 7d fc 3d cc 46 48 bd 62 4b ec bd
       0.026513461 0.123286314 -0.048895642 -0.11537816
000270 b4 d8 54 3d 88 d3 85 bc 06 d2 c1 bc f0 bb 48 bd
       0.051964477 -0.016336218 -0.023659717 -0.049007356
000280 be 67 5a 3d c1 fc be bd 35 ec 5b 3e ba 04 b4 3c
       0.053321593 -0.09325553 0.21476825 0.02197491
000290 88 5e 8b 3d 5c a2 ac bd f5 d6 8c 3b 49 50 39 3d
       0.0680514 -0.08429405 0.004298086 0.04524258
0002a0 de a9 14 3c d9 3f a0 3d c9 9c 71 3d ce f2 bb bd
       0.009073703 0.07824678 0.058987413 -0.09177171
0002b0 e4 18 65 b9 1d c3 36 bd e1 db b7 3d 70 c7 00 3e
       -0.00021848414 -0.04461967 0.089774854 0.1257608
0002c0 e5 d2 98 bd 2e 57 3f 3e 38 8e 4a 3d 6b 1f 3e bd
       -0.074621 0.186856 0.049452037 -0.04641668
0002d0 93 28 bf bb aa a1 4c 3d ad d5 26 be ac c2 c0 3d
       -0.0058336942 0.049958862 -0.16292448 0.09412131
0002e0 5e 9d 05 be fa 8d b7 3d 6c 8f 45 be f5 18 9f 3d
       -0.13048312 0.08962627 -0.19292992 0.07768432
0002f0 3b c0 8f bd 64 21 8f bc e9 0e fe 3d 82 0d 14 bd
       -0.07019087 -0.017471977 0.12405188 -0.036145695
000300 95 32 3f bd 6e 51 06 3a 41 1e 58 be a5 4f 0b be
       -0.0466791 0.00051238283 -0.21105291 -0.136046
000310 30 a8 c5 3c 8a 19 e1 3d eb 53 06 be 21 e2 a7 3d
       0.02412805 0.10991199 -0.1311795 0.081974275
000320 b3 f1 29 3d 63 63 ee 3a f6 bb d6 bc ba f4 1c 3c
       0.041490268 0.0018187579 -0.026212674 0.009579832
000330 13 42 d0 bc d5 25 98 bd 9d f7 01 be ed 86 02 bd
       -0.025422132 -0.07429091 -0.12692113 -0.031866957
000340 99 0b 5d 3d 33 f9 1d 3e 94 a7 55 3d b6 e3 03 3d
       0.05396614 0.15427093 0.052161768 0.032199584
000350 99 08 1d be aa 09 4e bc 62 5f 54 3e a7 94 7c bd
       -0.15335311 -0.012575546 0.2073951 -0.061665203
000360 da 88 19 3e c4 df 26 3d 7d ee a2 3d ae e4 6c 3d
       0.14993611 0.040740743 0.07955644 0.057835273
000370 20 29 9e bc 2f f8 58 bd 7f f6 ac 3d 37 cb e5 3d
       -0.01930672 -0.05297106 0.08445453 0.11220401
000380 ab 46 90 bd 4d f4 a4 bc 96 df cc 3d 10 d0 e7 3d
       -0.07044729 -0.020136023 0.10003583 0.11318982
000390 7c dc b2 bc da 4f da bd 00 8b e4 3d e4 2f 4d bd
       -0.02183365 -0.10659762 0.11159325 -0.0500945
0003a0 4e aa fc 3d 44 71 a4 3c 8e b6 12 bd cf 4a 95 bd
       0.123371705 0.02007354 -0.03581863 -0.07289659
0003b0 11 e4 43 bd 1f 83 7b 3c df 7b 28 3c c0 5d 8b bd
       -0.047824923 0.015351086 0.010283439 -0.06804991
0003c0 cb 47 0d 3c ab 5e 85 3d d3 9b a0 bd 22 5c 27 be
       0.008623074 0.06512197 -0.07842221 -0.1634374
0003d0 47 f7 c1 3d 5e fa c8 bd aa 5c 0a 3c 0d 94 26 bd
       0.094709925 -0.09813379 0.008444944 -0.040668536
0003e0 81 4e 1b 3c d8 c8 cc 3d 58 40 7e 3d ed 64 26 be
       0.009479166 0.099992454 0.06207308 -0.16249438
0003f0 9c 7e f2 bd 87 02 57 3d ee 68 e1 3a f7 e4 49 3d
       -0.11840555 0.052492645 0.0017197409 0.049290624
