results_kitti/Log_11011605/kernel_points/epoch61/layer_0_resnetb_1_conv2.npy (npy, 61568 bytes, 1 tensors)

array f4 [15, 32, 32]
00000000: 7aa2 79be e36a 97bd 3e9d f93e fcc2 8fbe
00000010: b375 04bd 1c2f 1abe d79d 22bd 0031 07bf
00000020: 0b4e 5cbd 88d2 2c3f 1d87 353e 8faf 803e
00000030: c7f5 8c3d 4e70 17be cfdd adbd 4ea8 463e
00000040: ce4f ca3d 6da5 c03e 5938 79be 8831 443e
00000050: b61d 92bb 5a31 f73a 527a ac3e 1ad0 eebd
00000060: 387f 3a3e a4f1 2abb 80c8 07bd d320 1fbd
00000070: 099a abbe 73a2 cf3e 7ce4 44be 5363 f13d
00000080: 1a0f 4cbe b84e a6be 442e a63d 0a06 d1bd
00000090: e2d1 8cbe bf78 3f3d 84a9 49be d5ff 1b3f
000000a0: ca8f 093f 22c8 5d3d e7c3 233e 6b4f 3d3b
000000b0: d607 a4be 10ba 183e 7d78 d0be 391d 66bd
000000c0: 9d1f 083f e623 103f a424 77be aba1 b9be
000000d0: e374 ebbe 6151 cabe 54cb 8fbd 70de 083c
000000e0: d007 0cbe 9029 913d a9b5 b13e b4ea b9be
000000f0: 7197 003d 4774 60be 84d5 8f3c 4211 4c3d
00000100: e8c7 c13e 536d 603e e6b4 6cbc df89 a8bd
00000110: 34ae 593f 9dd4 bebe e895 7dbe 423d b73e
00000120: b906 343f 40e5 953d f001 e93e 6808 903e
00000130: 1fa0 913e cc68 72be 0890 88bd 3536 1cbe
00000140: 058e bb3e a5df 8dbc eebe 9cbf cc2c 9abe
00000150: c4aa ecbd 3348 543d 433a 3d3f 628f 523e
00000160: 829d 6dbe e80c 66be 311b f5bd 6fb1 703e
00000170: 71e8 71bd e5aa 083e 5cb1 f1bd ecac 9f3d
00000180: 0bc7 3abc 40e5 5e3e f8a7 e7bd 5c59 e83e
00000190: 8ec9 4c3d 3e28 31be dabc 83bc 48b6 21bf
000001a0: 8241 00be f2c4 753e 769b cc3e 4be3 6dbe
000001b0: 44cb 47be 830c 703e 126c 053d 2e92 abbe
000001c0: caf4 dfbd bdd8 1b3d 7f54 183e 6927 cfbd
000001d0: 1815 76be a242 c63e 2dc9 3a3f a271 f33b
000001e0: 77de e2bd 4a97 1ebe 4940 d03e b867 76be
000001f0: 371b b6be 88fc b5be 255f afbe 0d79 de3d
00000200: 40a3 013f 3faf 86bd f9cb e63c e19f 613f
00000210: 5f12 2abc a9f0 bebe 8d57 65be 9037 6cbe
00000220: d5da a0be 6211 ddbd 9af1 ae3e aecc 6fbd
00000230: 8d7b 99be 30bb 663e 5fee 143e f8a6 c8bd
00000240: 6587 3ebe e213 1abe 4dee ac3e 74f7 43be
00000250: ef41 5fbd 5cea d73d 578d 0b3f f6c1 7dbe
00000260: a82f 903e 1486 a7bd 5261 7bbe ae4e 123f
00000270: 2c24 f43c 6100 413e 0766 ef3d af6d b7bd
00000280: 628c 193e 6ffb dd3e 8a0a 543e ec7d 33be
00000290: 903c 19be 5766 b7be 131a 0a3e 06dc b8be
000002a0: 70de 13be 3d44 cebd 1a66 c7be 00ed 8d3e
000002b0: fd58 9fbe 02ed 583d c0fb 23ba a0fc 48be
000002c0: 822d 073e bd20 92bb e75b c4be d576 dbbc
000002d0: f31a 783e 2421 50be 90ca 19bf 5c52 53be
000002e0: c9df b1be c333 8bbb a4cf 853e efee 99be
000002f0: 9b5f 3e3e fd07 debd 6d38 77be b1c8 45bd
00000300: a962 e23e cd86 ce3d 1742 30be 3d87 913e
00000310: 1380 39bd 0bff c3be 1834 19be 7935 c8be
00000320: 5fe8 c8bd 8cd1 37be 9430 00bf 8e2e b3bd
00000330: cdaf 65bd 1780 7ebe 6efd 05bf 3b74 7c3e
00000340: bd57 34be 34c3 273f 4e5d e8bc c0a1 ee3c
00000350: 70a1 aa3e 95b8 8e3e 7bd1 1e3f f126 a5be
00000360: 63b6 2ebe bc5d 693c ec0e a23e daa2 c0bd
00000370: 8a00 be3e 29eb 843c 55e2 043e 723c 7c3d
00000380: 5f5d cc3d d07c 843d 4481 95be 39d7 1a3e
00000390: ffaf 16be 2256 523e e98d ac3c 787c 96be
000003a0: 52a0 483e 03f0 b7bd d9fe 2f3e b03b db3e
000003b0: 3acd b5bd 2c5f dc3e be58 10bc 76e9 3d3e
000003c0: dce7 16be dd53 8f3d 8664 70be 6f19 d33d
000003d0: 0ab8 a0bc 1210 f73e 8fde ec3e 8768 003e
000003e0: b9a1 ae3d 9792 723e 891f 1ebe cbf8 83be
000003f0: 0dd8 21be b315 a63e 556e 713d 90d0 d33d
-0.24378386 -0.07393434 0.4875278 -0.2807845 -0.03233881 -0.15057033 -0.03970131 -0.52809143
-0.053785365 0.67508745 0.17727323 0.2513394 0.06882816 -0.14788935 -0.08489572 0.1940014
0.09878503 0.3762621 -0.24337901 0.1915952 -0.004459108 0.0018859312 0.33687073 -0.11660786
0.18212593 -0.002608397 -0.033150196 -0.038849663 -0.33515957 0.40553626 -0.19227785 0.11786523
-0.19927636 -0.32481933 0.08114293 -0.1020623 -0.27503878 0.04674601 -0.19693571 0.60937244
0.5373503 0.05414594 0.159927 0.0028886448 -0.32037228 0.14914727 -0.40716925 -0.056180213
0.5317324 0.56304777 -0.24135071 -0.36256155 -0.45987615 -0.39515212 -0.07021204 0.0083538145
-0.13674855 0.070880055 0.34708908 -0.36311877 0.031394426 -0.21919356 0.017557867 0.049821146
0.3784783 0.21916704 -0.014447426 -0.08229422 0.8503144 -0.37271586 -0.24764216 0.35788924
0.7032276 0.073191166 0.4550929 0.28131413 0.28442475 -0.2367279 -0.06668097 -0.15255053
0.3663179 -0.017318556 -1.2245767 -0.30112302 -0.115560085 0.051826667 0.73917025 0.20562509
-0.23204616 -0.22465861 -0.11968077 0.23505186 -0.059059564 0.13346441 -0.11801407 0.07796654
-0.011399995 0.2176714 -0.11311334 0.45380676 0.049996905 -0.17300507 -0.016081262 -0.63168764
-0.12524989 0.2400091 0.39962357 -0.23231237 -0.19511133 0.23442273 0.032573767 -0.33509964
-0.10935362 0.038048495 0.14875983 -0.10114939 -0.24031484 0.38722712 0.7296322 0.0074293176
-0.11077588 -0.154874 0.40674046 -0.24063003 -0.35567638 -0.3554423 -0.34252277 0.10862932
0.50639725 -0.06576394 0.028173434 0.8813458 -0.010380357 -0.37292984 -0.22396679 -0.2306807
-0.31416956 -0.10794331 0.34168702 -0.058544807 -0.29977074 0.22532344 0.14544056 -0.09797472
-0.18606336 -0.15046647 0.3377556 -0.19137365 -0.05450624 0.105427474 0.5451254 -0.24781021
0.2816136 -0.0817987 -0.24548844 0.57151306 0.029802404 0.18847801 0.11689382 -0.08956467
0.14994958 0.4335589 0.20707145 -0.17528504 -0.14964509 -0.35820267 0.13486509 -0.36105365
-0.14440322 -0.10071609 -0.38945085 0.2771988 -0.3112258 0.052960403 -0.000625547 -0.19627619
0.13200954 -0.004459469 -0.38351366 -0.026790062 0.2422903 -0.20325142 -0.6007471 -0.20636886
-0.34741047 -0.004248114 0.2613498 -0.30065104 0.18591158 -0.108413674 -0.24142618 -0.048287097
0.44215897 0.10084305 -0.17212711 0.2842349 -0.045288157 -0.3828052 -0.14961278 -0.39103296
-0.09809946 -0.1795103 -0.50074124 -0.08749114 -0.05607586 -0.2485355 -0.5233983 0.24653713
-0.17611594 0.6553223 -0.028364804 0.029129863 0.33326292 0.278752 0.6203839 -0.32256272
-0.17061763 0.014243539 0.3165201 -0.094060615 0.37109786 0.016225414 0.12976964 0.061581083
0.099787466 0.064691186 -0.29200184 0.15121163 -0.14715575 0.2054067 0.021063762 -0.29391837
0.19592407 -0.089813255 0.1718706 0.42818975 -0.088770345 0.4304136 -0.00881022 0.1854609
-0.14736885 0.069984175 -0.23475847 0.103075854 -0.019619007 0.48254448 0.4626355 0.12539874
0.0852694 0.23688732 -0.15441717 -0.2577575 -0.15805073 0.3243843 0.05894311 0.103425145
