results_kitti/Log_11011605/kernel_points/epoch61/layer_0_simple_0.npy (npy, 3968 bytes, 1 tensors)

array f4 [15, 1, 64]
0	0xbe43f30d	-0.19135685
1	0x3f79352a	0.97346747
2	0x3f41cb44	0.75700784
3	0xbe0200e2	-0.1269565
4	0x3f2a5305	0.6653293
5	0x3f601a24	0.8753989
6	0x3e3cdf1b	0.18444483
7	0x3ef14142	0.471201
8	0x3df507da	0.11964388
9	0xbf73f818	-0.95300436
10	0x3e8cbb70	0.27486753
11	0xbe6430ef	-0.22284292
12	0xbf43389e	-0.76258266
13	0x3e91122e	0.28334183
14	0xbf007a3f	-0.5018653
15	0x3fba94c4	1.457665
16	0x3ede6c2f	0.43441913
17	0xbce50e9a	-0.027961064
18	0x3fbeaedb	1.4897112
19	0xbf93bf5f	-1.1542777
20	0xbf15f142	-0.58571255
21	0x3eee943e	0.46597475
22	0x3e2a6ad1	0.1664231
23	0xbd0e2fd8	-0.034713596
24	0xbedeb46c	-0.43497026
25	0x3f05dc79	0.5228954
26	0x3f489ebb	0.78367203
27	0xbe4210a5	-0.18951662
28	0x3f38d4c5	0.7219966
29	0x3f18bce2	0.5966321
30	0x3ff16095	1.88576
31	0x3d18d071	0.03730816
32	0x3cc4acf0	0.024008244
33	0x3db7e1ba	0.08978601
34	0xbf861eda	-1.0478165
35	0x3f8b3065	1.0874144
36	0x3f026671	0.50937563
37	0xbf7a94ef	-0.97883505
38	0x3e9f4793	0.31109294
39	0x3fe8691c	1.8157077
40	0x3ec0aabf	0.3763027
41	0x3e4d5d13	0.20055036
42	0xbf4d88e7	-0.8028702
43	0xbd12c424	-0.035831586
44	0x3e7caa68	0.2467438
45	0xbe253980	-0.16135216
46	0x3f5329ed	0.8248585
47	0x3f463d20	0.7743702
48	0xbd64edb7	-0.055890765
49	0x3f8acab1	1.0843107
50	0x400a3b6e	2.1598773
51	0x3f3011fe	0.68777454
52	0x3f72bbe3	0.9481794
53	0xbf3aaea1	-0.7292271
54	0xbcc4f30b	-0.024041673
55	0x3dea92a6	0.11453752
56	0xbd8e62a8	-0.06952411
57	0xbd467521	-0.048451547
58	0x3f413f97	0.75487655
59	0xbdfb8c84	-0.122826606
60	0x3f5a36fb	0.85240144
61	0x3f801ea1	1.0009347
62	0x3f7d181e	0.98864925
63	0xbe9ff958	-0.31244922
64	0x3ed3149e	0.41226667
65	0x3ee7c33e	0.45266145
66	0x3f03eacb	0.5153014
67	0xbf8b222c	-1.0869803
68	0xbf143290	-0.5788965
69	0x3edfc8ff	0.43708035
70	0xbec641fa	-0.3872221
71	0x3eace88a	0.33771163
72	0x3cf132c7	0.029443158
73	0x3ee42e52	0.4456659
74	0x3e46f1a3	0.19428115
75	0xbe56bb20	-0.2096982
76	0xbe89f71e	-0.26946348
77	0x3d79dce0	0.06100166
78	0x3db6728d	0.089085676
79	0x3f733176	0.94997346
80	0x3d9ffa58	0.07811421
81	0x3ea22aeb	0.3167337
82	0xbfb5b235	-1.419501
83	0xbe9f81df	-0.3115377
84	0x3e5e86f0	0.21731162
85	0x3e5ea0b1	0.21740986
86	0x3f1f0d67	0.62129825
87	0xbf2c11ea	-0.67214835
88	0x3f0bfaa8	0.54679346
89	0xbe99d9ea	-0.30049068
90	0xbead2ee9	-0.33824852
91	0xbe94c699	-0.29057768
92	0xbf4a6b18	-0.7906966
93	0x3ea05d19	0.31321028
94	0xbf4d1c7e	-0.801216
95	0x3e1803d0	0.14845204
96	0xbf766949	-0.962544
97	0x3dcbf11c	0.09958097
98	0xbee39bb6	-0.44454736
99	0x3d88260c	0.06647882
100	0xbfc817cf	-1.5632266
101	0xbe1effad	-0.1552722
102	0x3c7b3601	0.0153327
103	0xbeb24de5	-0.34825054
104	0x3de48996	0.11159055
105	0x3e890b29	0.26766327
106	0x3ec64762	0.38726336
107	0xbf2b60c7	-0.66944546
108	0x3ebd58a1	0.3698168
109	0x3cebc44d	0.028780127
110	0xbe720cbb	-0.23637669
111	0xbd73b6cb	-0.059500497
112	0x3f10c09d	0.56543905
113	0xbeb11343	-0.34585008
114	0x3e908585	0.28226867
115	0x3f8ec382	1.1153414
116	0xbe8120da	-0.25220376
117	0xbedcd1b8	-0.43128753
118	0xbd9ab3cf	-0.07553827
119	0x3ee7c683	0.4526864
120	0xbebcda44	-0.36885273
121	0x3f1f9f78	0.62352705
122	0xbfdc4fb3	-1.7211822
123	0x3fa251dd	1.2681233
124	0x3f89ec15	1.0775172
125	0xbf2358ac	-0.6380718
126	0xbe6c7c2c	-0.23094243
127	0xbe8e9552	-0.27848297
128	0x3e9fee97	0.31236717
129	0xbfd0e061	-1.6318475
130	0xbeb04e78	-0.34434867
131	0x3ea600ff	0.32422635
132	0x3f3a795e	0.7284144
133	0xbe5d6f88	-0.21624577
134	0xbfefc110	-1.8730793
135	0xbeb0cd9c	-0.34531868
136	0x3e96b361	0.2943373
137	0x3ea38edc	0.3194493
138	0xbed3e190	-0.41383028
139	0x3e826e4f	0.25474784
140	0x3b6d5ed7	0.003621986
141	0x3f024620	0.5088825
142	0x3e5c1fb2	0.21496466
143	0x3e546ee7	0.20745431
144	0x3eb12d06	0.34604663
145	0xbea596ef	-0.32341716
146	0xbef3d5a6	-0.47623938
147	0xbdcdca75	-0.10048381
148	0x3cc4a255	0.024003187
149	0x3e89e75e	0.26934332
150	0xbf489496	-0.78351724
151	0x3e93df0f	0.28881118
152	0x3e7614ca	0.24031368
153	0xbead9f14	-0.3391043
154	0x3ec7983d	0.38983336
155	0x3e93e8a9	0.28888443
156	0xbf340812	-0.70324814
157	0xbf5b28ec	-0.85609317
158	0xbf768f47	-0.96312374
159	0xbc490b34	-0.012270737
160	0xbfac1f56	-1.3447063
161	0x3ed32106	0.41236132
162	0xbf3d095d	-0.7384241
163	0x3e7473b7	0.23872267
164	0xbf871cc0	-1.0555649
165	0xbec8a19a	-0.39185792
166	0x3fda7183	1.7065891
167	0xbddcdf3e	-0.107847676
168	0xbdb0384e	-0.08604489
169	0xbe2a8230	-0.16651225
170	0x3d839b75	0.064261355
171	0xbe85813f	-0.2607517
172	0x3e305177	0.17218576
173	0xbf5cf3fc	-0.8630979
174	0xbebf3de3	-0.37351903
175	0xbf3ef7e9	-0.7459703
176	0x3f8d1a8b	1.1023725
177	0xbea5e56e	-0.32401603
178	0x3e8c03ff	0.273468
179	0x3ed13166	0.40858
180	0xbe023a96	-0.12717661
181	0xbda6c582	-0.081431404
182	0xbea2a43c	-0.31765926
183	0xbfa8d1b8	-1.3189001
184	0x3f1cd327	0.6125969
185	0x3f360572	0.7110206
186	0x3db5bf82	0.08874418
187	0x3ee8a106	0.4543535
188	0x3e9b086d	0.30279866
189	0x3ed1d4a6	0.4098255
190	0x3ef8b91e	0.48578733
191	0x3ea1b376	0.3158223
192	0x3e1ad838	0.15121543
193	0x3eac7f2e	0.3369078
194	0x3f242f87	0.6413502
195	0x3ee29d36	0.44260567
196	0xbeb3b455	-0.3509852
197	0xbeab7486	-0.33487338
198	0x3e08f1cc	0.13373488
199	0x3f1d57a7	0.6146187
200	0xbb2b7741	-0.002616361
201	0xbf1ad2d6	-0.6047796
202	0xbf9d13d2	-1.2271674
203	0xbf888a4f	-1.0667208
204	0xbd43b2ea	-0.047778048
205	0x3e896357	0.26833603
206	0x3e9eb5e1	0.30998138
207	0xbe8fa0ce	-0.28052372
208	0x3ec0d4aa	0.3766225
209	0x3f7a83fb	0.97857636
210	0x3f05c66c	0.5225589
211	0xbec56509	-0.38553646
212	0xbe676ea2	-0.22600797
213	0xbf2b37e1	-0.6688214
214	0x3e947078	0.28992057
215	0xbe85df04	-0.2614671
216	0x3db89e91	0.09014619
217	0x3f48ba50	0.7840929
218	0xc034dbc7	-2.8259141
219	0x3e59ad2b	0.21257465
220	0x3f5648eb	0.83705014
221	0x3e2c704f	0.16839717
222	0xbd5ea2d8	-0.05435452
223	0x3e1c35c3	0.15254883
224	0x3ef6967d	0.48161688
225	0x3e1631c0	0.14667416
226	0xbd211636	-0.039327823
227	0xbf63b3e0	-0.8894634
228	0xbf5094e5	-0.81477195
229	0xbf0ffd37	-0.5624575
230	0x3eb931c2	0.36170775
231	0xbfd13077	-1.6342915
232	0xbe408c35	-0.18803485
233	0x3f084447	0.5322918
234	0x3c871d21	0.016493382
235	0xbe1b9f7f	-0.15197562
236	0x3e78b89e	0.24289176
237	0xb92ffd40	-0.00016783644
238	0xbec6ee9f	-0.38853928
239	0xbe9f5185	-0.31116882
240	0x3e0b74e0	0.13618803
241	0x3e3f6715	0.18691666
242	0x3eaa45b8	0.33256316
243	0xbeab1aa0	-0.3341875
244	0xbf061168	-0.5237031
245	0x3eaef106	0.3416826
246	0xbeb9488e	-0.36188167
247	0x3f3d33fc	0.73907447
248	0x3e5a25c6	0.21303472
249	0x3ea01ade	0.31270498
250	0xbe98c88e	-0.2984051
251	0xbf28e914	-0.6598065
252	0x3ea214a5	0.31656376
253	0xbe6802ed	-0.22657366
254	0x3e1dce71	0.15410782
255	0xbfaa7ec3	-1.3319935
