results_kitti/Log_11011605/kernel_points/epoch61/uplayer_0_unary_0.npy (npy, 65664 bytes, 1 tensors)

array f4 [256, 64]
0	0x3eff4135	0.49854437
1	0xbe83e8be	-0.25763506
2	0x3e8ed75e	0.27898687
3	0x3e592d84	0.21208769
4	0xbe2b8c00	-0.16752625
5	0x3ec505fc	0.38481128
6	0x3e55235c	0.2081427
7	0x3da9d775	0.08293048
8	0x3d5bacda	0.05363164
9	0x3d2590e8	0.040421396
10	0xbe9e312e	-0.30896896
11	0x3e60ec07	0.21965037
12	0x3dc3cdcb	0.09560736
13	0x3dfe1b12	0.12407507
14	0x3db604f7	0.08887666
15	0xbe24c348	-0.16090119
16	0x3c2007a5	0.009767448
17	0xbe2edec7	-0.1707717
18	0xbd035c65	-0.032070536
19	0xbca12c9e	-0.019674595
20	0xbe480e28	-0.1953665
21	0x3e8cc8ef	0.2749705
22	0xbc95b514	-0.018274821
23	0x3d788c17	0.060680475
24	0x3dcc4e54	0.099758774
25	0x3e0cbe7e	0.13744542
26	0x3e03cd78	0.12871349
27	0xbf325014	-0.6965344
28	0x3f1af2ee	0.6052693
29	0x3d6a1468	0.057148367
30	0x3f58f5a0	0.84749794
31	0xbd4d0301	-0.050051693
32	0xbd895212	-0.06705107
33	0xbdd0b944	-0.101915866
34	0x3e38f0ac	0.18060559
35	0x3ee2643d	0.442171
36	0xbf34d7d8	-0.7064185
37	0x3e2c5bd9	0.16831912
38	0x3b511817	0.0031905228
39	0x3c89d93a	0.016827215
40	0xbe28fa46	-0.16501722
41	0x3ea13627	0.31486627
42	0x3da6ec49	0.081505366
43	0xbd8f4c0e	-0.06996928
44	0x3d0fc943	0.035104048
45	0x3e5b2741	0.21401693
46	0xbe9ed154	-0.3101908
47	0x3df1d323	0.11807849
48	0x3e0a780e	0.1352236
49	0x3d198b61	0.037486438
50	0x3e19c0dc	0.15014976
51	0x3ee315e3	0.44352636
52	0x3e1bd813	0.15219145
53	0xbf01e30d	-0.50737077
54	0x3d3076cb	0.04308204
55	0x3e9a0f56	0.30089825
56	0x3e9bc7dd	0.3042592
57	0xbeb442d2	-0.3520723
58	0xbe652764	-0.22378308
59	0x3ea0d7a6	0.31414527
60	0xbda31f6e	-0.07964979
61	0x3dc4e3ec	0.09613785
62	0x3e84fad1	0.25972608
63	0x3e488ef9	0.1958579
64	0x3f21a4ad	0.631419
65	0xbe7ab1c3	-0.24481873
66	0x3e2e41bb	0.17017262
67	0x3dd908f4	0.10597411
68	0x3f056c46	0.5211834
69	0x3de0f907	0.10984998
70	0x3e7d4939	0.24734963
71	0xbf5aa8f0	-0.8541403
72	0xbe07c690	-0.1325934
73	0x3f0216ca	0.50816023
74	0xbd167d3a	-0.03674052
75	0xbef50b09	-0.47859982
76	0x3efd8c65	0.49521175
77	0x3d60be81	0.05486918
78	0x3e34d3db	0.17658941
79	0x3c912949	0.017719882
80	0x3d9f4ebc	0.07778689
81	0x3f0c1d24	0.54731965
82	0xbe00ba3d	-0.12571044
83	0xbe1ed565	-0.15511091
84	0xbf001396	-0.50029886
85	0xbe842bf3	-0.2581478
86	0xbd02f1f4	-0.031969026
87	0xbe8ec193	-0.2788206
88	0x3ca632b6	0.020287853
89	0x3df6e30a	0.12055023
90	0xbef230ba	-0.473028
91	0x3df5909b	0.11990472
92	0x3ecdaaa0	0.4016924
93	0x3dc8074f	0.09767019
94	0x3eb59d0e	0.35471386
95	0xbcd88522	-0.02643067
96	0x3e4c700d	0.19964619
97	0x3ce70c5d	0.028204137
98	0xbd478ba8	-0.04871717
99	0x3ef22716	0.47295445
100	0x3efa47c7	0.48882887
101	0x3bccf52f	0.006254814
102	0xbee08651	-0.43852475
103	0x3e897798	0.26849055
104	0x3ed3d973	0.41376838
105	0x3e59c78c	0.21267527
106	0x3e78e9a8	0.24307883
107	0xbea7dda2	-0.3278628
108	0xbdc2c029	-0.09509308
109	0x3d89bb90	0.06725228
110	0xbe0ba189	-0.1363584
111	0x3d43df88	0.047820598
112	0x3ea02b3a	0.3128298
113	0x3e66957b	0.2251796
114	0x3e155b5e	0.14585635
115	0x3e6cebf0	0.23136878
116	0xbde5a15f	-0.1121242
117	0x3af5b33b	0.0018745431
118	0x3e3d9eb6	0.18517575
119	0xbbf2a323	-0.0074047013
120	0xbe16c8c3	-0.14725022
121	0xbe88480c	-0.26617467
122	0xbeb33cc8	-0.3500731
123	0x3c3b3559	0.011426293
124	0x3e5cf6b5	0.21578486
125	0xbe4c41c7	-0.19946967
126	0x3ef28b18	0.47371745
127	0x3dee191c	0.11625883
128	0x3cf74a82	0.030186895
129	0xbe7787e7	-0.24172936
130	0x3e3756cd	0.17904206
131	0x3e93a512	0.28836876
132	0xbdd4b8c4	-0.10386804
133	0x3c7101f7	0.014709941
134	0x3e790117	0.24316822
135	0xbe79f36d	-0.24409266
136	0x3e74fd2b	0.23924701
137	0x3de84ee0	0.11343169
138	0xbf676f8f	-0.904046
139	0x3f169083	0.5881426
140	0xbeb209cb	-0.34773096
141	0xbf3610cc	-0.7111938
142	0x3da0b810	0.07847607
143	0x3c99263c	0.01869499
144	0x3e0025c2	0.12514403
145	0x3ed72f3a	0.42028219
146	0x3eb4bb25	0.3529903
147	0x3e85c69e	0.26128095
148	0x3d25668b	0.040380996
149	0xbe879ad0	-0.264853
150	0x3e98a312	0.29811913
151	0xbcb8dc59	-0.022566007
152	0x3e2dc452	0.16969422
153	0xbe2f77e2	-0.17135575
154	0x3e0897dd	0.13339181
155	0xbe66bc31	-0.22532727
156	0x3e2544c4	0.16139513
157	0x3eee4308	0.46535516
158	0xbef78893	-0.48346385
159	0x3e870ea3	0.26378354
160	0x3e402e48	0.18767655
161	0x3e64ce7f	0.22344397
162	0x3ecee7df	0.4041128
163	0xbe85c327	-0.26125452
164	0x3f1b805a	0.60742724
165	0x3e1fb1fe	0.15595242
166	0x3d0e1bc7	0.03469446
167	0xbec26171	-0.37964967
168	0xbdd906f2	-0.10597028
169	0xbef435e9	-0.4769738
170	0x3f20d797	0.62828964
171	0x3e0f714e	0.14008066
172	0x3d9576b6	0.07298033
173	0x3ec9073d	0.39263335
174	0xbe82527f	-0.25453565
175	0x3e4f2345	0.20228298
176	0xbcd034fa	-0.025415886
177	0x3e517664	0.20455319
178	0xbee5c3b5	-0.44875875
179	0x3de6061e	0.112316355
180	0xbc88c0d9	-0.01669352
181	0xbdc661cf	-0.09686624
182	0x3db49994	0.08818355
183	0x3dd22c66	0.102623746
184	0x3dd4ec9b	0.103966914
185	0xbd4cacc5	-0.049969453
186	0x3ed3aed9	0.41344336
187	0xbcea4c92	-0.028600965
188	0x3df00803	0.11720278
189	0x3c85d8c3	0.016338712
190	0x3e7259d0	0.23667073
191	0x3efc67c7	0.49297926
192	0x3ed085b4	0.40727007
193	0xbe9bd166	-0.30433196
194	0x3d48d3c0	0.049030066
195	0x3f075085	0.5285724
196	0x3f118821	0.5684834
197	0x3edc208b	0.42993578
198	0x3eb4842e	0.35257095
199	0x3f4ee888	0.80823565
200	0xbe7a87b3	-0.24465828
201	0x3e29120d	0.16510792
202	0xbdf95c3b	-0.12175795
203	0x3eb3f668	0.3514893
204	0xbe8041f5	-0.2505032
205	0xbd0e1796	-0.034690462
206	0xbf12bf89	-0.5732351
207	0x3ea1675b	0.31524166
208	0x3e41707c	0.18890566
209	0x3e51dd3c	0.2049455
210	0xbd0692af	-0.032854732
211	0x3e21db91	0.15806414
212	0x3e597632	0.21236494
213	0xbe5d75a0	-0.21626902
214	0x3dc093ab	0.094031654
215	0x3e884832	0.2661758
216	0x3d5710e5	0.052506346
217	0xbe828957	-0.25495407
218	0x3eaaba5b	0.33345303
219	0x3dec65a8	0.11542827
220	0x3f15cdd1	0.58517176
221	0x3d0e35e8	0.034719378
222	0x3e96ef65	0.2947952
223	0x3da21d13	0.07915702
224	0xbe4b826c	-0.19873971
225	0x3db0cdc3	0.08632996
226	0x3cd0461f	0.025424061
227	0xbeacfec7	-0.3378813
228	0x3e716b4a	0.23576084
229	0x3e9b8198	0.3037231
230	0x3e8f137b	0.2794455
231	0x3e0cb792	0.13741902
232	0xbe45d287	-0.19318591
233	0xbeaa5c40	-0.33273506
234	0x3e274797	0.16335903
235	0x3e18d41b	0.14924662
236	0x3db7aa39	0.08968014
237	0x3eb0750c	0.344643
238	0x3e324829	0.1741034
239	0xbe420466	-0.1894699
240	0xbd765cd6	-0.06014713
241	0x3f1edcfa	0.62055933
242	0xbdaa3c0e	-0.08312236
243	0x3ea43741	0.32073405
244	0xbdb0d82c	-0.086349815
245	0x3d289715	0.041159708
246	0x3d22ea99	0.03977451
247	0x3f0ebd94	0.55758023
248	0x3ed65be4	0.41866982
249	0xbefee936	-0.497873
250	0x3da590f4	0.08084288
251	0x3eebe939	0.46076372
252	0xbeba573a	-0.36394674
253	0x3ed3387a	0.41254026
254	0x3e3eba2e	0.1862571
255	0x3e9a6014	0.30151427
