results_kitti/Log_11011605/kernel_points/epoch61/uplayer_1_unary_0.npy (npy, 262272 bytes, 1 tensors)

array f4 [512, 128]
00000000: ca02 053e b969 053d 8ba7 a5bc a83e a03d
00000010: 1224 aebc 21aa 93bd 18eb 99bd 6371 2e3e
00000020: b3a1 9f3d b04a 4ebe 598c 99bd 6b41 2f3e
00000030: 4376 36be 772d 15bd c14b 053e 7b8a 77be
00000040: 01b7 a7be 3657 11be 6905 89bd c035 1cbd
00000050: 022e 413d df3b cebe e31d f83d 1063 90bd
00000060: f70e d23c 3659 90bc dec4 3a3e b85f 123e
00000070: aa3c 06be 84ac 8dbd e90b 5fbc 48f3 3fbb
00000080: 317b 093d 14ee 673e 2b91 5a3e 3667 79be
00000090: c599 65be 5df2 d3bd bbcd 99bd ba8e 093e
000000a0: 8fd8 a6be 04ba f8bc a1c0 cdbd 7271 04be
000000b0: 9f58 e83d 64f8 99bd 2997 9abe faef 8a3e
000000c0: a27d 1abe 9881 ccbd ad20 d1bd 8de9 f1bd
000000d0: d9f8 5fbe 935f d23b 7bb1 12be 51db 5cbd
000000e0: 63e1 69be 7507 dabd 68d2 483e d0b4 f53d
000000f0: dc13 15be 75e9 073c 8e06 26be db0f ad3e
00000100: 3ad6 813c bc5e 5ebd e0a8 77be 2633 bebd
00000110: 6af4 8ebd 1efc 2c3e a1dd 8ebe f6e9 4bbe
00000120: e566 a03d 4e8d d23a 5afd 3d3c 9830 9e3d
00000130: dbcd 83be ed68 ecbd 47d5 0e3e 1d6a 9a39
00000140: fe0a 84be a5ff f6ba 47e1 28be bb6b 1c3e
00000150: d215 0bbd 59d4 f7bd a95e b2bd 5966 f63e
00000160: 05aa da3c 630e 8cbd 8743 41be 7e01 68be
00000170: 2bec 1f3e 1920 a4bd 1e92 78bd 59c8 c93e
00000180: d293 57bd 3ef4 8d3d 5d83 a33e 5e45 11be
00000190: 5fdc 4bbe 2d42 ba3d febb 94be a511 603e
000001a0: 1b75 ea3d 8b47 8c3d fb25 9cbd 5993 f63c
000001b0: 6647 403d c00d 11bd e428 0e3d 78f9 293e
000001c0: b500 f83d 24a3 083a 8a1f 563c fe0f 7fbe
000001d0: 1baa 62be e27d 6b3e bbee 19be a481 1b3e
000001e0: af4f 8ebd a351 00bb 4340 3a3e d887 81bd
000001f0: a8a4 04be a372 d2bc e9a8 1fbe 87da 2a3e
00000200: 8f93 53be 8ceb 11be e691 f7bd 77e7 e7bb
00000210: b1ab 6a3e d739 58bc b278 343e b454 5fbe
00000220: a2cb 24be 1feb 443e f782 03be 1320 763d
00000230: 8a02 293d 3e87 f8bd a45a 28be 2033 70bd
00000240: f4e2 143e ad1c 15bd 9a66 febc 1630 9abe
00000250: aa63 993e ba77 2a3e ab66 93bc ec1b 083e
00000260: 326f 1a3b 96a3 ac3e cd6b 86be b089 2fbe
00000270: 143f 83be 997e f63d 6a77 013e a4dc 633d
00000280: 3b49 b63d f0f2 4abe 8ec8 40bd 045a 183e
00000290: 1d16 a23e 0b7c 83be aa28 a4be 4ea5 c43d
000002a0: 643e 823b 0a20 f83d 1aa4 dfbe 63a5 c13d
000002b0: 9cd0 a73e fbe9 a6be 96f0 39be e051 163e
000002c0: 29cd debd a857 a93e 1e7a 6dbc ce3c 7c3e
000002d0: 2890 183e f990 dfbc f9b2 7ebd b5bc 6c3e
000002e0: c741 94bd 1986 833e 556a c43d aa9e f2bd
000002f0: 944b 153e 269a f1bd 1a81 ccbe ed74 20be
00000300: 2f13 68bd 5029 2e3e 84cd 7c3e db79 e9ba
00000310: a5a4 3d3e b3ec b03d 914f 2cbe df62 d63d
00000320: 254b 5abc 4124 09be f7a3 b4bd ddff 063e
00000330: e44b 31be fa4d 25bb ccd7 5dbc bac2 0bbe
00000340: 6e6e 293e f08a 6abe f4e4 173e 979b 9abe
00000350: 99d9 c43d 1c6c aebd 86e7 63be fd71 02bd
00000360: 8f25 4ebd 0ae3 213e a29c 5f3e a364 41bd
00000370: 9ef3 0fbe e87f cf3c d095 3f3e d6fe 1dbd
00000380: e280 d2bc cd42 99bc d38f b1bd 0319 1a3d
00000390: 6162 5dbc 23c3 a3bd b850 583e 1f97 21be
000003a0: 8986 79be 437f 1cbd a30b 413e 79e1 acbd
000003b0: 4f51 6b3d bfdb d43d 389a b33c c615 4d3d
000003c0: ba07 20be f217 6dbb e2ec 743e 5e4f 3e3d
000003d0: dffd 913b e913 d9be 5cb5 163e d9c3 5e3d
000003e0: e4da 91bd 3894 1cbe 0fb7 0bbc 4862 1e3e
000003f0: 526d 4e3d f5c5 ea3d 493c 8cbd 2471 8c3e
0.12989345 0.032571528 -0.020221492 0.07824451 -0.021257434 -0.07210184 -0.07515544 0.17035441
0.077945136 -0.20145679 -0.07497472 0.17114799 -0.17818551 -0.03642031 0.13017179 -0.2417392
-0.32756808 -0.14193425 -0.06690485 -0.038137197 0.047163017 -0.40280053 0.121150754 -0.07050145
0.025641901 -0.017620664 0.18239161 0.14294326 -0.13109079 -0.0691767 -0.013613679 -0.0029289294
0.03356475 0.22649413 0.2134444 -0.24355778 -0.2242194 -0.103489615 -0.07509943 0.13433352
-0.32587096 -0.030362137 -0.10046507 -0.12933901 0.11345028 -0.0751808 -0.3019345 0.27136213
-0.15086988 -0.099856555 -0.102113105 -0.118121244 -0.21872272 0.0064200847 -0.14325516 -0.053920094
-0.22839884 -0.106459536 0.19611514 0.11997378 -0.14558357 0.008295407 -0.16213438 0.3380116
0.015849221 -0.054289564 -0.24185514 -0.092870995 -0.06980212 0.1689305 -0.27903464 -0.19913468
0.078321256 0.0016063841 0.011596048 0.07724112 -0.25742993 -0.115434505 0.13948546 0.0002945223
-0.25789636 -0.0018844499 -0.16492186 0.15275471 -0.033956356 -0.12101049 -0.08709461 0.4812496
0.0266924 -0.068386815 -0.18873416 -0.22656819 0.15617435 -0.08013935 -0.060686223 0.39410666
-0.052631207 0.06931351 0.3193616 -0.14186618 -0.19908284 0.09094653 -0.29049677 0.21881731
0.11448117 0.06849583 -0.07624432 0.030099558 0.04694309 -0.035413504 0.034706965 0.16599071
0.1210951 0.0005212298 0.013069043 -0.24908444 -0.22135203 0.22997239 -0.15032475 0.15186173
-0.06948792 -0.001957991 0.18188576 -0.06324738 -0.12953436 -0.025689429 -0.15591778 0.16684924
-0.20661758 -0.1425001 -0.12088375 -0.0070771533 0.22917058 -0.013197384 0.17624167 -0.21809655
-0.16093305 0.19230317 -0.12842928 0.060089182 0.041262187 -0.121351704 -0.16440827 -0.058642507
0.14539701 -0.0364043 -0.031054784 -0.30114812 0.2995885 0.16647235 -0.017993292 0.13291901
0.0023564813 0.33718556 -0.2625412 -0.17142367 -0.25634062 0.12035865 0.12643209 0.05563034
0.08900686 -0.19819236 -0.047066264 0.14878088 0.31657496 -0.25680575 -0.32062274 0.09601842
0.0039747227 0.12115486 -0.43679887 0.09455373 0.32776344 -0.32600388 -0.18158183 0.1467967
-0.10878975 0.3307469 -0.014494447 0.2463257 0.14898741 -0.027290808 -0.0621824 0.23118861
-0.072391085 0.25688246 0.09590594 -0.11846669 0.14579612 -0.117969796 -0.39942247 -0.15669604
-0.05665892 0.17007947 0.24687773 -0.0017812805 0.18519838 0.08638897 -0.16827227 0.10468077
-0.01332358 -0.13392736 -0.08820336 0.13183542 -0.17314106 -0.002522348 -0.0135402195 -0.13648501
0.16546032 -0.22904563 0.14833432 -0.3019683 0.09611816 -0.08516714 -0.22256288 -0.03184699
-0.050328787 0.15809265 0.21837094 -0.047215115 -0.14057776 0.025329545 0.18709493 -0.03857311
-0.025696222 -0.01870861 -0.086700104 0.03762151 -0.013512225 -0.07996204 0.21124542 -0.15780304
-0.24367727 -0.038207304 0.18852095 -0.08441443 0.05745059 0.10393476 0.021924123 0.050069593
-0.15627947 -0.0036177603 0.23918489 0.04646241 0.0044553126 -0.42398003 0.1471762 0.054385994
-0.07121828 -0.15290916 -0.008527531 0.15467179 0.050397225 0.114635386 -0.06847436 0.2743007
